results/hb_02/Hummingbird/Hummingbird-163072.onnx (onnx, 318566 bytes, 7 tensors)

network_body._body_endoder.seq_layers.0.weight f4 [256, 46]
00000000: abc9 b8bd 73dc d53d 65bf 903d 25bb 9cbd
00000010: 2cab 4a3e 087f cc3e efa5 493e 2f2c 0a3e
00000020: 3e06 f8bd 3d06 4fbe 4bee d4bd 1022 f1bd
00000030: 8a37 82be 75cb a63d 5819 b73d f99e 833c
00000040: d8e4 40be 2c7f fdbd 32d3 893d 90e9 babd
00000050: ebdc 1ebd fffb 203d 3704 8d3e 0971 88bd
00000060: d9d6 82be ef33 9e3e 247d 21be 3af1 93be
00000070: c924 f03d 3766 ed3d cabb b63d 54d5 803c
00000080: 3588 523d d2cf fe3d 27c4 77bd 1ab9 d73d
00000090: bbf0 6e3e 61d3 a23d 92e1 d43d 93ad 43be
000000a0: 9fe7 363e 0a77 d93d 48fa 53be 86c5 e3bd
000000b0: 4d3f 463d f4a2 093c c9a1 0f3d eaf2 4bbd
000000c0: 668e bbbb d512 43bd a121 75be ecb9 b83d
000000d0: 826f 663d 7485 3b3e c156 063e 0921 e3bc
000000e0: 8fa7 223e 3bb5 67be 5ded 07be 4591 183e
000000f0: 4f4f d73d dcd8 7abd 67fd dfbc 6c0c 5cbe
00000100: 2f43 01bd 915a 62be 00e3 f5bd e968 3cbd
00000110: cd55 c3bc 4976 56ba 0750 3e3e 87e3 ab3e
00000120: 9080 933e ac6d a43e 7c16 34be e161 21bd
00000130: f3a1 c1bd d6cf e1bd 98f0 ef3d 5cc2 7d3b
00000140: bad6 38bd eaca 733d dbe6 aa3d 8ba1 c63d
00000150: cac6 3f3d be14 ce3d 7555 c03d 5f36 66bd
00000160: 5fb6 a13d 091a a0be 8136 4bbd c9bd ad3e
00000170: 40a2 29be d66f c8bd d35e 453d 583a a73d
00000180: 4faa 1dbe c214 e4bd ece1 1f3e 89ae b3bc
00000190: 015e 2bbe e0e2 fcbd 6665 37bd 7b38 2c3e
000001a0: 79bc 24bc 55f0 223d b635 193e 1edc 5d3e
000001b0: e4ed 993e efde 18be d459 9cbd 225b 3c3d
000001c0: 2e96 233e e5e3 93bd ab86 d33c b652 cb3e
000001d0: 6779 8d3d 9f3e 443e dcb3 f63b 16cd 953d
000001e0: 31a9 433d cca4 e43d 75c4 f53d fa32 0cbe
000001f0: fdb4 28be 7759 c7bb d8f3 ff3d e2a6 763e
00000200: 9a04 593d 1d46 d2bd 436f 933e be45 54bd
00000210: 1725 efbd c621 793e a233 a93e b553 af3d
00000220: 8ff3 d43d 9619 713e 841e 15be 4c29 08be
00000230: f6f5 bf3d 3f7e 663c 622b d7bd 7e29 6c3d
00000240: 97ab d2bd a3ee 4e3d cef0 10be 7b03 c2bb
00000250: 85a9 a9be 36e6 fc3d a65d ea3d 5b3f f83d
00000260: a62c b4bc 0137 223e a784 56be a977 0cbe
00000270: b742 aa3e d261 e93d d8f3 c93c 9ab9 63bd
00000280: 861c 2e3d b884 03be 4e7e ecbc ec47 d6ba
00000290: 7ec6 ab3d bae8 0e3e 9eb7 ba3d da6e 93bd
000002a0: 22de 793d 8b55 96bc 83df 5e3e efa5 ae3e
000002b0: 9c03 153d 5392 f6bc b03b b13d eca4 6bbd
000002c0: 7afd 30be 944d 82be 28ca d93d 3352 cbbd
000002d0: 70dd 293d 8694 053e a95c aebd b721 003d
000002e0: a426 bfbe 6a28 f8bd 9086 76be 0e16 0fbc
000002f0: da21 233e 8064 0b3e e5fa a23d 0a4f 8e3e
00000300: a111 15bd 91b5 dc3d f617 623e 7d98 9d3c
00000310: 2879 0e3d 1afb 20bd 0c4c 78bd 8cb3 273d
00000320: 986d 81be fc2c 04be 98dc 403c bdd1 2d3d
00000330: 3f3a 113c 283a 27bd 3466 bc3d 463e 3e3e
00000340: 6b0b c83b e143 813e fb91 b0be dbf0 8abe
00000350: c461 07be 86f4 5dbd a67c e03d 6511 babd
00000360: 72c6 2a3e 7df8 b839 4704 bc3e 51ed 143e
00000370: 5b88 b03d 51ab 9dbc da33 283e 53db 01bd
00000380: 5862 8ebc 2b05 d6bc 3846 8cbd 2cb0 aebd
00000390: efc2 eebd e007 f13d bd8f 413c 2bf3 abbd
000003a0: 931a 3dbe 3a11 85be 4326 bd3d 5896 3d3e
000003b0: d686 d43b 795e 82bc f86a e5bc 9c1d 75be
000003c0: a8f9 b7bd cd57 6c3e afd8 d8bd 0cae cc3d
000003d0: 8454 6b3e 6b9e 9dbd 38be dfbc 12a2 8c3d
000003e0: 16b0 103d 235a 093d b253 30be 200d edbd
000003f0: a7a8 a33d 8b27 6dbd 1976 51be 1ed3 efbd
-0.0902284 0.10442438 0.070677556 -0.076528825 0.1979186 0.39940667 0.19692205 0.13493417
-0.121105656 -0.20217223 -0.10397013 -0.11774075 -0.25432998 0.08144275 0.08940381 0.016067015
-0.18837297 -0.12377772 0.067297354 -0.0912658 -0.038784903 0.039302822 0.27542278 -0.06662185
-0.2555454 0.30898997 -0.15770394 -0.2889498 0.11725766 0.115917616 0.08922537 0.015726723
0.05139943 0.12441982 -0.0604898 0.10533352 0.23334019 0.079504736 0.103945866 -0.19109182
0.17861794 0.10618408 -0.20700943 -0.11121659 0.048400212 0.008400667 0.0350664 -0.049792208
-0.0057237623 -0.04762538 -0.2393861 0.09019837 0.056258686 0.18312627 0.13119031 -0.027725713
0.15884231 -0.22627728 -0.1327414 0.14899166 0.10513174 -0.06124197 -0.027342511 -0.21489114
-0.031558212 -0.22104861 -0.120061874 -0.045998488 -0.023844624 -0.0008181078 0.18585216 0.33572027
0.28809023 0.32114923 -0.17586702 -0.039399985 -0.094547175 -0.1102597 0.117158115 0.0038720584
-0.045126654 0.059519686 0.083448134 0.096987806 0.04682044 0.1006255 0.093913 -0.056204196
0.07896113 -0.31269863 -0.049612526 0.33933857 -0.165658 -0.09786956 0.048186135 0.08165425
-0.15396999 -0.11136772 0.15613526 -0.02193381 -0.16735078 -0.123479605 -0.044774435 0.1681842
-0.010054701 0.03977998 0.14961895 0.21666 0.3006431 -0.14928792 -0.07634321 0.04598535
0.15975258 -0.07221202 0.02582105 0.3971154 0.06907921 0.19164513 0.007528765 0.07314508
0.047768775 0.11164245 0.12000362 -0.13691321 -0.16475292 -0.006083663 0.124976814 0.24087098
0.052982904 -0.10267279 0.28795823 -0.051824324 -0.11676996 0.2432929 0.33047205 0.08560888
0.103980176 0.23544917 -0.14562422 -0.13297004 0.09373085 0.014068185 -0.105063215 0.057656758
-0.102866344 0.05052055 -0.1415436 -0.005920825 -0.33137146 0.12348597 0.11443643 0.12121459
-0.021993946 0.15841295 -0.2094904 -0.13717522 0.33254024 0.11395611 0.024652407 -0.055596925
0.04250767 -0.12843597 -0.02886882 -0.0016348339 0.08387469 0.13955966 0.091170534 -0.07198878
0.061002858 -0.018351337 0.2176495 0.34110972 0.036380395 -0.03009907 0.086539626 -0.05753033
-0.17284194 -0.25449812 0.10634261 -0.09927788 0.041470945 0.13044938 -0.08513767 0.031282153
-0.37334168 -0.12117083 -0.24074769 -0.008733286 0.15930882 0.13612556 0.079580106 0.27794677
-0.036393765 0.107768185 0.22079453 0.019237751 0.034783512 -0.03930197 -0.0606194 0.040942714
-0.25278926 -0.12907785 0.011771344 0.04243635 0.008863985 -0.040826946 0.09199181 0.18578443
0.0061048768 0.252471 -0.34486374 -0.27136883 -0.13220888 -0.054188274 0.10961275 -0.09085349
0.16677263 0.00035280353 0.36722013 0.14543654 0.08619758 -0.01924673 0.1642603 -0.031703304
-0.017380878 -0.026125511 -0.06849331 -0.08529696 -0.116582744 0.1176908 0.011814055 -0.0839599
-0.18467169 -0.25989705 0.092358135 0.18514383 0.0064858003 -0.015914189 -0.028005108 -0.23937076
-0.08983165 0.23080368 -0.10588204 0.09994134 0.22981459 -0.076962315 -0.027312383 0.0686685
0.03532418 0.033533227 -0.17219427 -0.11574769 0.07991152 -0.05789904 -0.20455207 -0.11710189

network_body._body_endoder.seq_layers.0.bias f4 [256]
00000000: 09a4 28bc 00c1 20b9 b46e adbb 5677 b43b
00000010: 3390 573b 7092 e13b 4f9c 9bba 5160 35bc
00000020: d0b9 353b 6bb2 4f3c 599f 00bb a4c4 3f3b
00000030: 95d4 403a 97a8 53bb 1e58 0c3c caf4 c0bb
00000040: 8042 5bbb 4245 aebb 4b0a 0dbc ebe2 a2bb
00000050: a369 e33b 50d0 233b a875 233c 8741 d23b
00000060: 6862 bdbb 2429 b9bb e0ec 97ba b456 bd3b
00000070: 731f 12bb 7482 1f3b ff66 cbbb fc38 02bb
00000080: 4c84 873a ee4f 0cbc 2dca db3b ca71 18bb
00000090: d7df bcbb 201f 5b39 3718 43bb 2de5 bdb9
000000a0: 895c 22b9 380a b23b cdc3 b1bb 05cb 85bb
000000b0: 2a05 1cbc ab0b 80bb 8f74 f03b 80f4 9339
000000c0: c171 903a 3ac0 c9ba 9611 373b a772 87bb
000000d0: febf e6ba 37e6 e6bb 5ff8 aa3b 031a 073c
000000e0: 2f7d 023c 2be2 373c e912 1ebb 66ed 62ba
000000f0: 4d1e fc3b 1cc3 843b 439a db3a be76 89bb
00000100: 7159 003b 1fa1 b1b9 2f7f 12bc 4ba5 01bc
00000110: 4dda 443b e651 18bb 5215 0bbc 15e6 ec3b
00000120: dbcd d3ba 4b26 c03a dbc9 b1bb b953 0dbb
00000130: aaab b33a c8f1 8bba 0dd9 eb3a 49c9 383b
00000140: 7c56 983b 6bcd 0a3a 4a1a 2fbb b21b 3d3b
00000150: 5726 1f3c af15 013b a5d7 0bbc 7c9b 35bc
00000160: 35eb 05bc 934e c2b9 5b9e 033c b4e4 d73a
00000170: e830 8cba b5f8 a43b 56d2 95ba 5945 cf3a
00000180: a3ad 5339 de2a c4bb cbdf bfbb 4db7 89b8
00000190: 33f5 383c 990a 123b 67e2 f4bb 1a52 ceba
000001a0: e9d5 1739 0e9a 7ebb 0494 a239 2f90 b0bb
000001b0: d2b5 593b 3d30 b4ba 8a62 03bb 5602 acbb
000001c0: 8bcc be3b d1e0 f73a 06cb 42bb 567d 983b
000001d0: af52 383a 79e7 b73b 7200 7d3b e46d cc38
000001e0: b58c a8bb e942 78bb 2310 4ebb 0f0a 8a3b
000001f0: 5e91 4abb bc95 adba a6dd 4cba 36eb 7738
00000200: db6b dc39 5292 5d3b f677 d73b f614 123b
00000210: c258 52ba 035b d63a 5321 f2bb 435d 10bb
00000220: ddfb 70bb b79d c03b 5bc6 ed3b 4f91 1d3b
00000230: ba26 8cba 68eb bd3b 7378 e23b 05ec a0bb
00000240: aa64 963b e43a a1bb 4021 d1bb f1ea 213a
00000250: 2e3a e93b a361 e43b 1fe8 e9b9 49b5 36bb
00000260: eaad a43b 21a8 d13b 1e11 523a 2476 d03b
00000270: 20b7 cc3b 8367 de3b 5a00 46bb f434 ce3b
00000280: 10be cf3a 5e53 293b 5c79 53bb 342f 953b
00000290: ffce a33a 4acb 183b 4fc7 c3bb 2d96 a33a
000002a0: 8ec2 65ba e32c 963a cdde 2a3c bfb5 023b
000002b0: e751 d039 c7c0 d4bb f48c 0fbb 6a58 cb3b
000002c0: 3beb 3c3b cd2d f03b 8aa3 73ba 2922 153c
000002d0: 7546 243c b623 a43b b382 953b be3e 47bb
000002e0: 525a 0f3c c445 003b 9d9e 49ba bee5 9c3b
000002f0: 5971 b0bb ce4c fbbb fd80 c13b fb60 cb3a
00000300: 449d c9bb 18ff a53b b1a0 80ba 691d 21bb
00000310: 0d02 443a f031 ab3b 6787 443b f7c8 4a3b
00000320: 6bb4 94bb 53d0 a5bb 52ee df3a d948 d1bb
00000330: 78a8 9d3a 089f 503c e95c 903b bc38 8f3b
00000340: 0098 0d3c a2ae 31bb 2e67 883b 4e5f a0ba
00000350: c520 c9bb 6fe4 d83b 9940 4b39 9a62 903b
00000360: bc24 d1ba 9b71 063c ba15 2a3b 4883 163c
00000370: 1e97 b93b f14f 3fbb 1b4e ab3b d9de 833b
00000380: f76d 533c 9a55 08bb 22ca 13ba fcaf 41ba
00000390: 54bb 55ba 3841 b3bb 9e08 aebb 33a5 d0bb
000003a0: b8e9 be39 71ec 96ba d730 28bc 03b7 febb
000003b0: 17f6 aabb 1ad2 0abb a385 a43b b3c8 f6bb
000003c0: 3add 793b e4a3 a1ba 9ed0 fd3b be32 c53b
000003d0: b3e5 61bb 23ae dc3b 252d 9bbb 0dd6 73bb
000003e0: 7fc4 a53b 99d5 29bb bfcf 28bb 66b0 c9bb
000003f0: c6d2 25bc 20a8 8439 e501 cb3a 9448 c8bb
-0.010293015 -0.00015330687 -0.005292738 0.00550739 0.0032892346 0.006883912 -0.0011872145 -0.011070327
0.002772916 0.0126768155 -0.0019626229 0.0029261494 0.0007355896 -0.0032296532 0.008565931 -0.005888556
-0.0033456385 -0.005318315 -0.008608411 -0.0049708984 0.006940083 0.002499599 0.009976782 0.006416503
-0.005779553 -0.0056506563 -0.001159098 0.005778158 -0.0022296577 0.002433923 -0.0062073465 -0.001987039
0.001033911 -0.008563979 0.006707451 -0.0023261183 -0.0057639885 0.00020897062 -0.0029769072 -0.00036219638
-0.00015483996 0.005433347 -0.0054249526 -0.0040830397 -0.009522716 -0.003907641 0.0073381136 0.00028220192
0.001102023 -0.0015392371 0.0027934066 -0.0041335407 -0.0017604826 -0.0070464867 0.0052175964 0.008245948
0.007964416 0.011223356 -0.0024120158 -0.0008656591 0.007694042 0.004051579 0.0016754348 -0.0041950634
0.0019584561 -0.00033880115 -0.008941456 -0.007912944 0.0030037344 -0.0023242175 -0.00848897 0.0072295764
-0.0016159372 0.001465985 -0.0054256744 -0.0021564795 0.0013707776 -0.0010676915 0.0017993763 0.0028196147
0.0046489816 0.0005294892 -0.002671855 0.002885562 0.009713731 0.0019696762 -0.0085353 -0.011084434
-0.0081737535 -0.00037061106 0.00803336 0.0016471357 -0.0010695728 0.005034531 -0.0011430483 0.0015813514
0.00020187213 -0.0059865555 -0.0058555356 -6.5668115e-05 0.011288929 0.0022284149 -0.0074732783 -0.0015741021
0.0001448017 -0.0038849148 0.00031009328 -0.005388282 0.0033219946 -0.0013747286 -0.0020047748 -0.005249302
0.0058227233 0.0018911605 -0.0029723062 0.004653613 0.0007031364 0.0056123105 0.0038605002 9.747947e-05
-0.0051437267 -0.0037881678 -0.0031442724 0.004212625 -0.00309094 -0.0013243477 -0.00078150106 5.9108446e-05
0.00042042029 0.0033809138 0.0065755798 0.0022290326 -0.000802409 0.0016354028 -0.0073892265 -0.0022028245
-0.0036771216 0.005878176 0.007256312 0.002404291 -0.0010692694 0.005795885 0.0069113313 -0.004910948
0.004589637 -0.0049203504 -0.0063821375 0.00061766716 0.0071175313 0.006969647 -0.00044614167 -0.002787905
0.005025615 0.0063982164 0.0008013415 0.0063617397 0.006247416 0.006787242 -0.0030212612 0.0062929336
0.001584949 0.0025837044 -0.003226838 0.004552746 0.0012497603 0.002331453 -0.005974687 0.0012480669
-0.00087646476 0.0011457469 0.010429096 0.0019944755 0.00039733874 -0.0064927074 -0.0021904083 0.006205608
0.0028826732 0.0073296786 -0.00092940836 0.009102383 0.010026564 0.00500914 0.0045626997 -0.0030402387
0.008749561 0.0019572834 -0.0007691177 0.0047881296 -0.005384606 -0.007669068 0.005905269 0.0015516573
-0.0061527807 0.00506581 -0.0009813515 -0.002458418 0.0007477112 0.005224459 0.0029987933 0.0030942538
-0.004538109 -0.0050602346 0.0017084575 -0.006386858 0.0012028357 0.0127332285 0.004405607 0.004370777
0.008642197 -0.0027112146 0.0041626906 -0.0012235434 -0.0061379396 0.0066190283 0.00019383653 0.0044062855
-0.0015956382 0.008205797 0.0025952891 0.009186573 0.0056637665 -0.0029191936 0.0052278168 0.0040243682
0.012904636 -0.0020802976 -0.0005637725 -0.00073885894 -0.0008153219 -0.005470421 -0.005311086 -0.0063673495
0.00036413758 -0.0011514557 -0.010265551 -0.0077732815 -0.0052173245 -0.002118236 0.0050208136 -0.0075312494
0.0038126246 -0.0012332168 0.0077458164 0.006018012 -0.0034469187 0.006734626 -0.0047356063 -0.0037206442
0.0050588246 -0.0025914668 -0.0025758592 -0.0061550615 -0.010121053 0.00025302265 0.0015488236 -0.0061121676

network_body._body_endoder.seq_layers.2.weight f4 [256, 256]
00000000: b645 db3c 6753 7b3d 1f76 bc3d 5f72 5d3d
00000010: ffba 8abc 3491 67bc 4031 80bd 8e33 2c3d
00000020: e0cf 04bd d7c9 263c 1fa5 943c e9a3 4e3d
00000030: e124 b4bd 0755 883b f82a 16bd 16db 7e3d
00000040: ffeb e0bb fe62 51bc 7b6e 973d 45b5 a73d
00000050: 8a1b 173d fee5 c43a 61af 63bb 07fb a33d
00000060: 4480 c6bd e3f2 aabc e0c9 76bd d8a4 93bd
00000070: 137b 91bd 87a4 a0bc 82d1 593d a611 023c
00000080: 2f16 d83c a9c0 16bd 3e43 5e3d 9fa1 8e3d
00000090: 041d ecbd 5f5e a6bd a4ad 7a3d 68d7 ed3d
000000a0: f401 913c 8aa2 a2bd fac5 a83d 0691 343d
000000b0: beb8 2abd d149 a53c 9ef8 5c3d d3f0 ad3d
000000c0: 5534 923d 7d58 d8ba 2b3c 08be f67f a03c
000000d0: 1c9f 423d 0786 0d3d 8884 f8ba ea25 d0bc
000000e0: 1f51 85bc 4313 d8bc 230b c13c 3ad0 c5bd
000000f0: c162 efbd 72af 913d ea77 7a3d 32b3 c3bd
00000100: 9886 b33d 7e14 04bc 215b 883d 22d8 153e
00000110: 237c 53bc 367d dc3c 2d31 4ebd 9395 1f3d
00000120: 809e 323d dfed 3dbd 3b29 9d3d 50b8 013e
00000130: 8499 0f3d 2b4b 58bd 5fbb cdbd 5567 b83b
00000140: d1d3 e6bc a421 9e3c 9619 ae3c 911f 4abc
00000150: 7649 723d bb32 00bd d2b2 37bb 6b64 57bd
00000160: a447 03bd 5a27 2dbd b198 d53c f657 8abd
00000170: 4786 50bd 9671 34bd ced1 023e 367a 30bd
00000180: 7752 323d 05de bd3c 4117 b63d e450 86bb
00000190: e373 c1bb 66e8 36bc a4f5 853c 4e54 b0bd
000001a0: 35a3 3f3d fdf0 193c 53fe b8bd a78a 09bd
000001b0: 2eae 05bd e05d 3d3d b275 acbd 5639 c53c
000001c0: 263d 503d c6bd 233d dc1c e2bd 20c3 983c
000001d0: 0944 66bd 5ce7 a4bb c064 753c f255 abbd
000001e0: f3ce 07bd a0d5 a6bd c3ae cb3c c681 9abc
000001f0: a1f1 dfbd cf30 06be 9e12 8fbc 8688 55bd
00000200: 8712 2dbd d44e a4bd 44fa 79bc c965 dabd
00000210: 592f 723d c6a4 11bc a8d6 d13c 4f22 cf3d
00000220: dbc2 493d 8a7a 783d 23aa 8abd d3aa 2d3c
00000230: 67a5 1f3b 82ed a13b 4a7f fb3a 1d26 c53d
00000240: fbfc 21bd 95b0 61bd d503 7abd 2120 91bd
00000250: 6159 88bd ad33 95bd a0c7 20bd f805 b73c
00000260: 61b1 76bd 20f5 203b 784e 173c 3274 093c
00000270: dd99 013e 562f 82bd 7e9d 7dbc e207 60bd
00000280: cad7 323c ad00 bf3c 6af0 42bd 4097 4f3d
00000290: f336 cabb 71bb a43b 4f9a e0bc 32b1 58bc
000002a0: 77f3 bc3c e85a a63d cd19 443d c4a7 d7bc
000002b0: dad5 f8ba f371 b8bb 79c9 dbbb bdaa d9bc
000002c0: d04c 77bd 46ab 6b3d e545 f0bc 60ed 49bc
000002d0: 2493 de3c 5f5b b0bc 3fd0 433d 066f 07bd
000002e0: ab60 84bb 0acd d73d 796c d03d 66cc 083e
000002f0: cd09 ebbc 4f26 98bc a919 5e3a e062 55bc
00000300: cde6 183c 9059 003e 01b7 d33d b2e7 bb3b
00000310: 8f8f 993c 23f1 553d a50b 2a3d c13e e3bd
00000320: c8ae cfbc 9b3c 953c 49ab 1dbd 6eb7 7e3d
00000330: 315c a83c ebf2 f6bb d2e2 253c 2b32 283e
00000340: 4567 a43b 9fec 8c3d d158 623d 6604 8dbd
00000350: 48fa 93bc 95fd a43c 3495 d13c a915 94bd
00000360: 14ba 1f3c 1622 183d 098d ffbb ff5d 513d
00000370: 6431 503c 3229 8a3c 50a5 463d e704 f33c
00000380: c2ae 10bd 6f76 69bd 8114 d5bd 86f0 033d
00000390: 8a12 533d 4fb0 4bbd 999c 98bd 5fc1 57bd
000003a0: 1914 b13d 52fc b3bd d5cc 01be c38c 6bbd
000003b0: 7ae8 afbc eb10 6c3d e04d 51bc 7e71 e639
000003c0: d823 793d 951f f6bc 323f 71bc 5700 31bd
000003d0: ed28 393d f16f ccbc 8032 8ebd 88c8 1ebd
000003e0: 0a24 8d3d 34be bdbd 2afc 733d e106 343e
000003f0: 9455 d83b c83f 533c df34 04bd ff41 0b3d
0.02676664 0.061358836 0.09202217 0.05406415 -0.01693487 -0.01413374 -0.06259394 0.042041354
-0.032424808 0.010179958 0.018145142 0.050449286 -0.087960966 0.0041605267 -0.036662072 0.062220655
-0.0068640704 -0.012779949 0.07394119 0.08188871 0.036891498 0.0015022156 -0.0034741985 0.08006864
-0.096924335 -0.02086777 -0.060251117 -0.07209176 -0.07103553 -0.019609703 0.053178318 0.007938778
0.026377765 -0.03680483 0.054263346 0.069644205 -0.11528972 -0.081234686 0.061200753 0.11613351
0.017701127 -0.07941158 0.08240886 0.044083618 -0.04168009 0.0201768 0.053948037 0.08493199
0.07138888 -0.0016505864 -0.13304202 0.019592267 0.04751502 0.034551647 -0.0018960396 -0.025408704
-0.016274033 -0.026376372 0.02356488 -0.09658857 -0.11688758 0.07113542 0.061149515 -0.09555663
0.08765906 -0.008061526 0.066580065 0.1463323 -0.0129080145 0.026915174 -0.050339866 0.038961004
0.04360819 -0.04636943 0.0767388 0.12667966 0.035058513 -0.05280606 -0.10045504 0.0056275525
-0.028177174 0.01930315 0.021252435 -0.012336628 0.05915209 -0.03129838 -0.002803017 -0.052586
-0.032050744 -0.042273857 0.026073785 -0.067550585 -0.050909307 -0.044053636 0.12775347 -0.0430853
0.043535676 0.023177156 0.08891154 -0.0040989984 -0.0059037074 -0.011163807 0.016352482 -0.0860983
0.046786506 0.009395835 -0.090328835 -0.033579495 -0.032636814 0.046232104 -0.08420886 0.024075191
0.050839566 0.039975904 -0.11040661 0.01864773 -0.056217227 -0.005032463 0.014977634 -0.08366002
-0.033156347 -0.081462145 0.024863606 -0.018860709 -0.10934759 -0.13104557 -0.017464932 -0.052132152
-0.042253997 -0.08022848 -0.015257422 -0.10663945 0.059127185 -0.008889383 0.025615051 0.10113966
0.049258094 0.060663737 -0.06770732 0.01059981 0.0024360062 0.004941643 0.0019187715 0.0962641
-0.0395479 -0.055100042 -0.06103881 -0.07086206 -0.06657673 -0.07285247 -0.039252877 0.022341713
-0.060227755 0.0024560168 0.009235017 0.0083895195 0.1265635 -0.06356685 -0.015479444 -0.054695018
0.010915706 0.023315752 -0.047592558 0.050681353 -0.0061711012 0.0050272276 -0.02741733 -0.01322584
0.023065312 0.08122808 0.047876168 -0.026325114 -0.0018984631 -0.005628818 -0.006707367 -0.026570672
-0.06037599 0.057536386 -0.029330203 -0.012324661 0.027169771 -0.021527944 0.04780602 -0.033064865
-0.004039844 0.10537155 0.101769395 0.13359222 -0.028691197 -0.018572954 0.00084724516 -0.013024062
0.009332371 0.12534165 0.103376396 0.0057344073 0.018745212 0.05223192 0.04151501 -0.11095954
-0.025351897 0.018217376 -0.03849343 0.06218665 0.020551773 -0.0075362823 0.010124879 0.16425388
0.0050171935 0.068810694 0.055260483 -0.068856046 -0.01806368 0.020140449 0.02558384 -0.07230694
0.009748954 0.037141882 -0.007798795 0.051115032 0.012707088 0.016865347 0.048497498 0.029665424
-0.035322912 -0.056997713 -0.104043014 0.032211803 0.051531352 -0.049728688 -0.07451744 -0.052674647
0.086464114 -0.08788361 -0.12675793 -0.057507288 -0.021473158 0.05763332 -0.0127749145 0.00043953577
0.0608252 -0.030044356 -0.01472454 -0.043213215 0.045205045 -0.024955722 -0.06943226 -0.03876546
0.068916395 -0.09264794 0.059566654 0.17580749 0.0066019986 0.012893625 -0.032276984 0.033998486

network_body._body_endoder.seq_layers.2.bias f4 [256]
00000000: 554f a5ba 4bd1 933b 7af5 d2ba 3bcf de3b
00000010: 414d 693b 8bfe 8abb a333 8a3a 0356 7a39
00000020: 0fa5 8a3b d796 4abb 71bf a1bb a382 973a
00000030: 04f8 deba 8933 543a b28c 8dba cc92 143b
00000040: 0135 ac3a 433f be39 f97e 3b3b 2a8d 16bb
00000050: 069d 4fba 2547 a1bb ab39 863b b7c9 963b
00000060: 62a5 83bb 0b64 7f3b 8c88 fe3b 56c2 f73a
00000070: 45c1 323b f3cd 643b 9a6d 993b b112 d9ba
00000080: bfd3 d5ba 7085 2f3b d79b c2ba b2f9 953b
00000090: 4122 7d3b fdd7 d53a d44f b7b9 355c 713b
000000a0: e298 b23b 5ba6 91ba c5ac 16bb b6c9 d33a
000000b0: 0370 e43b 3356 11bb de83 fa3b eee1 50bb
000000c0: 43ef 813b 7462 30ba 4a81 a83b 6e38 b63b
000000d0: 60df 1cbb c740 5bbb e7eb a5ba e471 ee3b
000000e0: af16 7fbb 984b cd3b d2e2 c43b 1468 123b
000000f0: fb63 afb9 a4c6 09b9 719d 21bb 9316 2939
00000100: 847f d6bb ff2f 993b 1733 823b da11 57ba
00000110: e5d1 123c fada f23a bd86 513b 0f96 d1bb
00000120: 0865 a638 e977 c43b d92d 7cbb 7c7c b8bb
00000130: d8c0 8dbb 25a6 8c3b b1d6 8ebb e127 b33b
00000140: 86df b43b 805c 203b 2d6a a53b 965f c43a
00000150: 0b24 d03a 2249 a7b8 d1c5 de3a c29c 36bb
00000160: bf6d 91bb 5cc6 1ebb eb87 68bb 387f 1b3b
00000170: 6d24 35bb 7538 073b 959a b938 f8dc e5bb
00000180: 3679 cf39 0ae2 b33b 9bc7 3fbb 0b55 87ba
00000190: 3d34 92ba 0413 223b a7f3 853b 6484 c53a
000001a0: 7418 a0ba 2de7 a4bb 3315 dabb 6877 e03b
000001b0: 0f7f b0bb 55d5 8ebb 4cd0 98ba 7c35 84bb
000001c0: 5a9f 0e3c 8a5e 40bb ee8e acb9 37bd 043b
000001d0: ba4e b3bb 4c77 9fbb 170d 0f3c ca45 24bb
000001e0: 6ac3 2539 d484 c63b 2d13 f33a 1ea8 a63b
000001f0: 6c5c 24b9 7d2e 653b ae84 493b 4d2a 55bb
00000200: 39cc bd3a dbc3 b2bb c289 df3b 16df 5fbb
00000210: 63d5 6f3b 5a1f 4d3b 27fc 6e3b f7ba 0c3b
00000220: 29ca 1d3a 4a15 4bbb 5a06 833b 0e91 a83a
00000230: e29d 113b 5da5 37bb f640 c8ba f115 fdbb
00000240: 4842 953b 7978 d6ba 451b 96ba 9def 6dbb
00000250: 81a1 d8bb 7dca b2bb e9f2 1bbb c7a4 e5bb
00000260: 3759 a83b d942 103c 2bca 413b 1e0f 8039
00000270: d72a 94bb 6d2b 503b 62d1 fbbb d137 7abb
00000280: d147 40bb 13b4 a43b 5482 0d3b 4d2b 00bb
00000290: 859c c23b a6e1 8fbb 0c6a 893a 47ef 9abb
000002a0: 17bd 67bb c9f8 83ba c8a5 91ba 75bd c03a
000002b0: 488c b73b 075a 283b d647 9cba 772a d43b
000002c0: 97f6 1c3b 86ac 1bbb 3a6d 91ba 11f8 f1ba
000002d0: 2841 653b 9392 303b a7f2 f6ba c61e 503b
000002e0: afdd 623b 1df2 24ba b8d7 9abb 9822 0c3b
000002f0: c0f3 daba d9ad ab3b 5c41 953b 1519 c63b
00000300: a15b 88bb 4443 05bb d893 5a3b 2ee2 5c3b
00000310: 0e3e 243b bc17 d53a 8f5a b3b8 e8ec d6b8
00000320: ea91 01bb e900 bc39 694f c23a 2a83 82bb
00000330: 90b3 0ab9 01f2 72bb 329c 243c 6062 0ab9
00000340: 5d2d 5bba 2852 e43b e167 1dbb aa61 51bb
00000350: fe56 eeb8 7a60 e43b e2c1 303b f713 d0b9
00000360: 7aff 113b 3ed9 93b9 452e bab9 ce4b c4ba
00000370: f602 ab3b b915 96bb 9d30 cabb 257b 71bb
00000380: 8132 ccbb d827 c3bb 470e 93ba b215 78bb
00000390: bf5d 9eba e673 b5bb 6226 2cbb 8911 c3bb
000003a0: 362e e03b 9e51 f638 d496 28bb a51a 89ba
000003b0: ae0e ccba 2f15 02bb fff7 0c3c 112d adba
000003c0: b6f9 99bb e540 fb3a 7b4d 3e3b a713 83bb
000003d0: 90ae 513a 543b e6ba 0b1e c3bb 507b 593b
000003e0: 8338 26bb 4f12 80bb 14bd 073a 728a a63b
000003f0: 1d85 443b 6138 13bb d25f a0bb 07bb 813b
-0.0012612144 0.0045110337 -0.0016094886 0.006799606 0.0035599025 -0.0042417697 0.0010543953 0.000238739
0.0042311023 -0.0030912661 -0.0049361517 0.0011559319 -0.001701117 0.00080948375 -0.0010799377 0.0022670506
0.0013138355 0.00036286758 0.0028609617 -0.0022972324 -0.00079198217 -0.004921811 0.00409623 0.004601683
-0.004017518 0.0038969542 0.0077677425 0.0018902521 0.0027275842 0.0034912794 0.004682255 -0.0016561357
-0.0016313716 0.0026782416 -0.0014847469 0.004576885 0.0038625153 0.001631498 -0.00034963957 0.0036828641
0.005450354 -0.00111122 -0.0022991162 0.0016158137 0.0069713606 -0.0022176623 0.0076451143 -0.0031872946
0.00396529 -0.0006728538 0.0051423656 0.005560926 -0.0023936853 -0.0033455358 -0.0012658805 0.0072767604
-0.0038923433 0.006265115 0.0060084844 0.0022339867 -0.00033453092 -0.00013139338 -0.0024660493 0.00016125505
-0.0065459628 0.004674911 0.0039733755 -0.0008204259 0.008961176 0.0018528395 0.003197118 -0.006396062
7.934315e-05 0.0059957397 -0.0038479476 -0.005630074 -0.0043259673 0.004292267 -0.0043590893 0.0054674004
0.00551981 0.0024469197 0.0050480575 0.00149821 0.0015879882 -7.9768026e-05 0.001699621 -0.002786443
-0.0044381316 -0.0024227118 -0.0035481404 0.0023726951 -0.002764012 0.0020633016 8.8502806e-05 -0.007014867
0.00039572426 0.0054895924 -0.0029263261 -0.0010325027 -0.0011154484 0.0024730572 0.0040878835 0.0015069363
-0.0012214319 -0.005032441 -0.006655359 0.006850172 -0.0053862403 -0.0043589273 -0.0011658757 -0.004034696
0.008704985 -0.0029353225 -0.00032912887 0.0020254382 -0.0054720314 -0.004866516 0.008731148 -0.0025066012
0.00015808424 0.006058315 0.0018545144 0.005085959 -0.00015674689 0.0034970336 0.003074925 -0.0032526434
0.0014480419 -0.0054554767 0.006821842 -0.003416007 0.0036595694 0.0031299205 0.0036466212 0.0021473744
0.0006019199 -0.003098803 0.00399856 0.0012860612 0.002221935 -0.0028022148 -0.0015278149 -0.007723563
0.0045550205 -0.0016362808 -0.0011452219 -0.003630615 -0.0066110496 -0.0054562674 -0.0023795909 -0.0070081684
0.0051375884 0.008805 0.0029569964 0.00024425326 -0.0045217085 0.0031764165 -0.0076848725 -0.0038180242
-0.002933968 0.0050263493 0.0021592574 -0.001955706 0.0059390687 -0.004390913 0.0010483875 -0.004728231
-0.003536051 -0.0010068651 -0.0011112029 0.00147049 0.0056014396 0.0025688426 -0.0011923264 0.0064747888
0.002395069 -0.0023753955 -0.0011095174 -0.001846077 0.0034981463 0.0026942834 -0.0018840627 0.0031756624
0.0034616997 -0.0006292181 -0.0047254227 0.0021382924 -0.0016704723 0.00523923 0.0045549106 0.0060454705
-0.0041613136 -0.0020334283 0.0033352282 0.003370415 0.0025061402 0.0016257684 -8.552253e-05 -0.000102484424
-0.001977081 0.00035858832 0.0014824691 -0.003982921 -0.00013227598 -0.0037070515 0.0100470055 -0.00013197353
-0.00083609467 0.0069678016 -0.0024018215 -0.0031949081 -0.00011364928 0.0069695087 0.0026971032 -0.00039687727
0.002227752 -0.00028199883 -0.00035511158 -0.0014976205 0.005218859 -0.0045802263 -0.006170346 -0.0036847082
-0.0062316065 -0.0059556775 -0.0011219465 -0.0037854728 -0.0012082382 -0.005537498 -0.0026267995 -0.005953018
0.0068414463 0.000117453965 -0.0025724666 -0.0010460211 -0.001556834 -0.0019849052 0.008604049 -0.0013212283
-0.0046989573 0.001916912 0.0029037881 -0.0040001455 0.0007998729 -0.0017565289 -0.005954509 0.0033185072
-0.0025363273 -0.0039084326 0.0005178016 0.005082422 0.0029986568 -0.0022464024 -0.004894235 0.003959063

action_model._continuous_distribution.log_sigma f4 [1, 5]
00000000: 95a1 f83b b5b7 b33b 17b0 89ba 5117 0ebc
00000010: f4ba 123c
0.0075876215 0.005484546 -0.0010504749 -0.008672551 0.008955706

action_model._continuous_distribution.mu.weight f4 [5, 256]
00000000: 4bc8 78bc 77d5 84bb 787b c0bb e1cc 8e3b
00000010: a823 5c3c 1bb3 373c adf0 b43b 9cd7 0bbc
00000020: c0e1 1fb9 268d 71bc c077 243c 8eae a6bc
00000030: d76a 0dbc d4b9 473c f13f 7e3a 02a6 6cbc
00000040: fb37 283a 1d54 963c 38f9 7abc 41dc 8bbc
00000050: 7c3e 18bb 2e0d a4bc cec5 a0bb ebb8 063d
00000060: 17a9 813b c7b5 fb3b fbfd 2e3c addb 82bc
00000070: 1281 a8bb b685 3dbc f06f 20bc 421c 8b3c
00000080: 3805 1eba 550e 823c 35c8 10bc 9a30 983a
00000090: 38e5 c1ba 8602 8abc 233a 3c3c 0690 b1bb
000000a0: 8c2b f7bc 52e1 9fbc a03a f03b e5b1 223c
000000b0: 3515 a93b a94d 8dbc 31dd 393a 5eea 5ebc
000000c0: f1f4 553c e1e8 d43c e823 e0bb f8d8 5cba
000000d0: e803 d83c 65cf 013b b85a 743c 2c94 0c3c
000000e0: 4fdc 433c 7c75 033c f636 00bc 1be8 713c
000000f0: fd74 363b 9c5e 803a 3fdd 9b3c d3cd 0d3c
00000100: 3e33 c43b 5521 113c 3ed2 233d e85b c43c
00000110: 6dee e6bb 5492 ce3b 480c 70bc 69e8 d9ba
00000120: 4b8d 8f3a ae00 97bc 373d 673c 1c52 5f3c
00000130: 74ac 03bc a1bf 2ebc 4fa1 5c3a c45b 9aba
00000140: 0e62 943a 79e6 9cbc 74d9 35bc 0936 8e3c
00000150: 9cfa aabc 1ea6 b73c f416 88bc 3bde e03b
00000160: 35b3 76bc dc76 bdbb 27db 6abc c9e9 8e3c
00000170: 5ddf 813c 1d2a 2e3c 1955 083c dc68 3a3c
00000180: c925 b3bc 4248 823c ac94 eabb 3f95 b93c
00000190: f7a7 81bc 5c95 9a3c b97f f13a 6af1 fb3c
000001a0: 1a1f 45bc 5427 ffbb 0145 43bc 2f85 c13c
000001b0: eed7 32bb 19ca 8dbc c0ee 3abc 5fa2 133c
000001c0: 43a3 3dbc e684 f73a 748e faba 6efa cb3b
000001d0: 9354 f0bb 9dba beba e5bf c1bc 60a0 42ba
000001e0: f39a a2bc 92f2 8c3b 5e8c 503c f975 2b3c
000001f0: 8abb adbc b5e0 6ebb f2e7 cb3b 783f c0bc
00000200: 19e1 0fbd 3a18 94bc c441 61b8 7012 e5ba
00000210: 495c b5bc 4df9 a4bc c272 8a3c 87c5 d4bb
00000220: bbc8 08bb 0249 a9bc 1c03 84bc 7a24 d53c
00000230: 0c56 bb3c 23bc 60bc 8f30 f3bc 8a9d 17bc
00000240: 5459 b9bb 0051 ac3b 75ea 6a3c fa7f aabc
00000250: f103 60bc 77e5 0c3c d3d2 43bb 0ef9 9abc
00000260: 5854 403c adec 4f3c 09c8 65bc 8202 d1bb
00000270: 535a 22bc dafe b4ba 426a 33bc d5d1 4c3a
00000280: 8185 0b3c bb6c 283c 8bc2 523c 9838 c5bc
00000290: db34 babb 87fa c03c 06c8 023d 6475 ab3b
000002a0: dd19 f1bc 2af5 c03a bcfb cf3c adad a7bc
000002b0: 0934 ccbb e1d9 71bc 0256 9f3b 2d52 313b
000002c0: b634 f5bb 0906 043c 5e7d 693c 063a cabb
000002d0: 1b4b dfbc 75d3 24bc 3722 b33c 8a75 fa3c
000002e0: 0d2d 5dbc 466d 833b e54e b73c 1d32 853c
000002f0: 5a94 a1bc 532d ae3b 0e9c 30bc 8f61 74ba
00000300: 070a 663c 004b 923c 7946 19bc 0cce 19bc
00000310: 8066 c33b eacd 53bb 7a5f 19bc df1b c5bc
00000320: 6182 2abc 260a 08bb 6677 d3bb 1e57 063c
00000330: 0b0e e0bc 3f18 dd3c 62dd e2bb 880f 11bb
00000340: 130b c73c 394b a93b 30e8 93bc ce92 7ebb
00000350: 8cbd 1bb7 ed74 85bc a981 9bbc bb53 8d3c
00000360: 3fbe 2ebb 47e7 62bc bf0b b73c 80f8 65bc
00000370: 335b e7ba 7daa b73c 78ad 3e3c 209d 8bbb
00000380: 6ea0 18bc f63e 38bc 3762 dabb c13c 59bb
00000390: 6f81 47bb a73f 663c 5724 cdba ce52 853c
000003a0: fa7b 28bb 100b 0c3b 696a 2f3c 8828 af3a
000003b0: 3bc2 e4ba 8942 a93b b5e7 1dba 55bf 033d
000003c0: d92d 11bc 2d71 163c c386 08bc 923b c5bb
000003d0: 686b 193b 4101 ed3b f5ad bcbc 1cd7 a83b
000003e0: b5b8 5fbb e7ca 5cba 356f 17bb 1e43 ab3b
000003f0: fdd1 46bc e5c3 423b a1d0 893b d8d1 2c3c
-0.015184472 -0.0040537673 -0.0058740936 0.0043579196 0.0134362355 0.011212136 0.005521855 -0.008535292
-0.0001524752 -0.014743125 0.010038316 -0.020346906 -0.00863143 0.012190301 0.0009698859 -0.014443876
0.0006417033 0.018350655 -0.015318207 -0.017072799 -0.0023230603 -0.020025816 -0.0049063927 0.032891195
0.0039569247 0.0076815817 0.010680671 -0.01597389 -0.0051423395 -0.011567524 -0.009792313 0.016981248
-0.00060279993 0.015875975 -0.008836796 0.0011611164 -0.0014793044 -0.016846906 0.01148847 -0.0054187803
-0.030172132 -0.01951662 0.0073312074 0.009930109 0.005159999 -0.017248945 0.000709015 -0.013605682
0.013058887 0.025989952 -0.006840218 -0.0008424665 0.02636905 0.0019807455 0.014914207 0.008580249
0.011954381 0.008023616 -0.007825604 0.014764811 0.0027840727 0.0009793821 0.019026397 0.008655029
0.005987554 0.008858045 0.039995424 0.023969606 -0.0070474655 0.0063040648 -0.014651366 -0.001662505
0.0010952143 -0.018432941 0.014113716 0.013630416 -0.0080367215 -0.010665805 0.0008416371 -0.0011776616
0.0011320726 -0.019152867 -0.011099208 0.01735975 -0.020871453 0.022418078 -0.016612507 0.0068624294
-0.015057375 -0.0057819914 -0.014334477 0.017445462 0.015853578 0.010630158 0.00832107 0.0113775395
-0.021868603 0.015903596 -0.0071588363 0.022654174 -0.015827162 0.018870048 0.0018424905 0.030754764
-0.012031341 -0.0077866707 -0.011918307 0.023623077 -0.0027289349 -0.017308282 -0.0114094615 0.00901088
-0.011574569 0.0018884211 -0.0019115941 0.006224922 -0.007334301 -0.0014551465 -0.023651073 -0.00074244104
-0.019849276 0.0043013776 0.012728779 0.010465139 -0.02120759 -0.0036449854 0.0062227184 -0.023467764
-0.03512678 -0.018077958 -5.370543e-05 -0.0017476808 -0.022138732 -0.020138407 0.016900424 -0.0064932737
-0.0020871598 -0.020664696 -0.016114764 0.02601837 0.022868179 -0.01371673 -0.02968624 -0.009253869
-0.0056564007 0.0052586794 0.0143381255 -0.020812977 -0.013672815 0.008599631 -0.00298803 -0.018917587
0.011738859 0.012690705 -0.014024743 -0.006378473 -0.00990923 -0.0013808862 -0.010950627 0.000781325
0.0085157165 0.01027983 0.0128637655 -0.024074838 -0.0056825704 0.02355696 0.03192904 0.0052325
-0.029431278 0.0014721502 0.025388591 -0.020468557 -0.006231789 -0.014761419 0.004862548 0.0027057037
-0.0074830903 0.0080580795 0.014251081 -0.0061714677 -0.027257493 -0.010060181 0.0218669 0.030573625
-0.0134995105 0.004010829 0.022376487 0.016259247 -0.01972406 0.0053154617 -0.010779394 -0.00093223987
0.014040477 0.017858028 -0.009355181 -0.009387504 0.0059631467 -0.003231878 -0.009361142 -0.024061142
-0.010407061 -0.0020758002 -0.0064534424 0.008199481 -0.027350446 0.0269891 -0.0069233635 -0.0022134501
0.024297273 0.005166438 -0.018055052 -0.0038844827 -9.282852e-06 -0.016291106 -0.018982725 0.01725184
-0.0026663688 -0.013849086 0.022344468 -0.014036298 -0.0017651081 0.022420162 0.011638038 -0.004260674
-0.009315593 -0.01124548 -0.00666454 -0.0033147784 -0.0030442139 0.014053262 -0.0015651089 0.016274836
-0.0025708661 0.0021368898 0.0107065225 0.001336352 -0.0017452905 0.0051654023 -0.0006023602 0.03216489
-0.008861029 0.009182257 -0.008332911 -0.006019064 0.0023409966 0.0072328155 -0.023032168 0.005152596
-0.0034137194 -0.0008422569 -0.0023107056 0.005226507 -0.012135026 0.0029718813 0.0042057787 0.0105480775

action_model._continuous_distribution.mu.bias f4 [5]
00000000: f213 e53a 3f13 ba39 bffc 46b9 919c 07bc
00000010: d8dd 293b
0.0017477258 0.00035491024 -0.00018976907 -0.008277074 0.0025919583
