results/hb_02/Hummingbird.onnx (onnx, 318566 bytes, 7 tensors)

network_body._body_endoder.seq_layers.0.weight f4 [256, 46]
0	0xbdb7bed6	-0.08971946
1	0x3dd577c4	0.10423234
2	0x3d90bf65	0.070677556
3	0xbd9c1e74	-0.07622996
4	0x3e4cd3d8	0.20002687
5	0x3ecc7d3f	0.39939305
6	0x3e49a5ef	0.19692205
7	0x3e09c779	0.13454999
8	0xbdf8b56e	-0.1214398
9	0xbe4ea480	-0.2017994
10	0xbdd4ee4b	-0.10397013
11	0xbdf11810	-0.11772168
12	0xbe803580	-0.25040817
13	0x3da677fd	0.08128355
14	0x3db71958	0.08940381
15	0x3c79b437	0.0152407205
16	0xbe4055e8	-0.1878277
17	0xbdfd040b	-0.12354287
18	0x3d89d332	0.067297354
19	0xbdbae31e	-0.091253504
20	0xbd1b9b27	-0.03798976
21	0x3d21bdaf	0.039487537
22	0x3e8d0437	0.27542278
23	0xbd8863c7	-0.06659656
24	0xbe811a56	-0.25215405
25	0x3e9e1f84	0.3088342
26	0xbe217d24	-0.15770394
27	0xbe9372fd	-0.28798667
28	0x3df5d0cf	0.12002718
29	0x3decdf9e	0.11566089
30	0x3db6bbca	0.08922537
31	0x3c7ed340	0.015553296
32	0x3d40a895	0.047035772
33	0x3e00ace5	0.12565954
34	0xbd77c427	-0.0604898
35	0x3ddb259b	0.10700532
36	0x3e71d961	0.2361808
37	0x3da2e61b	0.079540454
38	0x3dd80821	0.105484255
39	0xbe46e90a	-0.19424835
40	0x3e375a2f	0.17905496
41	0x3ddbcecf	0.10732805
42	0xbe54f1d4	-0.20795375
43	0xbde54455	-0.11194674
44	0x3d46b1f5	0.048509557
45	0x3c06c67d	0.008226034
46	0x3d0b5464	0.034016028
47	0xbd51ef2b	-0.05125348
48	0xbbbb8e66	-0.0057237623
49	0xbd45ff75	-0.048339326
50	0xbe7564e1	-0.23964263
51	0x3db59f84	0.08868316
52	0x3d666f82	0.056258686
53	0x3e39ca86	0.18143663
54	0x3e059783	0.13046078
55	0xbceeffff	-0.029174803
56	0x3e22a78f	0.15884231
57	0xbe6a4938	-0.22879493
58	0xbe083a96	-0.13303599
59	0x3e17085d	0.14749284
60	0x3dd74f4f	0.10513174
61	0xbd80dc98	-0.06292075
62	0xbcedf1d5	-0.029045979
63	0xbe5d389b	-0.21603625
64	0xbd01432f	-0.031558212
65	0xbe644ffb	-0.22296135
66	0xbdf5683b	-0.11982771
67	0xbd42fe47	-0.04760578
68	0xbcc355cd	-0.023844624
69	0xba97274b	-0.0011532096
70	0x3e404108	0.18774807
71	0x3eaae173	0.3337513
72	0x3e938090	0.28809023
73	0x3ea35483	0.31900415
74	0xbe350ba9	-0.17680229
75	0xbd278f5c	-0.040908203
76	0xbdc1a1f3	-0.094547175
77	0xbde21dfb	-0.110408746
78	0x3de8a469	0.11359484
79	0x3b4f2b5a	0.0031611533
80	0xbd38d6ba	-0.045126654
81	0x3d70537d	0.05867337
82	0x3db67aaa	0.08910115
83	0x3dc16b0e	0.09444247
84	0x3d3b5379	0.045733903
85	0x3dc40569	0.095713444
86	0x3dc64853	0.096817635
87	0xbd56e6e7	-0.0524663
88	0x3d955d04	0.07293132
89	0xbea1e17b	-0.3161734
90	0xbd490c57	-0.049084034
91	0x3eacf750	0.33782434
92	0xbe2782e8	-0.1635853
93	0xbdd2307f	-0.10263156
94	0x3d455ed3	0.048186135
95	0x3da68fe4	0.08132914
96	0xbe1e039a	-0.15431061
97	0xbde7fcc7	-0.1132751
98	0x3e1fe1ec	0.15613526
99	0xbc9fefcb	-0.019523522
100	0xbe2a1327	-0.16608869
101	0xbe00f912	-0.12595013
102	0xbd376566	-0.044774435
103	0x3e2f05e2	0.17092088
104	0xbc362a7c	-0.0111185275
105	0x3d1bec41	0.038067106
106	0x3e1935b6	0.14961895
107	0x3e5f9745	0.21835048
108	0x3e9be27b	0.30446228
109	0xbe1c5f53	-0.15270738
110	0xbd9c59d4	-0.07634321
111	0x3d40b5f0	0.04704851
112	0x3e239344	0.15974146
113	0xbd9812f7	-0.07425492
114	0x3cd386ab	0.02582105
115	0x3ecb2671	0.39677766
116	0x3d91119c	0.07083437
117	0x3e41a99b	0.18912356
118	0x3bf6b3dc	0.007528765
119	0x3d9a637a	0.07538505
120	0x3d41dd41	0.047330145
121	0x3de099b3	0.10966816
122	0x3df5c475	0.12000362
123	0xbe0e2794	-0.13882285
124	0xbe26c232	-0.16285017
125	0xbc0cd0cd	-0.008594704
126	0x3dfff3d8	0.124976814
127	0x3e6f4e0f	0.2336962
128	0x3d410c63	0.047130954
129	0xbdd77729	-0.10520775
130	0x3e91a595	0.28446642
131	0xbd3c4ba0	-0.04597056
132	0xbdf5ecac	-0.12008032
133	0x3e7a1d70	0.24425292
134	0x3ea980fa	0.33106214
135	0x3db3a2a1	0.087712534
136	0x3dd96a3e	0.10615967
137	0x3e6fdb9f	0.23423623
138	0xbe15da5e	-0.14634082
139	0xbe05f817	-0.1308292
140	0x3dbff5f6	0.09373085
141	0x3c48a297	0.012245796
142	0xbdd578ff	-0.10423469
143	0x3d7020af	0.05862492
144	0xbdd2ab97	-0.102866344
145	0x3d4cf48a	0.050037898
146	0xbe10c09b	-0.14135973
147	0xbb9d087d	-0.0047922716
148	0xbea9a985	-0.33137146
149	0x3dfb70b0	0.12277353
150	0x3df13d4a	0.11779268
151	0x3df91a0d	0.12163172
152	0xbcb42ca6	-0.021993946
153	0x3e210611	0.1572497
154	0xbe54252a	-0.20717302
155	0xbe0bb6a0	-0.13643885
156	0x3eaa42b7	0.33254024
157	0x3de82aa6	0.113362595
158	0x3cc587b9	0.02411257
159	0xbd5e5721	-0.05428231
160	0x3d2e1c86	0.04250767
161	0xbe048769	-0.1294228
162	0xbcd5dcb4	-0.026106216
163	0xba7f4cef	-0.0009738942
164	0x3dabc67e	0.08387469
165	0x3e0f845d	0.14015336
166	0x3dbc336e	0.09189497
167	0xbd91268c	-0.0708743
168	0x3d79de22	0.061002858
169	0xbc9d6222	-0.019211832
170	0x3e5de3bf	0.2166891
171	0x3eaf6d5b	0.3426312
172	0x3d15039c	0.036380395
173	0xbcda81f9	-0.026673304
174	0x3db83e97	0.08996313
175	0xbd630288	-0.055422336
176	0xbe2ef3d8	-0.17085207
177	0xbe83e2ad	-0.25758877
178	0x3dd1826f	0.10229956
179	0xbdcd57d9	-0.10026521
180	0x3d348455	0.044071514
181	0x3e0597bd	0.13046165
182	0xbdadd935	-0.084886946
183	0x3d02e4cb	0.031956475
184	0xbebefbfb	-0.3730162
185	0xbdf664f6	-0.120309755
186	0xbe768690	-0.24074769
187	0xbc140e5b	-0.009036626
188	0x3e23099d	0.15921636
189	0x3e0c56c5	0.13704975
190	0x3da2fae5	0.079580106
191	0x3e8efeff	0.27928922
192	0xbd162239	-0.03665373
193	0x3dde94f3	0.108682536
194	0x3e6217f6	0.22079453
195	0x3ca3725d	0.019951994
196	0x3d191ce6	0.037381075
197	0xbd1f0768	-0.038825423
198	0xbd784c0c	-0.0606194
199	0x3d2af012	0.041732855
200	0xbe80a8b4	-0.2512871
201	0xbe037baa	-0.12840143
202	0x3c40dc98	0.011771344
203	0x3d304003	0.043029796
204	0x3c04d78e	0.008108033
205	0xbd230de2	-0.03980816
206	0x3dbc6634	0.09199181
207	0x3e3eb8b2	0.18625143
208	0x3bcec330	0.0063098893
209	0x3e81b039	0.2532976
210	0xbeb091fb	-0.34486374
211	0xbe8a5aae	-0.27022308
212	0xbe05e961	-0.13077308
213	0xbd5b13e8	-0.05348578
214	0x3de07ca6	0.10961275
215	0xbdb9fed2	-0.09081806
216	0x3e2990ba	0.16559115
217	0x3ad7d8e0	0.0016467832
218	0x3ebc0447	0.36722013
219	0x3e175a76	0.14780602
220	0x3db27efb	0.08715626
221	0xbc907003	-0.017631536
222	0x3e29b4b8	0.16572845
223	0xbd099fa1	-0.0335995
224	0xbca71b05	-0.020398626
225	0xbcdb60c6	-0.026779544
226	0xbd88ced6	-0.06680076
227	0xbdadd68c	-0.08488187
228	0xbdee154b	-0.11625155
229	0x3df0e919	0.1176321
230	0x3c5e8d3e	0.013583479
231	0xbdb0fdb9	-0.08642144
232	0xbe3d1a93	-0.18467169
233	0xbe843736	-0.25823373
234	0x3dba332b	0.09091791
235	0x3e3df804	0.18551642
236	0x3bd486d6	0.0064858003
237	0xbc5ff232	-0.013668584
238	0xbcf10314	-0.029420413
239	0xbe74c65c	-0.23903793
240	0xbdb7f9a8	-0.08983165
241	0x3e6dfe6e	0.23241588
242	0xbdd8adf4	-0.10580054
243	0x3dcc945d	0.099892356
244	0x3e6b5484	0.22981459
245	0xbd997035	-0.07492105
246	0xbce97044	-0.028495915
247	0x3d8cf3b4	0.0688242
248	0x3d10b016	0.03532418
249	0x3d0ff3a8	0.035144478
250	0xbe301a3b	-0.17197506
251	0xbdeda558	-0.116038024
252	0x3da3a8a7	0.07991152
253	0xbd663585	-0.056203384
254	0xbe53a463	-0.20668177
255	0xbdef1725	-0.11674336

network_body._body_endoder.seq_layers.0.bias f4 [256]
0	0xbc238cd0	-0.009982303
1	0xbadc4744	-0.0016805907
2	0xbbeb6a90	-0.007184334
3	0x3bd99806	0.006640437
4	0x3b87395d	0.0041267113
5	0x3bdb3b67	0.006690431
6	0xba924d70	-0.0011161994
7	0xbc14a33d	-0.009072122
8	0x3b8ae313	0.004238495
9	0x3c66514a	0.014057467
10	0xb9ff8b9c	-0.00048741407
11	0x3aa51d39	0.001259721
12	0xbaa923ac	-0.0012904308
13	0xbb86c32f	-0.004112623
14	0x3c3d8fc9	0.011569926
15	0xbbcf1385	-0.0063194656
16	0xbb8dd3a8	-0.00432821
17	0xbb51f23e	-0.0032035257
18	0xbc27a8b8	-0.010233097
19	0xbbb02e56	-0.0053766174
20	0x3ba9797b	0.0051719523
21	0x3b0b7ce2	0.0021284153
22	0x3c242668	0.010018922
23	0x3bed2f67	0.007238317
24	0xbc024c92	-0.007952826
25	0xbb90ad3e	-0.0044151833
26	0xba439e59	-0.00074622553
27	0x3bd7bf6a	0.0065840976
28	0xba8aaa4d	-0.0010579318
29	0x3b36a911	0.0027871768
30	0xbbcc700e	-0.006238944
31	0xbb4824b1	-0.0030539448
32	0x3abed2a0	0.0014558621
33	0xbc2200e5	-0.009887909
34	0x3c0041ae	0.007828159
35	0xbb142375	-0.0022604142
36	0xbbbe4d56	-0.005807559
37	0x3ac66acb	0.0015138028
38	0xba8b6e3b	-0.001063771
39	0x3ab28b71	0.0013621879
40	0xbad1969d	-0.0015990321
41	0x3bd07df3	0.0063626706
42	0xbbb43443	-0.005499394
43	0xbb5f051e	-0.003403015
44	0xbc1a9236	-0.0094342735
45	0xbb998f19	-0.004686248
46	0x3bf6a660	0.0075271577
47	0x380c2a8c	3.3418226e-05
48	0x3abe250d	0.0014506892
49	0xba7b48c4	-0.0009585733
50	0x3b6039b1	0.0034214074
51	0xbb9a561d	-0.0047099725
52	0xbb20d5d2	-0.002454151
53	0xbc04de65	-0.008109664
54	0x3bce0c37	0.006288077
55	0x3c042d05	0.008067374
56	0x3c197015	0.009365101
57	0x3c36de01	0.011161328
58	0xbaef62f2	-0.0018263741
59	0xba7cc7fe	-0.0009642838
60	0x3c0801dc	0.008301225
61	0x3b6f535b	0.003651819
62	0xba118d26	-0.0005552344
63	0xbbab7d5d	-0.0052334503
64	0x3b2a6497	0.0025999898
65	0xb9dbd820	-0.0004193196
66	0xbc1a1dc0	-0.009406507
67	0xbbe34131	-0.0069352617
68	0x3b6c5364	0.0036060447
69	0xb9738aa7	-0.00023225938
70	0xbc084e6f	-0.008319481
71	0x3c02f125	0.007992064
72	0xbaa0441f	-0.0012227333
73	0x3ab89ff4	0.0014085756
74	0xbbc4bed3	-0.0060041933
75	0xbb06f403	-0.002059222
76	0x3b0f5bf4	0.0021874877
77	0xbb0e4f13	-0.0021714612
78	0x3b951881	0.0045500402
79	0x3b52adb2	0.0032146988
80	0x3b9fb777	0.0048741656
81	0x3a87f9b6	0.0010374102
82	0xbb8eae3d	-0.004354267
83	0x3b701a3f	0.0036636738
84	0x3c2a9cf3	0.010413396
85	0x3b499817	0.0030760819
86	0xbc0592f3	-0.008152711
87	0xbc4ebffe	-0.012619017
88	0xbc041875	-0.008062472
89	0xba35b43e	-0.000693146
90	0x3c112192	0.008858101
91	0x3b1a40b4	0.0023537101
92	0x392260e2	0.00015485616
93	0x3ba9f5ea	0.005186786
94	0xb76b020c	-1.4007568e-05
95	0x3aec79dc	0.0018041688
96	0x3a743916	0.0009316368
97	0xbc0d9dd3	-0.008643585
98	0xbbb4bbb6	-0.005515541
99	0xbaa2a31a	-0.0012408227
100	0x3c413a1b	0.011793639
101	0x3b23d7aa	0.0025000372
102	0xbc061714	-0.008184213
103	0xb7d1a704	-2.4992514e-05
104	0xba05b3c3	-0.0005100334
105	0xbb41c890	-0.0029569007
106	0xb9a70fd6	-0.0003186452
107	0xbbc3b5cf	-0.005972601
108	0x3b428e47	0.0029686855
109	0xbaeb88fb	-0.00179699
110	0xbb4a719d	-0.0030890473
111	0xbb9bb2f1	-0.004751556
112	0x3be504c4	0.0069890935
113	0x3afec7c3	0.0019438196
114	0xbb925aa5	-0.004466372
115	0x3b6349f1	0.0034681524
116	0x39ebdbd6	0.00044986483
117	0x3bf8a883	0.0075884475
118	0x3bd72d6b	0.0065666935
119	0x3af121b6	0.0018396887
120	0xbb0fbb86	-0.002193184
121	0xbb8ac280	-0.004234612
122	0xbb48c3c3	-0.0030634261
123	0x3b23aeba	0.0024975971
124	0xbb4ff0d9	-0.003172925
125	0xba3aba47	-0.00071230944
126	0x3aff44cf	0.0019475463
127	0x3a8888ef	0.0010416786
128	0x3aa379b3	0.0012472182
129	0x3b870b18	0.0041211955
130	0x3c17e86e	0.009271724
131	0x3b2d9210	0.0026484765
132	0x39fde2a7	0.0004842479
133	0x3b1b11ad	0.0023661659
134	0xbbe43dfd	-0.0069653974
135	0xbb5f2bae	-0.0034053135
136	0xbb000288	-0.0019532759
137	0x3bdb7af4	0.0066980068
138	0x3c06f93c	0.008238133
139	0x3aa27735	0.0012395146
140	0xba8e16b3	-0.0010840505
141	0x3bd28471	0.0064244797
142	0x3bf1f76a	0.0073842304
143	0xbb97acf1	-0.0046287705
144	0x3bc9f76e	0.006163529
145	0xbba48022	-0.0050201574
146	0xbbe1d7de	-0.0068921885
147	0x3a891b45	0.0010460397
148	0x3c00f6e5	0.007871364
149	0x3bfba8aa	0.0076800184
150	0x3aa2438c	0.001237975
151	0xbb023a0f	-0.0019871031
152	0x3b9c3882	0.0047674784
153	0x3c090d87	0.008365042
154	0xb9923a2b	-0.0002789063
155	0x3c088e4e	0.008334709
156	0x3bbbb4ca	0.005728339
157	0x3beb7b60	0.0071863383
158	0xbb8a9acb	-0.0042298785
159	0x3bdfe8ba	0.006833163
160	0x3ae9ed8f	0.0017847287
161	0x3b193396	0.0023376695
162	0xbb4d2a74	-0.0031305822
163	0x3b979341	0.0046257083
164	0x3b20f8a9	0.0024562276
165	0x3b504059	0.0031776635
166	0xbbd4b169	-0.0064908755
167	0x3b0d36b2	0.0021547494
168	0xbacfcab2	-0.0015853255
169	0x38885810	6.501388e-05
170	0x3c18e169	0.009331086
171	0x3b05dde4	0.0020426447
172	0x3a9274ed	0.0011173763
173	0xbbe3675e	-0.0069398126
174	0xbade9308	-0.0016981075
175	0x3bfb7378	0.007673677
176	0x3b665f5c	0.0035152053
177	0x3c1c8330	0.009552762
178	0xbaea36b2	-0.0017869084
179	0x3c16dd00	0.009207964
180	0x3c3c1311	0.011479155
181	0x3bd1dbaa	0.00640436
182	0x3bcbd027	0.006219882
183	0xbb565239	-0.0032702817
184	0x3c2f788e	0.010709895
185	0x3b790e5b	0.0038002941
186	0x394be6e4	0.00019445602
187	0x3bb4a5f3	0.0055129468
188	0xbbb9e3d2	-0.0056729103
189	0xbc0021c9	-0.007820555
190	0x3b8a8d1e	0.0042282483
191	0x3b4c701c	0.0031194752
192	0xbbdf31c9	-0.006811355
193	0x3b779e26	0.0037783473
194	0xba7adce0	-0.0009569656
195	0xbb57315e	-0.0032835822
196	0x3a993c07	0.0011690863
197	0x3bba1ac2	0.0056794593
198	0x3ba8a8b0	0.0051470622
199	0x3b7645a8	0.003757814
200	0xbbb872a3	-0.0056289
201	0xbb5e5a8c	-0.0033928482
202	0x3ac8abbb	0.0015309969
203	0xbc04ab5b	-0.008097495
204	0x3b2a41eb	0.0025979232
205	0x3c6a9445	0.014317577
206	0x3ba7f68f	0.0051258276
207	0x3b9edc2e	0.004848025
208	0x3c3a6d84	0.01137865
209	0xbb60d5a5	-0.003430703
210	0x3b373f29	0.002796123
211	0xba4bcf12	-0.00077746913
212	0xbbb0900e	-0.0053882664
213	0x3b84ed74	0.004056627
214	0xba53c346	-0.0008078109
215	0x3c039ed7	0.008033476
216	0xb9412499	-0.00018419548
217	0x3bff7d22	0.0077968994
218	0x3b87fc3a	0.004149941
219	0x3c253e02	0.010085585
220	0x3b5aa75c	0.0033363914
221	0xbb93abff	-0.0045065875
222	0x3b8e963f	0.004351407
223	0x3ba583a7	0.0050510946
224	0x3c73228e	0.014839781
225	0xbb2926ce	-0.0025810483
226	0xbaa2b62a	-0.0012413908
227	0xba2c91a9	-0.00065829844
228	0x39740532	0.00023271589
229	0xbbd0a27f	-0.0063670273
230	0xbbccfcf6	-0.006255741
231	0xbbfca9ec	-0.007710686
232	0x3a5011b4	0.0007937208
233	0x385cf6b0	5.2681833e-05
234	0xbc1accb6	-0.009448221
235	0xbc19b354	-0.009381134
236	0xbb4009f9	-0.002930282
237	0xbb36143d	-0.002778306
238	0x3be3f2a6	0.006956416
239	0xbc05c9af	-0.008165761
240	0x3b81f8e2	0.0039664367
241	0xba980b32	-0.0011600016
242	0x3c1eab11	0.00968434
243	0x3b45d433	0.0030186295
244	0xbb978811	-0.0046243747
245	0x3bde0ed6	0.006776671
246	0xbb9321ac	-0.004490098
247	0xbb78f72a	-0.0037989118
248	0x3bd209c0	0.0064098537
249	0xbb11c0aa	-0.002224008
250	0xbb2a5967	-0.002599323
251	0xbbd70bef	-0.006562702
252	0xbc43878c	-0.011934172
253	0x38310786	4.2207095e-05
254	0x3b14f622	0.0022729714
255	0xbbf3029e	-0.0074160835

network_body._body_endoder.seq_layers.2.weight f4 [256, 256]
0	0x3c9f3594	0.019434728
1	0x3d77322d	0.060350586
2	0x3dc49e2d	0.09600482
3	0x3d4f54ef	0.05061811
4	0xbcc98735	-0.024600605
5	0xbc3c27b2	-0.0114840735
6	0xbd6ebb59	-0.058284137
7	0x3d1fc828	0.039009243
8	0xbd0b4a54	-0.03400643
9	0x3c58fd8a	0.013244042
10	0x3c894db5	0.016760686
11	0x3d488ba5	0.0489613
12	0xbdbd3adf	-0.092397444
13	0x3bf69efb	0.007526276
14	0xbd0a1788	-0.033713847
15	0x3d80e105	0.06292919
16	0xbbbff7bc	-0.0058583897
17	0xbc849646	-0.016184937
18	0x3d89e7e8	0.06733686
19	0x3da04a8f	0.07826721
20	0x3d1e4ee0	0.03864944
21	0x3b223916	0.0024753264
22	0xbb76660b	-0.0037597443
23	0x3dac62ad	0.084172584
24	0xbdd2154d	-0.10257969
25	0xbcbe1103	-0.023201471
26	0xbd8359cf	-0.06413614
27	0xbd9cd004	-0.07656863
28	0xbd9e95c0	-0.07743406
29	0xbca65ae3	-0.02030701
30	0x3d5ebe65	0.054380793
31	0x3c476b14	0.0121715255
32	0x3cf4f302	0.029901031
33	0xbd1b7fbb	-0.03796361
34	0x3d530a95	0.051523764
35	0x3d94d574	0.072672755
36	0xbde7b8fd	-0.113145806
37	0xbda4f0d6	-0.08053748
38	0x3d75d2ee	0.06001561
39	0x3df46b4c	0.11934528
40	0x3c7e50ab	0.015522162
41	0xbd9c9294	-0.07645145
42	0x3daa4583	0.083140396
43	0x3d3b08c2	0.04566265
44	0xbd3730c2	-0.044724233
45	0x3c9bbb2e	0.019010153
46	0x3d5981c9	0.05310229
47	0x3db07f21	0.08617998
48	0x3d8e6a93	0.06953921
49	0xbb02ea8f	-0.0019976234
50	0xbe09235f	-0.13392399
51	0x3c942382	0.018083338
52	0x3d2733e6	0.04082098
53	0x3d1ed69f	0.038778897
54	0x3a89c49b	0.0010510864
55	0xbc8ce610	-0.017199546
56	0xbc8a2ac0	-0.016866088
57	0xbcba3fc9	-0.022735493
58	0x3cc717fc	0.024303429
59	0xbdc368b4	-0.09541455
60	0xbdea4883	-0.11439612
61	0x3d99ae12	0.075039044
62	0x3d744374	0.05963464
63	0xbdc58d6e	-0.09646116
64	0x3db4d48d	0.08829603
65	0xbc212afd	-0.009836909
66	0x3d81e31b	0.06342145
67	0x3e170e33	0.1475151
68	0xbc3e7bd4	-0.011626203
69	0x3c99ae77	0.01875995
70	0xbd4e487a	-0.050362088
71	0x3d2a127e	0.04152154
72	0x3d4d117d	0.050065506
73	0xbd463677	-0.048391785
74	0x3d97aff4	0.07406607
75	0x3e04252d	0.12904806
76	0x3d187001	0.03721619
77	0xbd6d0287	-0.05786374
78	0xbdcf342e	-0.10117374
79	0x3c2110df	0.009830683
80	0xbcf030a1	-0.029320063
81	0x3c9454f2	0.018106911
82	0x3c8a460a	0.0168791
83	0xbc7ad678	-0.015309922
84	0x3d58ed9d	0.05296098
85	0xbd19da7c	-0.03756188
86	0xbb7de92e	-0.0038743722
87	0xbd622a7b	-0.055216294
88	0xbcd15b52	-0.02555624
89	0xbd2f16c9	-0.04274634
90	0x3cf79cf7	0.030226214
91	0xbd91d243	-0.07120182
92	0xbd5534eb	-0.05205242
93	0xbd464f82	-0.04841567
94	0x3e073981	0.1320553
95	0xbd2c0a3b	-0.042001944
96	0x3d2bf3dc	0.04198061
97	0x3cc64183	0.02420116
98	0x3db31aa2	0.08745314
99	0x3ad80fee	0.001648424
100	0xbb32aa14	-0.002726202
101	0xbbfae29c	-0.0076564085
102	0x3caa557f	0.02079272
103	0xbdb82cf4	-0.08992949
104	0x3d405500	0.046956062
105	0x3c3a5a5b	0.0113740815
106	0xbdb7adb6	-0.089686796
107	0xbd0dc9ce	-0.034616284
108	0xbcf85121	-0.030312123
109	0x3d1dada0	0.03849566
110	0xbdab4b80	-0.0836401
111	0x3c8d07bb	0.0172156
112	0x3d6d11da	0.057878353
113	0x3d0eec0d	0.034893084
114	0xbde1ac39	-0.11019177
115	0x3c90b0d3	0.017662441
116	0xbd55c77a	-0.05219219
117	0xbbf90ebf	-0.007600635
118	0x3c4fa278	0.012673013
119	0xbdb39a31	-0.08769644
120	0xbd17f1f7	-0.03709599
121	0xbda8eded	-0.08248506
122	0x3ce710f3	0.028206324
123	0xbca929a3	-0.020649737
124	0xbde70c83	-0.11281683
125	0xbe05e636	-0.130761
126	0xbcc4a267	-0.02400322
127	0xbd4b97ae	-0.0497052
128	0xbd318241	-0.04333711
129	0xbd97f58b	-0.074198805
130	0xbcbbaaed	-0.022908652
131	0xbddfb6e5	-0.10923556
132	0x3d80113c	0.06253287
133	0xbbeaf3c8	-0.0071701743
134	0x3cf5429d	0.02993899
135	0x3dc8316b	0.09775051
136	0x3d4d8ce8	0.050183207
137	0x3d852fff	0.06503295
138	0xbd8cc715	-0.068739094
139	0x3c20dfb3	0.009818959
140	0x3bd2bbcf	0.00643108
141	0x3c38dc16	0.011282941
142	0xbb13d6a2	-0.002255835
143	0x3dc4a25c	0.0960128
144	0xbd207170	-0.039170682
145	0xbd5fe88b	-0.05466513
146	0xbd816c1a	-0.06319447
147	0xbd922206	-0.07135396
148	0xbd8856ee	-0.066572055
149	0xbd93c576	-0.07215397
150	0xbd24135c	-0.040057525
151	0x3cb25897	0.021770759
152	0xbd80b960	-0.062853575
153	0x3ab2cb25	0.0013640864
154	0x3b87b2bd	0.0041411803
155	0x3c26d6c0	0.010183036
156	0x3dfe3506	0.12412457
157	0xbd874a3a	-0.066059545
158	0xbc73970e	-0.014867557
159	0xbd623bd4	-0.055232838
160	0x3c2ba679	0.010476702
161	0x3cca5eb1	0.024703356
162	0xbd3e0fcb	-0.04640178
163	0x3d545aaf	0.051844295
164	0xbb2e432b	-0.0026590328
165	0x3bdd2bf5	0.006749625
166	0xbccb0afa	-0.024785507
167	0xbc83a3c7	-0.016069306
168	0x3ccd5017	0.025062604
169	0x3da61967	0.08110314
170	0x3d43584c	0.04769163
171	0xbce314c3	-0.02771986
172	0xbb8eb576	-0.004355128
173	0xbb038383	-0.00200674
174	0xbb916350	-0.004436888
175	0xbcfbbf54	-0.03073088
176	0xbd78610d	-0.06063943
177	0x3d63a734	0.05557938
178	0xbd0361c8	-0.032075673
179	0xbc5d301e	-0.013500242
180	0x3cf68b83	0.030095821
181	0xbcc72873	-0.02431128
182	0x3d4d8d04	0.05018331
183	0xbd086802	-0.033302315
184	0xba025837	-0.00049722515
185	0x3dc9477e	0.09828089
186	0x3dd15749	0.102217264
187	0x3e085c58	0.13316476
188	0xbcdb137f	-0.026742695
189	0xbc9d09f6	-0.019169789
190	0xbb27b0bf	-0.0025587527
191	0xbc4c7e14	-0.012481231
192	0x3c30744a	0.010769913
193	0x3dfaa978	0.12239355
194	0x3dd3733b	0.10324713
195	0x3bc9789e	0.006148412
196	0x3ca43b92	0.020047937
197	0x3d64eeaf	0.05589169
198	0x3d1b5729	0.03792492
199	0xbddfb13a	-0.10922475
200	0xbce2ed5c	-0.027701072
201	0x3c72bb06	0.014815098
202	0xbd28fe91	-0.0412584
203	0x3d846d1e	0.06466125
204	0x3cbc1d15	0.022963086
205	0xbc078c29	-0.008273163
206	0x3c24442b	0.010026018
207	0x3e29a7cd	0.16567917
208	0x3c0df466	0.008664226
209	0x3d8faac7	0.07014995
210	0x3d670d39	0.056409094
211	0xbd890d36	-0.06691973
212	0xbc9a62f9	-0.018846022
213	0x3c97d2e6	0.018533181
214	0x3ccaa748	0.024737969
215	0xbd9cd1ba	-0.0765719
216	0x3bb05bb5	0.005382026
217	0x3d1ac530	0.03778571
218	0xbc06362e	-0.008191628
219	0x3d568c6d	0.052380014
220	0x3c55e9e7	0.013056255
221	0x3c8fc904	0.017551906
222	0x3d4c252f	0.04984015
223	0x3cd5c735	0.026095966
224	0xbd0c952b	-0.034321945
225	0xbd734a9d	-0.05939733
226	0xbdd0fcf0	-0.10204494
227	0x3d06bf1d	0.032897104
228	0x3d351b1a	0.0442153
229	0xbd517631	-0.051138107
230	0xbd95fec2	-0.07323982
231	0xbd61b1d9	-0.05510125
232	0x3dada5b7	0.08478873
233	0xbdba1f79	-0.09088034
234	0xbe02f716	-0.12789568
235	0xbd67cb04	-0.056590095
236	0xbc86b9f1	-0.016446086
237	0x3d6a1cea	0.05715648
238	0xbc23b33c	-0.009991463
239	0x3bba4d73	0.005685502
240	0x3d783b5e	0.060603492
241	0xbceb6fde	-0.028739866
242	0xbc703074	-0.01465999
243	0xbd3ad76d	-0.045615602
244	0x3d41b456	0.047291122
245	0xbcf44a9c	-0.029820733
246	0xbd83e61e	-0.06440376
247	0xbd2a8221	-0.041628007
248	0x3d8a5d2c	0.067560524
249	0xbdbc0d67	-0.09182244
250	0x3d74c8b9	0.059761737
251	0x3e34710d	0.1762125
252	0x3be39a60	0.006945893
253	0x3c12bfb1	0.008956836
254	0xbd01ce02	-0.031690605
255	0x3d01f1e1	0.031724814

network_body._body_endoder.seq_layers.2.bias f4 [256]
0	0xbb1018ad	-0.0021987364
1	0x3bb4d766	0.0055188416
2	0xbaeb56ab	-0.0017954906
3	0x3be78452	0.0070653344
4	0x3b923571	0.004461937
5	0xbb82969a	-0.0039852383
6	0x3afb00b9	0.0019149996
7	0x3a6475b8	0.0008715051
8	0x3b8fcbb0	0.004388295
9	0xbb48c4bb	-0.0030634839
10	0xbb4cce55	-0.0031250913
11	0x3ad8b1fc	0.0016532536
12	0xbb050989	-0.0020299873
13	0xb9d3e95a	-0.00040418917
14	0xba533699	-0.0008057147
15	0x3b3ccc7c	0.0028808406
16	0x3b097406	0.0020973696
17	0x3a594409	0.0008288031
18	0x3b351f70	0.0027637146
19	0xbb330b26	-0.0027319877
20	0xba9bd087	-0.0011887708
21	0xbbc65706	-0.0060528545
22	0x3baeef6c	0.0053386
23	0x3baef9a0	0.005339816
24	0xbb8f991c	-0.0043822657
25	0x3b5b7f09	0.0033492467
26	0x3c2e935a	0.010655249
27	0x3b0c2e46	0.0021389886
28	0x3b3bcf07	0.0028657333
29	0x3b884b00	0.0041593313
30	0x3b864c83	0.0040984764
31	0x388ea161	6.801147e-05
32	0xbad919cc	-0.0016563474
33	0x3b71857c	0.0036853245
34	0xbb252942	-0.0025201594
35	0x3b97e0ea	0.004634966
36	0x3b7725c9	0.003771173
37	0x3acb6097	0.0015516457
38	0x3b37d8bd	0.002805277
39	0x3ba537f9	0.005042073
40	0x3bd91c5e	0.006625696
41	0xbabac59d	-0.0014249567
42	0xba9da26e	-0.0012026557
43	0x3b2d94ab	0.0026486318
44	0x3bfbaa2a	0.0076801972
45	0xbb506a34	-0.0031801583
46	0x3bf5861a	0.007492793
47	0xbb73364d	-0.0037111223
48	0x3b95ae47	0.0045678946
49	0xb9949b37	-0.00028344404
50	0x3bcb8680	0.006211102
51	0x3bc782d6	0.006088595
52	0xbaa0fe81	-0.0012282879
53	0xbb24ca0b	-0.002514484
54	0xb9dacd61	-0.0004173322
55	0x3c1f9149	0.0097392285
56	0xbb995ccc	-0.0046802517
57	0x3c076eee	0.008266194
58	0x3be63b8b	0.007026141
59	0x3b2ec44f	0.0026667302
60	0x39206220	0.00015295343
61	0xba4dc0b9	-0.00078488473
62	0xbab8d73c	-0.0014102231
63	0x3ac1a993	0.0014775269
64	0xbbc66f3e	-0.0060557416
65	0x3bd1ece3	0.006406413
66	0x3bb21b94	0.0054354165
67	0x39d7dfc2	0.00041174708
68	0x3c0ef847	0.008726186
69	0x3aa8ee8c	0.0012888475
70	0x3b7358be	0.0037131752
71	0xbbcf1e8f	-0.0063207815
72	0x3ab43c9b	0.0013750972
73	0x3bbbf03d	0.0057354257
74	0xbb6f1f43	-0.003648714
75	0xbbab7774	-0.005232746
76	0xbbc7dfde	-0.006099685
77	0x3b93e9ee	0.0045139706
78	0xbb9fed0e	-0.004880554
79	0x3bc07764	0.0058736075
80	0x3bdd1e7f	0.00674802
81	0x3ac22852	0.0014813042
82	0x3baf61ce	0.0053522354
83	0x3b043eaa	0.0020178952
84	0x3ad232c7	0.0016036861
85	0x39d2adf1	0.00040183918
86	0x370715fc	8.051746e-06
87	0xbb040b8f	-0.002014849
88	0xbb978494	-0.004623959
89	0xbb24aa5c	-0.0025125956
90	0xbba93532	-0.005163812
91	0x3b813095	0.003942559
92	0xbb0fbe8b	-0.002193364
93	0x3aa9d760	0.0012957864
94	0xb985360e	-0.0002540801
95	0xbbf259a4	-0.00739594
96	0xba66df2e	-0.000880706
97	0x3be4b80e	0.006979949
98	0xbb765e83	-0.0037592954
99	0x38189f4c	3.638798e-05
100	0xbaa4d1e4	-0.0012574759
101	0x3b48ecd0	0.003065873
102	0x3b8c6218	0.0042841546
103	0x3b2c74e8	0.0026314799
104	0xbac785a7	-0.0015222327
105	0xbbb4b719	-0.005514991
106	0xbc01778a	-0.0079020355
107	0x3be0f53d	0.006865172
108	0xbbd7cf3e	-0.0065859845
109	0xbbb071e0	-0.0053846687
110	0xba6dd611	-0.0009072731
111	0xbba947ab	-0.005166014
112	0x3c1864ac	0.009301346
113	0xbb7476ad	-0.0037302182
114	0x38b6c8a0	8.7158056e-05
115	0x3b25a8f3	0.0025277704
116	0xbbbe40e5	-0.005806076
117	0xbbd082a4	-0.00636323
118	0x3c206a02	0.009790899
119	0xbb5c04d8	-0.0033572223
120	0x39b9dfe4	0.0003545276
121	0x3be4b2f4	0.0069793407
122	0x3b8f34af	0.004370294
123	0x3bafc616	0.00536419
124	0xb9f7c344	-0.00047256995
125	0x3b546237	0.0032407173
126	0x3b769afa	0.0037628994
127	0xbb8bdd34	-0.004268313
128	0x3a9ef79f	0.001212824
129	0xbbd871f9	-0.0066053835
130	0x3bfa16f9	0.007632133
131	0xbb8e3ed9	-0.004340988
132	0x3b731c74	0.0037095817
133	0x3b697119	0.003562039
134	0x3ba7c013	0.0051193326
135	0x3b60a586	0.0034278347
136	0x3a7ab45d	0.00095636194
137	0xbb4cc232	-0.003124368
138	0x3b501714	0.0031752037
139	0x3b24a462	0.0025122394
140	0x3b15a065	0.0022831198
141	0xbb2c15d2	-0.0026258123
142	0xba9d3d00	-0.0011996329
143	0xbc0b33b7	-0.0084962165
144	0x3b76cf80	0.00376603
145	0xbae5fa95	-0.0017545993
146	0xba3f02e4	-0.00072865025
147	0xbb898089	-0.004196231
148	0xbbf92f95	-0.007604549
149	0xbb87aa0d	-0.0041401447
150	0xbb3fa726	-0.0029243915
151	0xbc09fbfc	-0.008421894
152	0x3bd09270	0.006365113
153	0x3c1e673c	0.009668168
154	0x3b52865f	0.0032123548
155	0x3a59420f	0.00082877366
156	0xbbb8c6dc	-0.0056389403
157	0x3b93ea49	0.004514013
158	0xbc1bc21c	-0.0095067285
159	0xbb84b804	-0.0040502567
160	0xbb602ee1	-0.003420763
161	0x3bc05cf0	0.005870454
162	0x3b4bc121	0.0031090456
163	0xbb389052	-0.0028162193
164	0x3bcee08e	0.00631339
165	0xbb9e4976	-0.0048305346
166	0x3b5a40d5	0.0033302803
167	0xbbb8136b	-0.005617549
168	0xbb980d49	-0.0046402556
169	0xbb1636ca	-0.002292084
170	0x39225bbc	0.00015483698
171	0x3ab57a80	0.0013845712
172	0x3bc7dd31	0.006099366
173	0x3aef62f6	0.0018263746
174	0xbb0e4a9a	-0.0021711946
175	0x3bfe4458	0.007759612
176	0x3b4e16e1	0.0031446742
177	0xbb41123c	-0.0029460331
178	0x3a519e49	0.00079963036
179	0xbaccbb2f	-0.001561975
180	0x3b763094	0.0037565576
181	0x3af38a45	0.0018580636
182	0x3a796c2f	0.0009514717
183	0x3b817f2f	0.003951929
184	0x3b9a35b5	0.0047061094
185	0x3a4df726	0.00078569574
186	0xbb944c8a	-0.0045257257
187	0x3b359ae1	0.0027710723
188	0xbade54ee	-0.0016962567
189	0x3bde6da0	0.0067879707
190	0x3bba4e99	0.005685639
191	0x3bea9319	0.0071586487
192	0xbb89e2f7	-0.0042079645
193	0xbb223294	-0.0024749385
194	0x3b89108b	0.0041828803
195	0x3b1d67c4	0.0024018148
196	0x3b45a58d	0.003015849
197	0x3ae12df4	0.0017179833
198	0xbaf13afc	-0.001840442
199	0xba1d7633	-0.0006006688
200	0xbb1750d0	-0.002308894
201	0xbaa5cdc9	-0.001264983
202	0x3a93f980	0.0011289567
203	0xbba416d7	-0.0050076055
204	0xba85912c	-0.0010190359
205	0xbb0bca22	-0.0021330197
206	0x3c35615c	0.011070576
207	0xba3bfbae	-0.0007170987
208	0xbac9aa63	-0.0015385862
209	0x3be3d30e	0.00695265
210	0xbb1c9e10	-0.0023897924
211	0xbb5470a4	-0.0032415772
212	0xba2ecb8e	-0.0006667905
213	0x3bee182a	0.007266064
214	0x3b2c7420	0.0026314333
215	0xba02f692	-0.0004995848
216	0x3b099668	0.002099419
217	0xba8dbc8f	-0.0010813641
218	0x3a5246e3	0.0008021427
219	0xba9c53d5	-0.0011926839
220	0x3bb7f878	0.0056143366
221	0xbb9f6ffb	-0.004865644
222	0xbbf1b359	-0.0073761162
223	0xbb7263a8	-0.003698567
224	0xbbf298d6	-0.0074034734
225	0xbbe192ae	-0.0068839407
226	0xba3314df	-0.0006831418
227	0xbb63b9ef	-0.0034748276
228	0xbab4b967	-0.0013788164
229	0xbbb744cc	-0.005592918
230	0xbb6353b9	-0.0034687354
231	0xbbcb52e5	-0.00620495
232	0x3be6307b	0.0070248223
233	0x39a39de8	0.00031207432
234	0xbacd3843	-0.0015657026
235	0xb9f05892	-0.00045842357
236	0xbb1a0c51	-0.0023505876
237	0xbb202490	-0.0024435855
238	0x3c25bd53	0.010115939
239	0xbadf545a	-0.0017038689
240	0xbba8df0c	-0.0051535424
241	0x3b4696b2	0.0030302224
242	0x3ade601a	0.0016965896
243	0xbb53bf76	-0.0032310165
244	0x3aeb6e14	0.0017961883
245	0xba986c27	-0.0011628912
246	0xbc02eec0	-0.007991493
247	0x3b834d19	0.0040069935
248	0xbb29dfdb	-0.0025920782
249	0xbba28f46	-0.004960927
250	0x3a1dd3ab	0.00060206157
251	0x3bad85bd	0.005295484
252	0x3b18d883	0.002332241
253	0xbb363937	-0.0027805099
254	0xbbaa370d	-0.005194551
255	0x3b881428	0.0041527934

action_model._continuous_distribution.log_sigma f4 [1, 5]
0	0x3c006e2d	0.007838768
1	0x3b346d44	0.0027530948
2	0x3b2b103e	0.002610221
3	0xbc01157a	-0.007878656
4	0x3c2e0953	0.01062234

action_model._continuous_distribution.mu.weight f4 [5, 256]
0	0xbc8ee9d1	-0.017445477
1	0xbc04eb87	-0.008112795
2	0xbc21ad4a	-0.0098679755
3	0x3bb5d70f	0.0055493186
4	0x3c6af63d	0.014340934
5	0x3c1e6c3f	0.009669363
6	0x3bfa0d9e	0.007631018
7	0xbc6d8a4b	-0.014498304
8	0xba15acf5	-0.00057096715
9	0xbc84a97f	-0.016194103
10	0x3c8464a3	0.016161269
11	0xbca85fc9	-0.020553486
12	0xbc0e45f4	-0.00868367
13	0x3c39e3b8	0.011345796
14	0x3b960a12	0.004578837
15	0xbc82d58d	-0.01597097
16	0x3aab1441	0.0013052301
17	0x3c64f3ef	0.013974174
18	0xbca04c7e	-0.019567724
19	0xbc659d5e	-0.01401457
20	0xbb9abffb	-0.004722593
21	0xbc99434e	-0.018708851
22	0xbb66c1fd	-0.003521084
23	0x3d0baf25	0.034102578
24	0x3b898035	0.0041961917
25	0x3b881587	0.004152957
26	0x3c66564f	0.0140586635
27	0xbc8dc968	-0.017307952
28	0xbc0d2371	-0.008614407
29	0xbc401b84	-0.01172531
30	0xbc6b1b59	-0.014349782
31	0x3c99539c	0.018716626
32	0xbaee845a	-0.0018197403
33	0x3c419a6a	0.0118166
34	0xbc22ddce	-0.009940578
35	0x3a8bb4c7	0.0010658734
36	0x38e456b8	0.0001088804
37	0xbc6e969d	-0.014562276
38	0x3c86ac8e	0.016439702
39	0xbb6d1a15	-0.0036178876
40	0xbcf2141c	-0.029550605
41	0xbca13663	-0.019679254
42	0x3c1996d2	0.009374337
43	0x3c04d2c0	0.008106887
44	0x3b238a66	0.0024954318
45	0xbc92634d	-0.017869616
46	0xbaf1d15d	-0.0018449236
47	0xbc6268ff	-0.013818978
48	0x3c320130	0.010864541
49	0x3cc5839c	0.024110608
50	0xbc0de5bb	-0.008660729
51	0x3a770965	0.0009423702
52	0x3ceb94fe	0.028757568
53	0xba9646b7	-0.0011465166
54	0x3c89b5dd	0.016810352
55	0x3c81e244	0.015854962
56	0x3c22819d	0.0099185975
57	0x3c3bc767	0.011461115
58	0xbbf43cf5	-0.0074535557
59	0x3c5b4b48	0.013384648
60	0x3b09f876	0.0021052635
61	0xb98e0a46	-0.00027092005
62	0x3c7e5d4a	0.0155251715
63	0x3c0ea5b0	0.008706495
64	0x3bdd6d1e	0.0067573925
65	0x3c238274	0.009979833
66	0x3d3324a7	0.043736126
67	0x3cbbfc88	0.022947565
68	0xbc25e74f	-0.010125949
69	0x3c32e75d	0.010919419
70	0xbc7faa2f	-0.01560454
71	0x3aded84c	0.0017001717
72	0xb970dfca	-0.00022971552
73	0xbca9b4e1	-0.020716133
74	0x3c62902a	0.013828317
75	0x3c775878	0.015096776
76	0xbc185b99	-0.009299182
77	0xbc3a99b1	-0.011389182
78	0xbb236001	-0.002492905
79	0x3b677d4d	0.0035322488
80	0xb8c767f8	-9.508425e-05
81	0xbca5cf81	-0.020240547
82	0xbc1dc136	-0.009628585
83	0x3c761199	0.015018844
84	0xbc991f16	-0.01869158
85	0x3c9b570b	0.018962404
86	0xbc533e66	-0.012893295
87	0x3bd00894	0.006348679
88	0xbc9c2902	-0.019062523
89	0xbb744827	-0.0037274451
90	0xbc822127	-0.015884949
91	0x3caf8f6d	0.021430695
92	0x3c8c3699	0.017115878
93	0x3c1f7d5f	0.009734481
94	0x3bcac8dd	0.0061884956
95	0x3c6b11f6	0.014347544
96	0xbcb47d45	-0.02203239
97	0x3c979d87	0.018507732
98	0xbbe2f160	-0.006925747
99	0x3cca40bb	0.024689069
100	0xbc911f30	-0.017715067
101	0x3c8c7814	0.017147101
102	0xbb4465d0	-0.0029967912
103	0x3d020495	0.03174265
104	0xbc712a6b	-0.014719586
105	0xbc2287e4	-0.009920094
106	0xbc5d8938	-0.013521485
107	0x3cb895d6	0.022532385
108	0xbb450f16	-0.0030068806
109	0xbcb1c9e8	-0.021702722
110	0xbc3ac0a2	-0.011398466
111	0x3bf82c40	0.0075736344
112	0xbc989170	-0.018624038
113	0xb7528ff0	-1.25504885e-05
114	0xbad9576d	-0.0016581841
115	0x3bd549b6	0.006509031
116	0xbc06e7c9	-0.008233973
117	0xbb3e0884	-0.0028996775
118	0xbcd03746	-0.025416981
119	0xba93a4ac	-0.0011264286
120	0xbcac1c67	-0.021009637
121	0x3b376409	0.002798321
122	0x3c72844f	0.014802053
123	0x3c115897	0.008871219
124	0xbcae554d	-0.021280909
125	0xbbade69e	-0.0053070327
126	0x3b818f28	0.003953833
127	0xbcc261c5	-0.02372826
128	0xbd09822a	-0.0335714
129	0xbc7e2c5d	-0.015513507
130	0x3ae9658b	0.0017806751
131	0xbb771380	-0.0037700832
132	0xbcb5c12c	-0.022186838
133	0xbc9e3805	-0.019313822
134	0x3ca4033c	0.020021074
135	0xbbc199a7	-0.0059082094
136	0xbb5410e6	-0.0032358705
137	0xbcc59866	-0.02412052
138	0xbc925f72	-0.017867777
139	0x3cbd544f	0.02311149
140	0x3cb2162d	0.02173909
141	0xbc4a237c	-0.012337562
142	0xbcf7270b	-0.030169984
143	0xbc44adcf	-0.01200433
144	0xbbdb9b83	-0.006701888
145	0x3c116804	0.008874897
146	0x3c40a5e1	0.011758299
147	0xbcb6cf98	-0.022315785
148	0xbc8170c3	-0.01580084
149	0x3c5e4d6f	0.013568266
150	0xbb9cc3af	-0.0047840695
151	0xbca25ff4	-0.019821145
152	0x3c449008	0.01199723
153	0x3bc2b806	0.0059423475
154	0xbc81b911	-0.015835317
155	0xbbc85f9b	-0.0061149127
156	0xbc4d004d	-0.012512279
157	0x39419037	0.00018459639
158	0xbc2142bf	-0.009842574
159	0xba48b066	-0.000765568
160	0x3bfab12d	0.0076505155
161	0x3c541e47	0.012946672
162	0x3c824535	0.015902141
163	0xbcc87dbc	-0.024474017
164	0xbbc0308a	-0.0058651613
165	0x3ca90772	0.020633433
166	0x3d0ea5dd	0.03482615
167	0x399dd65f	0.00030105092
168	0xbd07ab16	-0.033122145
169	0x3a33ca0a	0.0006858414
170	0x3cd79bcd	0.026319409
171	0xbccb5d4d	-0.024824763
172	0xbb9b8e7b	-0.0047472096
173	0xbc9203d0	-0.017824084
174	0x3c009aa1	0.007849366
175	0x3b124e07	0.002232434
176	0xbc228e26	-0.009921586
177	0x3bb53940	0.0055305064
178	0x3c7677ff	0.015043258
179	0xbc1661d3	-0.009178597
180	0xbce11e2e	-0.027480211
181	0xbc35ceb3	-0.011096644
182	0x3cb9fe6e	0.02270433
183	0x3d0e1c7e	0.03469514
184	0xbc23b56f	-0.009991988
185	0x3bb4259e	0.0054976484
186	0x3cc18d54	0.02362696
187	0x3c5d7300	0.013516188
188	0xbcaa48bf	-0.020786641
189	0x3ba73e98	0.0051038973
190	0xbc1b58af	-0.009481593
191	0xbaf95bc6	-0.0019024543
192	0x3c81b4c2	0.015833262
193	0x3cb61b7b	0.0222299
194	0xbc1f293b	-0.00971442
195	0xbc292a76	-0.010325065
196	0x3b9ec87e	0.004845678
197	0xbbd9791d	-0.0066367523
198	0xbc12495f	-0.008928626
199	0xbc98a066	-0.018631171
200	0xbc5950f6	-0.0132639315
201	0xbb1bea9e	-0.0023790966
202	0xbc24b2f7	-0.010052434
203	0x3c2319a2	0.009954842
204	0xbcdc606c	-0.026901446
205	0x3d0966ec	0.03354542
206	0xbc36e29e	-0.011162428
207	0x3b062968	0.0020471457
208	0x3cc7795c	0.02434986
209	0x3b595642	0.0033162986
210	0xbc978c13	-0.01849941
211	0xbb5814d5	-0.0032971401
212	0xb9a95e16	-0.0003230429
213	0xbc8e36e8	-0.017360166
214	0xbca9d9cc	-0.020733736
215	0x3c6322fa	0.0138633195
216	0xbb1db167	-0.002406204
217	0xbc80a28e	-0.015702512
218	0x3cc04411	0.023469957
219	0xbc82660c	-0.0159178
220	0x3a09d379	0.0005257647
221	0x3ca6289d	0.020283038
222	0x3c33eb59	0.010981404
223	0xbbc1078d	-0.0058907927
224	0xbc2b049d	-0.010438112
225	0xbc3b1e9a	-0.01142087
226	0xbbe34a07	-0.006936315
227	0xbb0a259d	-0.0021079548
228	0xbb84b731	-0.0040501584
229	0x3c53e67b	0.012933369
230	0x380c0e5d	3.3391978e-05
231	0x3c7f065b	0.01556548
232	0xbae88168	-0.0017738761
233	0x3b7c32fd	0.003848254
234	0x3c2efe7f	0.010680794
235	0x3a35cf68	0.0006935508
236	0xbbc173d4	-0.0059037004
237	0x3a62b549	0.00086482294
238	0x3b1df810	0.0024104156
239	0x3cf2fd13	0.02966169
240	0xbc0d846d	-0.00863753
241	0x3c2d5de7	0.01058147
242	0xbc2bbf9f	-0.010482698
243	0xbad2ea54	-0.0016091564
244	0x3abbaa23	0.0014317672
245	0x3c03e4cd	0.008050156
246	0xbcc3fe90	-0.023925096
247	0x3b55184b	0.00325157
248	0xba898509	-0.0010491918
249	0xbb232a76	-0.0024897135
250	0xb87f2f36	-6.0840706e-05
251	0x3bb1c65c	0.0054252576
252	0xbc5d0ba0	-0.013491541
253	0x3b2a6b0a	0.0026003742
254	0x3a56881e	0.0008183735
255	0x3c299eed	0.010352832

action_model._continuous_distribution.mu.bias f4 [5]
0	0x3b3a14e2	0.0028393795
1	0xba3e81d0	-0.00072672684
2	0xb8f8329e	-0.0001183499
3	0xbc1b3706	-0.009473568
4	0x3b021cde	0.0019853632
