config/results/hb_01/Hummingbird.onnx (onnx, 318566 bytes, 7 tensors)

network_body._body_endoder.seq_layers.0.weight f4 [256, 46]
00000000: d970 1bbe ec46 1f3e 254f 0d3e d099 3bbe
00000010: da0c 14be c7c1 9c3e e0f1 08be 94e2 ddbd
00000020: bc3e 553e 5dd7 4cbd 95c4 743d b9ed 4a3e
00000030: bd38 103d 732f ba3d 6b85 50be 25e9 a8bd
00000040: 3cd5 d6bd 6f1f cc3c 9ebd 33be 32ca 733e
00000050: eee2 783b 12ba 65be e2fc 15bd 70d9 73bd
00000060: b9b9 34bd ba5f 28bb 368b 793e 7418 d4bc
00000070: f1ad 0a3e 2906 0a3e db7d 273e 244b 37be
00000080: 154d bfbd db65 823e f370 5e3e 064d aa3d
00000090: 4b44 ae3c 61a5 893e fbad 57bd 2334 fa3b
000000a0: 4a11 d63e 5d3f 50bd 68de 12bd b228 66be
000000b0: 0a24 463d 6193 e0be b160 803e 175b 983d
000000c0: 8773 c8bd 9ce7 bebd f76d f83d b4e4 64bd
000000d0: b834 c5bd f78d 093e af20 63be 645a 81bc
000000e0: e0dc 2ebe 1ddd fa3c fbf2 20be d264 bc3d
000000f0: 9889 3fbe ad51 6abe b648 60be e07e a0be
00000100: d3c7 ea3d dd27 45be 2962 67bd 73dd aa3e
00000110: c7bc b33d 0bfb c03d 55ee 503d 9684 f03d
00000120: 0aeb 113e 8264 17bc 61c2 1cbe 0a88 513e
00000130: 871d b73d 635a a7bd 8b26 df3d 3590 16bd
00000140: b00a c83d 1462 8f3d 8afc 4fbe e537 883a
00000150: 9007 553e fe80 43bd 0a52 dd3c 3f65 a33d
00000160: c828 7e3e 1dd7 983d 639c debd 7e77 913d
00000170: 2f64 08be 8d7d b8be 7309 0ebe 10a4 33bd
00000180: 204a 9abb 1118 063e 1f4e 853e 9e6e 2abd
00000190: 0cc6 623e 671d 1f3e d2a5 c2bd 1b8b 9bbd
000001a0: 9d5c 7bbd 0b28 b4bc 49b8 433d bf81 f53e
000001b0: 03c2 14bd aa95 9fbd ec3e e83d 5147 8f3e
000001c0: 2e7f 82bd f3b6 ddbd 72b2 08be 973f 413e
000001d0: 2ae4 80be 35f7 983d dcb1 793c d3d6 dabd
000001e0: 2f9b 503d b503 ee3d 815d d7bd 26cb 4c3e
000001f0: e3cb 853d 067f ce3e b3ae ca3d b09a 913d
00000200: 1445 a53d 2d5f b53e cd38 b73d 7173 163e
00000210: 4a47 b1bd 8749 b3bd 18e9 0d3b 791d 813e
00000220: 000e b7bd 776e cd3d b025 403e 1da4 cf3b
00000230: 79e7 f2bd f1f2 113e 0476 be3c 3dcd ea3d
00000240: 493c d23d 1e94 173e 1f43 b7bc b2af 733e
00000250: a9dd 4b3c b295 a43d b1bc e7bc 531d 7dbd
00000260: 29e9 81bd 6b91 a23d 59b8 933e 93a4 7bbd
00000270: f3d2 853b bc11 e63d c825 d8bd d2f3 d7bc
00000280: c9b8 cabc 0169 e23b f25b b53e 5147 5b3d
00000290: f346 d63b 8c9a 63be 4d88 04be 2479 de3d
000002a0: 7a5f ae3d f4d5 903d ff38 a43c d455 a2bd
000002b0: 1404 9dbc 96b0 933d f710 b73d 35d1 1a3e
000002c0: aeee efba a4fb c1be b826 b2be 7da0 4b3e
000002d0: 7548 9fbb fb8a 94be be71 d73d d42c 9ebe
000002e0: 9563 ac3d a6c4 6d3e df80 803c 3b97 a73e
000002f0: cde3 46be 9c6a b2bd d1d6 26be f06c 5c3e
00000300: 1eda efbd 500f d43d e655 813e 1861 3ebd
00000310: dd9d 8ebd 1fe7 0e3b 5282 f8bd 7f8d 82bd
00000320: 65a6 0d3e 52b9 69bd 63b9 50bd e1c9 713d
00000330: dd9e 8b3e 8e85 70be 0f95 b13d 7f39 b33d
00000340: 0f86 08be b5c3 0abd 6719 b8be fb8b 803e
00000350: 0191 d23d a7a2 813d 8d8e b7bd 5a79 ccbd
00000360: 65fd 303e 7359 e13c 7e77 c7bd 56a0 113e
00000370: d996 d13d 00ec e23d a950 b0be 9841 05bd
00000380: fec9 aebd 1072 db3d ff07 7dbe 9f08 dcbd
00000390: 0b0b 1f3e 7e5e 61bd c7d1 9d3d 2587 06be
000003a0: 6a3e 73bd 8952 353e 7541 5dbd 4ab9 3fbe
000003b0: 763f 87be 8894 4d3d 08f7 073d 5c85 0ebe
000003c0: 3cd0 5f3d 9e1f 9cbc b95c 06bc d301 033e
000003d0: 5f34 34be 657c 693e bfde 68bc 845f 0e3e
000003e0: 5282 1fbd 2982 c43e a5a1 78be dabb e53c
000003f0: e3be 873e 434d efbd c52e a1bd 497f 583e
-0.15179767 0.15554398 0.13799722 -0.18320394 -0.14458027 0.3061659 -0.13373518 -0.10834232
0.20824713 -0.050010074 0.059757788 0.19817246 0.03521036 0.090910815 -0.20363395 -0.08247594
-0.1048989 0.024917332 -0.17552802 0.238076 0.0037977058 -0.22434261 -0.03661812 -0.059533536
-0.04412243 -0.0025691823 0.24369511 -0.025890566 0.13542916 0.13478912 0.16356604 -0.17899758
-0.09340874 0.25468335 0.21722774 0.08315472 0.021272799 0.26883987 -0.052656155 0.0076356097
0.41810066 -0.050841678 -0.035856634 -0.22476462 0.048374213 -0.4386244 0.2507377 0.07439249
-0.0978766 -0.0932152 0.12130349 -0.05588217 -0.09629196 0.13433062 -0.22180437 -0.015790172
-0.17076445 0.030623013 -0.1571769 0.091989174 -0.18704832 -0.2288272 -0.21902737 -0.31346798
0.11463895 -0.19253488 -0.056490097 0.33372077 0.08776241 0.09422883 0.05100854 0.11744039
0.14249817 -0.0092402715 -0.15308525 0.20462051 0.08941179 -0.08171537 0.10896023 -0.03675862
0.097676635 0.07001129 -0.2031118 0.0010392634 0.20803666 -0.04773044 0.027016658 0.079782955
0.24820244 0.074629046 -0.10869672 0.071028695 -0.13319467 -0.36033288 -0.13870792 -0.043857634
-0.0047085434 0.13095118 0.26036164 -0.0416094 0.22145861 0.1553856 -0.09504284 -0.07594892
-0.06136762 -0.02199175 0.04778317 0.4795055 -0.036317836 -0.07792218 0.113401264 0.27984098
-0.06371914 -0.108259104 -0.13349321 0.18871914 -0.25174075 0.07469026 0.015240159 -0.10685506
0.050929245 0.11621801 -0.10515881 0.1999937 0.06533029 0.40331286 0.098966025 0.071095824
0.08069816 0.35424176 0.08946381 0.14692475 -0.086561754 -0.087542586 0.0021653827 0.25217798
-0.08938217 0.10030835 0.18764377 0.0063367025 -0.11860556 0.14252831 0.023249634 0.11464927
0.10265405 0.14802596 -0.022370873 0.23797491 0.012442985 0.080363646 -0.028288217 -0.061795544
-0.063433 0.079378925 0.28851584 -0.061436247 0.004083985 0.11233851 -0.10554081 -0.02636138
-0.024746316 0.00690949 0.3542171 0.05353481 0.0065392195 -0.22226924 -0.1294262 0.108629495
0.085143045 0.07072058 0.02004671 -0.07926527 -0.019166984 0.072114155 0.08938783 0.15118869
-0.0018305385 -0.378873 -0.34795165 0.1988544 -0.0048609325 -0.29012284 0.105197415 -0.30893576
0.08417431 0.23219547 0.01568645 0.32732567 -0.19422837 -0.087117404 -0.16292883 0.21525931
-0.117115244 0.10354483 0.25260848 -0.046479315 -0.06963704 0.002180524 -0.121342316 -0.063746445
0.13833006 -0.0570615 -0.05095805 0.059030417 0.2726964 -0.23488447 0.08671009 0.08751201
-0.1333239 -0.033878047 -0.3595688 0.25106797 0.102815636 0.063298516 -0.08962736 -0.099840835
0.17284162 0.027508473 -0.09739588 0.1422132 0.1023385 0.1108017 -0.3443654 -0.03253326
-0.08534621 0.10715115 -0.24710082 -0.10743832 0.15531556 -0.055021755 0.077060275 -0.13137491
-0.059385695 0.17707266 -0.054017503 -0.18723026 -0.26415604 0.05019048 0.03319457 -0.1391806
0.054641947 -0.019058045 -0.008200818 0.12793665 -0.17598103 0.22801359 -0.014213263 0.13903624
-0.038942643 0.38380554 -0.24280412 0.028043676 0.26512823 -0.116846584 -0.07870249 0.21142305

network_body._body_endoder.seq_layers.0.bias f4 [256]
00000000: d96d a13c c403 8c3c 6295 bd3b c4c2 193d
00000010: 8e1f 923b 9863 893c b55e a03c 145b 383c
00000020: 7518 63bc 0aa6 803a a811 ef3c 8402 8e3c
00000030: 9403 1cbd 9c20 9e3c da88 0e3c 32d6 08bc
00000040: a64f 6e3c 0526 28bb 4339 f33c 7ac8 0e3a
00000050: b15a 3e3b 306a 6c3c 149f 023d 0a1a 4f3d
00000060: d14a 833d fecb 6a3b 202e d03c 5507 143c
00000070: 75a7 c93c e069 a63c 1236 183d 88b6 26bc
00000080: e027 3c3c faa0 b93b 3321 483d 154f 593c
00000090: 010b ed3b b29f cf3c a233 b0bb 45b5 013c
000000a0: 2cf9 1d3d 1d63 c53b b5cf 5a3b 9a16 053c
000000b0: eb14 3a3c b54a c43c 9754 dcbb e909 a53b
000000c0: 924b 3a3b 3577 29bc cd08 d13b 6300 c13c
000000d0: b25b dc3c 7c16 7cbb 1dd1 703b 7e37 8cbb
000000e0: f524 413d ccf4 67bb 067f c73b 0a68 803d
000000f0: 7232 e53b c536 7b3c 943c c3bc bf23 d03b
00000100: 4ce6 94ba db19 513c 1244 153c 691e f23c
00000110: ca16 a53b 5a8c abbb f777 453c 67fa a33c
00000120: d218 11bb 319e cc3c 2356 9e3c 6f85 a73d
00000130: 7885 6ebc e781 533d 98ad 2abc a33c 183d
00000140: 3faa 4c3d 61d9 983c b4c7 4339 48a0 a03b
00000150: 217e 493c 1af8 9c3c f25a 3a3d 193a 1a3c
00000160: 8a45 3b3c 92ba 423d a4bc 343d d322 773c
00000170: c529 683d 9e92 4f3c 3c9f 713d 8c5b 9d3b
00000180: 6b72 9e3c 7c22 2f3d 6d3d ee3b 0e25 3dbc
00000190: cb6c f0bc da40 88bc 2c60 653d 91d8 693c
000001a0: d91a 4a3b 5738 ba3c 9c78 f03c b576 563c
000001b0: f091 aebb f882 603d 01bc a53c f31e 483d
000001c0: 8ec5 663d 77b4 cb3a 582c 433d 5f51 fd3a
000001d0: ae3d 8e3c bba6 313b 81cc 603c 587c 8c3c
000001e0: 6f57 8e3c c628 86bc 1450 0e3c f7c7 003d
000001f0: 5d94 b8ba 134e 5c3d 243b 793c 6812 aa3b
00000200: c606 e63c e0ef 523c fde2 1c3c 7479 8d3c
00000210: c876 f939 e38c 243c ced5 b63c a7f0 0a3c
00000220: c3c0 923b 4d93 d33c 3d54 963c a1a5 05bc
00000230: dffb d43c ffb2 363d 47d4 c43c ff43 043c
00000240: 8be2 6a3d d482 c93b 29d2 3d3d 83e0 70ba
00000250: f664 19bc b826 1dbb e9af df3c 84ae 243c
00000260: d323 243d c4dc 903c 1815 95bb 68d9 c13c
00000270: 2d81 f33c 5c67 9bbb 60a0 193c 2d5f 9f3c
00000280: 932a cb3c c576 f13c 9a3a 9d3b 54e6 633d
00000290: dbcc 6f3d 48f8 e23c 86c1 4ebc 9eb7 de3c
000002a0: 5c56 293b 9dcc 053c 33a8 0e3d 562d 21ba
000002b0: a477 6c3c 2fc6 84bc 5d22 1d3c 9fda c93c
000002c0: 45f8 1c3d fce4 543c 547d 81bc 1c90 66bc
000002d0: a84e fb3c 11da 163b cc9b 043b 530c 903a
000002e0: 8425 8a3d 74ba 443c 7c76 9fbb d4ee 4fbb
000002f0: 5475 083d 6384 9dba 8dab b83c c372 8e3c
00000300: ba1f 073d 4ba1 523b 483e 143c 32ba 8f3b
00000310: 421c d93b 8f34 e53c 2b6d d83b 5dae 70b8
00000320: d899 91bb aa0e 033d f17a b83c 7a84 4abb
00000330: a674 8c3a 1629 143d 761b 273d 9a82 4b3c
00000340: 45a7 be3c d207 333d 06f3 7f3a 8772 af3c
00000350: b751 063d f2e8 383c 0438 863d 7ae9 3abc
00000360: 1e1f ca3c 6ca2 793c d525 333b 2a58 f13c
00000370: 8c14 18bc cc5e 173c 8681 bcbc 8497 fe3c
00000380: 27b4 7e3b 6933 4a3d d748 073b 6d0e 64bb
00000390: 7453 353c 3aaa 3abc 473e 1bbb 804f abbb
000003a0: 6208 423c f59d a43c 2a81 5f3d 7882 f53b
000003b0: 6831 903c 13ff d8bb 909f 893c e893 d43c
000003c0: 4141 313d 77e3 e13a c3c9 443b 6ddf 8f38
000003d0: 4bec 173a 3ade 4e3b 18d1 9ebb b254 113d
000003e0: dc6e 273c 5279 263c 7d45 573d 90d8 7a3c
000003f0: ed6a 8c3b cc62 d53a 1a6e b13c 3231 ca3c
0.0197057 0.01709164 0.00578563 0.03753926 0.004459328 0.016771123 0.01957641 0.0112521835
-0.0138608115 0.0009815108 0.029183224 0.017335184 -0.03808935 0.019302659 0.00869962 -0.008351849
0.014545357 -0.0025657427 0.02969039 0.00054467435 0.0029045756 0.014429614 0.03188999 0.050561942
0.064107545 0.0035827155 0.02541262 0.009034951 0.024615983 0.020314157 0.03716094 -0.010175355
0.011484116 0.005664942 0.048859786 0.0132634835 0.007233978 0.025344703 -0.005377249 0.007916753
0.038567707 0.006023778 0.0033387963 0.008123064 0.011357526 0.023961404 -0.006723951 0.005036582
0.002842639 -0.010343363 0.006379223 0.023559755 0.026899192 -0.003846555 0.0036745735 -0.004279076
0.047154386 -0.0035393713 0.0060881404 0.06269844 0.006994539 0.015332882 -0.023832597 0.0063519175
-0.0011360138 0.012762512 0.0091104675 0.029555516 0.005038117 -0.005235237 0.012052528 0.020016862
-0.0022140038 0.024977775 0.019328183 0.08179747 -0.014558189 0.051637556 -0.010417365 0.037167203
0.049967047 0.018658342 0.00018671044 0.0049019195 0.012298138 0.019161273 0.04549689 0.009413266
0.011430154 0.04754121 0.044125214 0.015083986 0.05668046 0.012669234 0.05898975 0.004802173
0.019341668 0.042757496 0.007270506 -0.011544479 -0.029348752 -0.016632486 0.05599992 0.014272825
0.0030838756 0.022731943 0.029354386 0.013089825 -0.0053274557 0.0548124 0.020231249 0.04885764
0.056340747 0.0015541454 0.04764971 0.0019326619 0.017363396 0.0027107436 0.0137206325 0.017149135
0.017375676 -0.016376864 0.008686084 0.0314407 -0.0014082302 0.053785395 0.015211854 0.0051901825
0.028079402 0.0128745735 0.009575603 0.017269827 0.0004758148 0.010043356 0.022318747 0.008480228
0.0044785454 0.025827074 0.018350715 -0.008157165 0.025999008 0.044604298 0.024027003 0.008072852
0.057344954 0.006149629 0.046343002 -0.0009188728 -0.00936245 -0.0023979377 0.02730556 0.010051373
0.040073227 0.017683394 -0.0045496337 0.023663238 0.029724682 -0.004742546 0.009376615 0.019454563
0.024800574 0.029475579 0.0047982456 0.05563958 0.058544975 0.02770628 -0.012619382 0.027187165
0.0025838828 0.008166459 0.034828376 -0.0006148418 0.014432821 -0.016207783 0.009590712 0.02464038
0.038322706 0.012994047 -0.015806831 -0.014072444 0.030677155 0.0023018161 0.0020234464 0.0010990001
0.06745437 0.0120073445 -0.0048664194 -0.0031728046 0.033315018 -0.0012017604 0.02254274 0.017388707
0.03298924 0.0032139595 0.009048052 0.00438621 0.006625683 0.027979163 0.0066048107 -5.7382847e-05
-0.0044433884 0.031996407 0.02251956 -0.0030901716 0.0010715916 0.036171995 0.040797673 0.012421275
0.02327312 0.04370863 0.00097636913 0.021416916 0.032792773 0.011286007 0.06553653 -0.011408204
0.024673041 0.015236478 0.0027335782 0.029460985 -0.0092822425 0.00923891 -0.02301098 0.031078108
0.0038864703 0.049365435 0.0020642781 -0.0034798637 0.01106726 -0.011393124 -0.0023688243 -0.005227983
0.011842819 0.020094851 0.05456654 0.0074923597 0.017601684 -0.006622204 0.016799718 0.025949433
0.04327512 0.0017233928 0.0030027486 6.860388e-05 0.0005795403 0.0031565563 -0.0048467033 0.035481162
0.010219302 0.010160761 0.052556504 0.015310422 0.0042852075 0.0016280054 0.021658946 0.024681661

network_body._body_endoder.seq_layers.2.weight f4 [256, 256]
00000000: a656 143d 74bc 45bd 8a12 513d 43b9 c1bd
00000010: 3046 a2bc 165d adbd b299 02bd 86e9 98bd
00000020: 3d2c debd f3d6 32bd 170e ed3d 5d94 9a3d
00000030: 030d 6c3d 393b ba3b 7dd0 ddbd 716f b03d
00000040: 648c e73d 82c9 76bd 8aba fd3d f5d8 a5ba
00000050: f01c abbd bc2e 253d 758f f1bc 5b2e 8d3d
00000060: 0bda 983c 3c01 80bc a238 f5bd 71ee 50bd
00000070: 7751 093d 38c3 503d 5fd1 02be 9375 10bd
00000080: 5513 9abd 3252 0f3e 682f 4b3c 5561 ec3d
00000090: 20a3 233d a665 033e 4625 2bbd 057f b7bc
000000a0: f307 37be 8de2 9d3c 0cbc 833d 9779 81bd
000000b0: c7f0 49bd 4495 f93c 0e32 bc3c 00fa 833d
000000c0: c491 9cbc 0b4a 98bb e1f6 543e 96e7 bdbd
000000d0: 48fd c23c a48f ac3d fde8 31bd d215 403c
000000e0: ac7a 823c 6279 e5bd 3afd 8cbd b744 7d3d
000000f0: 0995 08bd 92c1 3fbd 7ca3 133d 016f 323e
00000100: 245f 8fbc 6472 183d d08b b13c b34a 493c
00000110: 6781 1abd f724 9e3d aaa7 e7bd 4982 c03d
00000120: b85f 92bc c002 c13d 8055 25bc f404 6fbd
00000130: 321f 1b3d b768 60bd ba11 903c 1c23 5c3d
00000140: 2bdd 56bd 6245 9a3d ac8f f1bd 7278 c83d
00000150: a01e 043e 64e0 10bd 0e8c 613d 6d42 efbd
00000160: 42fe 893c 1298 3fbc 9bd0 023e 1042 f3bb
00000170: 7f59 fdbc abd4 08bd 749d 69bd f0b7 d0bd
00000180: f952 7b3c 30c8 093e ee65 8a3c 3b2e 553b
00000190: 5440 aebd 7aaa 60bd d429 92bc dd3f a93d
000001a0: d214 593d aacc 8bbc 6a9a 2c3d 6ff6 7ebe
000001b0: baef f93d 7b45 d7bc 3965 bc3b 275c 853d
000001c0: 6f8d bd3c dc65 0c3a 1b92 283e 34e3 91bd
000001d0: d916 8d3c 1db6 87bc 4c22 16bd 49cc a2bb
000001e0: 99dd 863c c4d3 f63d 4d61 95bb 5ffc 8fbd
000001f0: d244 113e ea9e 023e 1c39 0cbd f02d 813b
00000200: 7dbf 283d 3449 0ebd 2797 5a3d ce5e 6c3e
00000210: bf17 cb3d 414d 473d 347e 3b3d d3c8 d7bb
00000220: 7626 b03d 4202 7e3c 6d49 1b3b ecda 30bd
00000230: f6c1 f4bd a13e 9cbd 7587 0eba ec20 7cbc
00000240: cec4 0cbd b720 4e3d ce69 36bd 9114 053d
00000250: 0580 a5bd 549f 9e3c eb1c 8cbc 3aad 8d3b
00000260: f43f 053e c102 e03c 17be cabc b17f 023d
00000270: 9d14 a8bc ebde a9bd abeb 46bd f18b ccbd
00000280: 9dcb 30be 0188 093e b0b8 ec3c 9fc6 56bd
00000290: 6fdd 17bc 18b1 843c e697 963d c4a3 0dbb
000002a0: 07ac 643d 0d79 323c 7151 3f3d 2104 c2bc
000002b0: 1a2a fbbd 75cf 63bc 22ac bbbc 29fb b83c
000002c0: 01ec a93c 678c 47bd 5d4e 6a3c a49f 503d
000002d0: 663f 30bc 89bf 10be 1568 c53d 21fd 023d
000002e0: b39c df3c 9b4e 95bc b9ff 67be 1227 773d
000002f0: 6b89 833c 7a06 34bc 7028 aa3c 88a0 f83d
00000300: 48d8 813c 2eb4 713d a1fc bd3c 715b 01bb
00000310: b566 013d 4418 1b3d cdfd dabc 69e2 523c
00000320: c45e 15bc c2d5 453c 9257 c6bd 1c58 5c3c
00000330: 7ccf da3c 0d53 eebd d902 553c 1928 633d
00000340: 1e9b 523d e2d0 64bd dc9e e7bd a772 0dbe
00000350: 5084 99bc 1fcd acbc 509b a3bd 045c 99bd
00000360: 88c7 233d 6b09 493d 08a6 c33a 0e5d 713d
00000370: 6bad 01be 35b1 15bc 973d e73c fc3a ecba
00000380: d867 0c3d 32e0 ffbc 8e3e 9abd 3b70 acbd
00000390: 09bc 413a 2535 a43c 220f 43bd 99f9 afb9
000003a0: 4536 db3c 8450 743d 4883 ae3d 857e c3bd
000003b0: d799 823d 3e9b 1ebe a6b0 183d 46f4 803d
000003c0: 27ff f03c eba5 143d 5695 02bd d6b5 89bc
000003d0: 0e4a b2bc 27b2 e8bd d84d 8cbc adb8 363d
000003e0: cf20 483d 865f 87bc 394e 9b3d d8c4 92ba
000003f0: 769b 823d 73cb aebd 9b0c 973c b3be f73d
0.036215447 -0.048275426 0.05104307 -0.09459164 -0.019808859 -0.0846502 -0.031884857 -0.07466416
-0.108482815 -0.043662023 0.11574953 0.07547829 0.057629596 0.0056833294 -0.108307816 0.08615006
0.11306074 -0.060250767 0.12389095 -0.0012653159 -0.08355129 0.040327772 -0.029487351 0.06893607
0.018658658 -0.015625589 -0.119736925 -0.051008645 0.033524957 0.050967425 -0.12775181 -0.035268378
-0.075232185 0.13996199 0.012401439 0.11542002 0.03995049 0.12831745 -0.041783594 -0.022399435
-0.17874126 0.019273067 0.064323515 -0.063220195 -0.04930189 0.030466683 0.022973087 0.06444168
-0.019112475 -0.0046474985 0.20797302 -0.09272687 0.023802415 0.08425835 -0.043435086 0.011723952
0.015927635 -0.112047926 -0.06884237 0.06183311 -0.033345256 -0.046815462 0.036044583 0.17425157
-0.017501421 0.037218466 0.021673113 0.012285876 -0.037721064 0.07721894 -0.11311276 0.0939985
-0.017867908 0.09424353 -0.010091186 -0.058354333 0.037871547 -0.054787364 0.017586578 0.05374442
-0.052457016 0.07532765 -0.11794981 0.09788598 0.12902308 -0.035370246 0.055065207 -0.116825916
0.016844872 -0.011693971 0.12774889 -0.0074236467 -0.030926464 -0.03340594 -0.057034925 -0.10191333
0.015339606 0.13455272 0.016894307 0.0032528776 -0.08508363 -0.05485008 -0.01784221 0.08264134
0.05299837 -0.017065365 0.04213945 -0.24898694 0.12203927 -0.026278248 0.0057493714 0.06511717
0.02313873 0.00053557544 0.16461985 -0.07123414 0.017222809 -0.01656633 -0.0366538 -0.0049682003
0.016463088 0.1205211 -0.0045587183 -0.07030558 0.14186409 0.12755933 -0.03423415 0.0039422438
0.041198242 -0.03473778 0.053366806 0.2308304 0.099166386 0.04865766 0.045774654 -0.0065852194
0.08601086 0.015503468 0.0023694888 -0.04317753 -0.119510576 -0.07629133 -0.0005437055 -0.015388709
-0.034367375 0.050324168 -0.044534497 0.032490317 -0.080810584 0.019363083 -0.017103633 0.0043236287
0.13012677 0.027345063 -0.024748845 0.031860057 -0.020517642 -0.08294471 -0.048564594 -0.09987629
-0.17265172 0.13430788 0.02889666 -0.052435514 -0.0092691025 0.016197726 0.07353191 -0.0021612504
0.05582812 0.010893119 0.046708528 -0.02368361 -0.122638896 -0.013904442 -0.022909228 0.0225807
0.020742418 -0.048717882 0.01430091 0.050933495 -0.010757303 -0.14135565 0.09638993 0.031979684
0.0272964 -0.018225959 -0.22656144 0.060339995 0.016056737 -0.010987872 0.020771235 0.12139994
0.015850201 0.059009723 0.023191752 -0.0019738341 0.03159209 0.03786494 -0.02673235 0.012871363
-0.009116832 0.01207489 -0.096846715 0.013448741 0.026710264 -0.116369344 0.013001167 0.055458162
0.051417463 -0.05586327 -0.11309597 -0.13813268 -0.01873985 -0.021093903 -0.07988608 -0.07488254
0.03998521 0.049081247 0.00149268 0.058926634 -0.1266381 -0.009136488 0.02822761 -0.001802295
0.03427872 -0.031234834 -0.075314626 -0.08419844 0.0007390385 0.020044873 -0.047621854 -0.00033564566
0.026759276 0.0596471 0.08521134 -0.09545616 0.06376999 -0.15488908 0.03727784 0.062965915
0.029418541 0.036291044 -0.0318807 -0.016810339 -0.021763828 -0.11362105 -0.017126963 0.044609714
0.048859414 -0.016525041 0.07583279 -0.001119758 0.06377308 -0.085348986 0.018438628 0.1209692

network_body._body_endoder.seq_layers.2.bias f4 [256]
00000000: 3443 6d3c 9649 ed3c 87e5 0db7 f543 b23c
00000010: 73c8 f93c de24 efbb b4ee 123c bea2 013d
00000020: a08f de3c 3f7b 43bc 3aee 34bc cc58 a53c
00000030: 04e9 b73c 7906 703c 4576 1e3c 8e44 d43b
00000040: 25a4 753c b099 9e3b c46a 7c3c 3cef 493c
00000050: 8728 be3c 550a 043c 2a35 d33c ab21 df3c
00000060: 804f 92bb 695d 583c 0bc3 2bbc ab57 573c
00000070: 8c27 4b3c 37f2 20bb ac68 39bb 8517 34bc
00000080: 1f07 c13c 08c9 0e3d 1492 f93c 7ff0 14bb
00000090: 0e7e 953b 377d 263b d130 b13b c521 c13c
000000a0: 5b61 dc3b 1505 e83c 0e6e 203c 4506 77bc
000000b0: 1691 4c3b 4241 b63c 6da1 d03c 85d1 1b3b
000000c0: 3643 163b 453e 4dbb ad79 44bc 05c0 573c
000000d0: 63a2 723c 89fd e5ba bfd7 d0ba cf98 24bc
000000e0: 9401 803c d3f7 b2bc 918e e53b be93 c43c
000000f0: 13b6 e23c 34ba 8bbc ac6d 053c 3403 bd3c
00000100: 73f9 fb3c 7e3f 493b 07ce ff3c 476d b83c
00000110: cf8a e83c 3ac4 7cbb f530 253c 2f00 4dbc
00000120: 78f2 8d3c a1fe 81bb c1a8 913c a74c 353c
00000130: 8e0c 35bb 46a3 b63b e35d 8f3c 301a b4bb
00000140: 334c e8bb 0bee 6b3c 5afe 5fbb f5d0 0fbb
00000150: 28a9 aebb dadf 41ba 06be f23c f492 8d3c
00000160: 617b b13c dac7 dcbb 65ca 31bc 967d ac3c
00000170: 6c24 d4bb 0d75 e9ba 1405 76bb c1bc c13b
00000180: 3552 a53c ceb1 1a3c 275d fd3c 81d0 23bc
00000190: 4cdb 373c b5bc ac3c ed6d 883c 2c93 903b
000001a0: 480d a03c 07c7 2ebb 513c d7bb 420c 00bc
000001b0: b5bf 8d3c 57e7 e5bb c446 853a 455e 8fbc
000001c0: 7b97 973b 9980 b83c 567d a43b 275e 133d
000001d0: ff29 163b 4f29 053d 5140 2bbb bcf9 f4ba
000001e0: 65bd 1b3c e465 aabb 3663 ce3c ec86 4e3c
000001f0: 970a 8a3c 756e 8c3c e05b 9d3c a94d b53c
00000200: 3c1d 253d 4b58 1d3d 75ed 283d f137 673c
00000210: c704 3b3c e760 a13b 85bc 42bb f9da c73c
00000220: 516d 623c d980 e63c 75b4 703c ea84 f23c
00000230: 1116 a73b 0bd2 a03c 6930 783b e2dd 07bb
00000240: 6fd2 52bb 7cef 823c 292e da3c f7b4 8abb
00000250: 724c 363c 4399 8f3a 8656 2cba 3163 8b3c
00000260: 522a 1bbc 0591 043c 6072 19bc d78f 153c
00000270: 5f7c 883c f412 c8ba 5941 0d3c 6dab 6ebc
00000280: c05e db3b 443b cf3c 0634 e1bb da29 42bc
00000290: 1873 293c a90d 3c3c 212d 4a3c 4900 6e3c
000002a0: e6d8 393c ccdc feba 5b75 6fbb 1dba 4f3b
000002b0: fce1 bd3c d940 89bb 43b0 093b 34c2 a83c
000002c0: 69da 83b9 f2d0 9d3b 8a83 50ba 8354 82bb
000002d0: 3bc3 263d 579b 0c3b 24c8 803b a29b 5a3c
000002e0: 9f43 a43c 8ede 2cbb 8f47 a2bb 5782 343d
000002f0: 5bb4 4a3b aa76 d13b 111c 7b3b 0ab6 09bb
00000300: 2f55 a13c 611f 8c3c 2f9c 4ebc 24e2 9b3c
00000310: c332 2d3b 5223 2a3b 4476 7ebb 963a f23c
00000320: 2cee c83c 5ed7 213c 2b59 883c cf31 9d3c
00000330: 7933 663c faa5 b53a ae3a 3c3c 60af e23c
00000340: c0e8 4bbc bd62 653c c501 863c f172 423c
00000350: 2464 f73c 1349 933b 70d1 72bc 170b 3d3c
00000360: 4ca6 e93c f513 a93b fcea 1c3d f055 343c
00000370: e742 733c 3f2d 1dbc 2da7 81bc cd59 063d
00000380: 2684 f2b9 8819 053d 564d 063c e5cc c93b
00000390: 0811 993b bd8c b43b 6a00 603b 5c47 953c
000003a0: 1601 f63c 11e7 82bc 7320 b53c 6dc4 943c
000003b0: 2875 513c 2832 043c 8e59 993c 492f 0c3c
000003c0: 27dd a63c b9b7 153c a58b 673c f1d0 f23b
000003d0: 9c0e 863c 0d45 13bc df06 cf3c e53a b13b
000003e0: cbd8 efbb dad9 c33b 8c42 79bb f51e 6b3c
000003f0: 8e0c ba3b 709e 223d cd7b d13c 8a3a c0b9
0.0144813545 0.028965753 -8.457696e-06 0.02176092 0.03049109 -0.007298096 0.008968044 0.031649344
0.027168095 -0.01193124 -0.011043126 0.020183943 0.022449978 0.014649981 0.009671752 0.006477899
0.014992748 0.0048400983 0.015406314 0.012325104 0.023212684 0.008059104 0.025782187 0.027237734
-0.0044650435 0.0132058645 -0.010483514 0.01314346 0.012399565 -0.0024558434 -0.002829115 -0.010991936
0.023562966 0.034859687 0.030465163 -0.0022726355 0.004562146 0.0025404224 0.0054074307 0.023575673
0.006725473 0.028322736 0.009791864 -0.015077178 0.0031214408 0.022247914 0.025467599 0.0023776006
0.0022928244 -0.0031317633 -0.0119919 0.01316834 0.014809224 -0.0017546873 -0.0015933438 -0.010046198
0.015625753 -0.021846687 0.0070055206 0.02399623 0.02767471 -0.017056562 0.008143824 0.023072816
0.030758595 0.003070801 0.031226171 0.022513045 0.028386502 -0.0038569109 0.010082473 -0.012512251
0.017327532 -0.0039671217 0.017780663 0.011065639 -0.0027625891 0.005573663 0.017500823 -0.005496286
-0.007089162 0.014400016 -0.0034178705 -0.0021944616 -0.0053302236 -0.0007395722 0.029631626 0.017281987
0.021665277 -0.0067376914 -0.010851477 0.021055978 -0.0064740684 -0.0017811373 -0.0037539648 0.005912394
0.0201808 0.009441806 0.030928208 -0.009998442 0.011221718 0.021086076 0.01665398 0.0044120755
0.019537583 -0.0026668923 -0.0065684696 -0.0078154225 0.017303327 -0.0070161032 0.0010168185 -0.017501006
0.004626212 0.022522258 0.005019824 0.035978463 0.0022913215 0.032510098 -0.0026130865 -0.0018690149
0.009505604 -0.0052001346 0.025193792 0.01260541 0.016850753 0.017142514 0.019208848 0.022131758
0.040311083 0.03841428 0.04124208 0.014112459 0.011414713 0.0049248817 -0.0029714417 0.024396406
0.013820008 0.028137611 0.014691462 0.029604394 0.005099066 0.019631406 0.0037870652 -0.0020731618
-0.0032168885 0.015983336 0.026633339 -0.0042329985 0.011126624 0.001095571 -0.00065741723 0.017015072
-0.009470539 0.008091216 -0.009365648 0.009128532 0.016660867 -0.0015264438 0.008621537 -0.014567238
0.0066946447 0.025296815 -0.0068726568 -0.0118507985 0.010342382 0.011477866 0.012339861 0.014526435
0.0113432165 -0.0019444465 -0.0036538455 0.0031696626 0.023179047 -0.0041886386 0.0021009601 0.020600416
-0.00025148995 0.004816168 -0.0007954171 -0.0039773597 0.04071353 0.0021454894 0.0039301086 0.01334277
0.020051776 -0.002637777 -0.004952378 0.044069614 0.0030930254 0.0063923197 0.003831629 -0.0021013045
0.019693939 0.017104806 -0.012610479 0.01902873 0.0026427961 0.0025960994 -0.0038827816 0.029568952
0.024527632 0.009878008 0.016644081 0.01918879 0.014050358 0.0013858669 0.0114886 0.027671516
-0.012445629 0.014000592 0.016358266 0.0118682245 0.030199118 0.004494795 -0.014820442 0.011538289
0.02852168 0.0051598498 0.038310036 0.011006817 0.014847494 -0.009593307 -0.015826786 0.032800484
-0.00046256295 0.03249505 0.008197149 0.0061584585 0.0046712197 0.0055099414 0.0034179934 0.018222503
0.030029815 -0.015979322 0.0221102 0.01816007 0.01278428 0.008068599 0.01871946 0.008556196
0.020369126 0.009138041 0.014132415 0.0074101617 0.016364388 -0.008988631 0.025271831 0.005408632
-0.007319545 0.0059768977 -0.003803405 0.014350642 0.005677766 0.03970188 0.025571728 -0.0003666471

action_model._continuous_distribution.log_sigma f4 [1, 5]
00000000: 7c14 30be 94e9 0bbe a019 3dbe 5cee 4bbc
00000010: cafc 66bd
-0.17195314 -0.13663322 -0.18466806 -0.012446966 -0.056393422

action_model._continuous_distribution.mu.weight f4 [5, 256]
00000000: 3e04 febc 8797 973c 5471 cfbb 75b1 bcbc
00000010: 7459 f73c 5715 853c 685e 8bbd 5c95 f03c
00000020: b7b6 623d 707b 01bc 0039 79bd 6bdb d1bc
00000030: 2daf b5bb c88d 55bd 8e71 a33a bb85 18bd
00000040: 0bf4 24bc 4c11 b6bc 6476 cfbb 5ec5 9f3a
00000050: 2143 113b 037c 293d a826 6c3d cc39 a1bb
00000060: aa31 73bb 13b6 aebc 832a d23b f455 5ebd
00000070: 4c94 313d 440b f8bb e02c 843c c6bb 683d
00000080: 9956 efbc 7a29 703d 0647 733c 46ef adba
00000090: b923 023d 1fc7 20bd d304 bfbd 1520 4a3c
000000a0: b511 87bc d637 6c3b 4083 333c 7539 cd3b
000000b0: 22f0 ff3c 30dd 2b3d 4b39 81bc 712b 9c3c
000000c0: dd9e 2ebc 62a9 e4bc 1d07 c83c dff5 373d
000000d0: f715 edbb 67b4 673d 4065 273d a2e0 45bb
000000e0: b46d 08bd 66b9 43bc 1ec0 b1bc c590 3d3d
000000f0: 6c37 e53c f774 79bc 1e79 f0bc 28ac 89bd
00000100: 4d3e 0d3c 24c1 493d ad33 ab3d a647 84bc
00000110: b31f 863c 9f85 90bc 140d aebc 2173 30bd
00000120: 2114 aabc e673 9b3c 6aa7 8b3d c662 35bd
00000130: 70f9 64bc a5f0 c73c ce9f 95bd 4b1b e2bc
00000140: c5d9 343c e307 3fbc 94a0 433d f0ac 7abd
00000150: f761 88bc 7e22 40bd 5204 90bd 2291 18bd
00000160: e7b3 36bc c773 efbb 9d35 5f3c 4c02 3fbc
00000170: 20c2 703c df13 dabc 0a3d bbbc 927b ab3c
00000180: 1a5b afbc 25a1 65bd 5055 0b3c b607 a0bc
00000190: e937 46bb 9864 073d 7cb3 5bbb e3e9 80bc
000001a0: 896b 33bb fed4 0e3b 5010 aebd 27ca 61bd
000001b0: c43b 5abb a257 dd3c 2799 8d3d 2110 0e3b
000001c0: bab6 9d3d d798 5bbd fd14 98bd a7b3 dabc
000001d0: 9077 cc3c e23e a0bc 21af 48bc fef5 523c
000001e0: 1a89 a5bd 64f1 263d 418a 1d3d 0d37 d9bc
000001f0: f22c b9bd ff16 95bc 5aa9 95bd 3873 833d
00000200: e651 553c de13 743c ac2f 5eba 8713 51bd
00000210: 17eb d33c a754 fbbc de1b b33c ffe9 a03d
00000220: 85d9 b83c 142f 28bd 7bee aa3d fdcf 25bc
00000230: f481 88bc d13c 053c e3e3 363c 3291 963d
00000240: eb8e 1a3d c9b2 7cbb b827 953d 7e5c 0c3c
00000250: d6bd e5bc 1552 153d 87cb b3bc fee1 5f3c
00000260: e183 25bc 248d cdbd 02d7 54bd 556f 303c
00000270: 69cc f8bc 9bf3 42bd 3a59 653c 36c4 083d
00000280: d205 c6bc 41c0 e33c 5d79 233b 3069 19bc
00000290: c996 92bd 862e 783c 6dc9 ff3c 578c 61bd
000002a0: eacb c13c fc68 fcbb 3d51 b93c 5fa3 c1bb
000002b0: a617 153c d674 13bd 81d1 a23c 291b ec3c
000002c0: 42b7 3d3d 253f 973d 3759 993d 0f5a 0c3d
000002d0: 7680 0dbd 314f f2bc 9080 5cbd 3cf7 9cba
000002e0: c122 2d3b a3d5 913d 0195 1d3d 5155 413d
000002f0: 3628 b33d 15ad 21bd 0d28 013c db3b ac3c
00000300: 416b 653d 9fba f2bc bf18 12bd 978e 263d
00000310: 7a88 6ebd 1cb8 09bd 0e03 86bd c27d c23c
00000320: ab86 893c 1237 40bd 9b2c 2cbd 0e74 823d
00000330: 6f43 7a3d e655 9ebd faa4 eaba 2bb3 f93c
00000340: 898a 3cbd 1c9f 063c 6d09 b03d b622 2c3d
00000350: 95ab ab3c c8f7 393d 6bdc 003d dc91 643d
00000360: b21e 773c f315 723d 18eb f1bb 8d61 e13c
00000370: aead 19bd 8168 1b3d 1a18 a93c 5b17 abbc
00000380: 8581 623d 8eff af3c d0ce 2fbc 871b 5cbb
00000390: 07ef 5f3c 6e66 57bd f09a 893c 8cc0 023d
000003a0: cdc1 6d3c 436d 00bd 9e04 193d 3435 7dbd
000003b0: 6626 63bd 4c6e a0bd 15b8 65bd 82ce f5bc
000003c0: b6e5 b2bb eb60 a1bc f8de bbbc 1c42 bbbc
000003d0: 35e5 883a c19e 0abd 01a5 ca3c 3836 90bd
000003e0: f9c2 8fbd 2b68 bf3a c0e7 6bbd a944 cabd
000003f0: 1746 3fbb 09fe c63c accf 90bc c514 b93d
-0.031007882 0.018504871 -0.0063306484 -0.023033837 0.030194022 0.016245527 -0.06805116 0.029368095
0.05535003 -0.007902965 -0.060845375 -0.025617322 -0.005544564 -0.052137166 0.0012469755 -0.03723691
-0.01006795 -0.022225045 -0.006331252 0.0012189557 0.0022165256 0.041378032 0.057654053 -0.00492022
-0.003710846 -0.021327054 0.006413759 -0.05428119 0.043354318 -0.0075697023 0.01613468 0.0568197
-0.029216098 0.058633305 0.014848476 -0.0013270162 0.03177235 -0.039252397 -0.09327092 0.0123367505
-0.016487936 0.0036044023 0.010956585 0.006262953 0.031242434 0.041958988 -0.01577439 0.019063683
-0.010657993 -0.0279128 0.024417454 0.044912215 -0.0072352844 0.05656853 0.040868044 -0.0030193706
-0.033307746 -0.011946058 -0.021698054 0.04628064 0.027980529 -0.0152256405 -0.029354628 -0.06722289
0.008620811 0.04925646 0.08359466 -0.016147446 0.016372537 -0.01764184 -0.02124647 -0.043078545
-0.020761551 0.018976163 0.06819041 -0.04428365 -0.013975486 0.02440674 -0.07305871 -0.027600905
0.011038248 -0.011659595 0.04776056 -0.061200082 -0.016648276 -0.046907894 -0.07032074 -0.037247784
-0.0111512905 -0.007307503 0.013623622 -0.011658262 0.0146947205 -0.026620803 -0.022856254 0.020932946
-0.021405745 -0.056061883 0.008504227 -0.019534927 -0.0030245727 0.033054918 -0.003352373 -0.015736526
-0.0027377328 0.0021794434 -0.08499205 -0.055124428 -0.0033299783 0.027019326 0.06913977 0.0021677094
0.07700868 -0.053612556 -0.07425878 -0.026696993 0.024959356 -0.019561235 -0.012248785 0.012876032
-0.08082791 0.04075755 0.038461927 -0.026515508 -0.09041776 -0.018199442 -0.07307692 0.064184606
0.013020014 0.014897315 -0.00084757316 -0.051044013 0.025868936 -0.030680014 0.021863874 0.07857131
0.022564659 -0.041060522 0.08346268 -0.010120389 -0.016663529 0.008132176 0.011162731 0.073519126
0.037733953 -0.0038558713 0.072829664 0.008566974 -0.028044622 0.036455233 -0.021947635 0.013664721
-0.010102243 -0.10036686 -0.05196286 0.010768731 -0.030370908 -0.0475956 0.013998324 0.033390246
-0.024172697 0.027801635 0.0024944164 -0.009363458 -0.07157666 0.015147811 0.031223977 -0.05506548
0.023656804 -0.007702945 0.022621745 -0.005909368 0.0090998765 -0.036000095 0.01987529 0.028821545
0.046317346 0.07385091 0.074877195 0.034265574 -0.034546338 -0.029578777 -0.053833544 -0.0011975537
0.002641842 0.07120826 0.03847218 0.047200505 0.08747904 -0.039471705 0.007883084 0.021024635
0.05601049 -0.029630003 -0.03566813 0.040663328 -0.058235623 -0.033622846 -0.065435514 0.023741607
0.016787848 -0.04692752 -0.042034727 0.06369792 0.061099466 -0.077312276 -0.001790195 0.030480942
-0.046030555 0.008216646 0.08595548 0.04202529 0.02095584 0.04540232 0.031460207 0.055803165
0.015083002 0.059102964 -0.0073827617 0.027512336 -0.03751915 0.03794146 0.020641375 -0.02088516
0.0552993 0.021484163 -0.01073046 -0.0033585744 0.013667828 -0.05258792 0.016797513 0.03192191
0.014511538 -0.0313542 0.03735792 -0.061818317 -0.05545654 -0.078335375 -0.056083757 -0.030005697
-0.0054595126 -0.019699534 -0.022933468 -0.022858672 0.0010444286 -0.033842806 0.024736883 -0.070415914
-0.0701961 0.0014603188 -0.05759406 -0.09876377 -0.0029186064 0.024291055 -0.01767715 0.090371646

action_model._continuous_distribution.mu.bias f4 [5]
00000000: 3074 093b 6849 b53c fadf 24bb c9b0 503c
00000010: b1bb d5bb
0.0020973794 0.02212973 -0.0025157914 0.012737461 -0.0065226187
