config/results/hb_01/Hummingbird/Hummingbird-4499992.onnx (onnx, 318566 bytes, 7 tensors)

network_body._body_endoder.seq_layers.0.weight f4 [256, 46]
0	0xbe1b7583	-0.15181546
1	0x3e1de0d6	0.154178
2	0x3e0d4f25	0.13799722
3	0xbe3b00fd	-0.18262096
4	0xbe143f60	-0.144773
5	0x3e9bd105	0.30432907
6	0xbe08f1e0	-0.13373518
7	0xbde25f6e	-0.11053358
8	0x3e555883	0.20834546
9	0xbd531df8	-0.051542252
10	0x3d74c495	0.059757788
11	0x3e49cf37	0.19707952
12	0x3d0fe671	0.035131875
13	0x3db6b37a	0.08920951
14	0xbe50856b	-0.20363395
15	0xbdac676d	-0.084181644
16	0xbdd75083	-0.10513403
17	0x3cc3632c	0.023851
18	0xbe33bd9e	-0.17552802
19	0x3e73ce6a	0.2380921
20	0x3b6ac795	0.0035824527
21	0xbe66ba3c	-0.2253198
22	0xbd15fce2	-0.03661812
23	0xbd791f5a	-0.060820915
24	0xbd35978f	-0.04433399
25	0xbb4f40d8	-0.0031624343
26	0x3e798b36	0.24369511
27	0xbcd7096b	-0.026249608
28	0x3e0a4aef	0.13505147
29	0x3e0998c0	0.13437176
30	0x3e277ddb	0.16356604
31	0xbe37fd28	-0.17967665
32	0xbdc238d3	-0.094834946
33	0x3e82718d	0.25477257
34	0x3e5e70f3	0.21722774
35	0x3daa3e5c	0.08312675
36	0x3cb02bdd	0.02150529
37	0x3e897439	0.26846483
38	0xbd56cf1d	-0.052443612
39	0x3c004221	0.007828266
40	0x3ed5d06b	0.41760573
41	0xbd4ec39f	-0.050479528
42	0xbd122195	-0.035676558
43	0xbe662dd4	-0.2247842
44	0x3d44c545	0.048039693
45	0xbee0b044	-0.4388448
46	0x3e80661d	0.25077906
47	0x3d9adfa8	0.0756219
48	0xbdc87387	-0.0978766
49	0xbdbe6eb5	-0.092984594
50	0x3df91644	0.1216245
51	0xbd618667	-0.055059817
52	0xbdc534b8	-0.09629196
53	0x3e0ad473	0.13557605
54	0xbe62a92b	-0.22134845
55	0xbc7f4158	-0.015579544
56	0xbe2edce0	-0.17076445
57	0x3d00635c	0.031344756
58	0xbe20a5c6	-0.15688238
59	0x3dbd5196	0.09244077
60	0xbe3f8998	-0.18704832
61	0xbe69583e	-0.22787568
62	0xbe5fb3e8	-0.21845973
63	0xbea09501	-0.3136368
64	0x3deac7d3	0.11463895
65	0xbe44cbe3	-0.19218402
66	0xbd67ad54	-0.056561783
67	0x3eab4736	0.33452767
68	0x3db3bcc7	0.08776241
69	0x3dc2d800	0.09513855
70	0x3d5211bc	0.051286444
71	0x3df1d49d	0.11808131
72	0x3e11eb0a	0.14249817
73	0xbc079d6a	-0.0082772765
74	0xbe1c888b	-0.15286462
75	0x3e53130e	0.20612738
76	0x3db71d87	0.08941179
77	0xbda5fa17	-0.081043415
78	0x3ddee22b	0.10882982
79	0xbd14143c	-0.03615211
80	0x3dc80ab0	0.097676635
81	0x3d90a029	0.07061798
82	0xbe502024	-0.2032476
83	0x3a983c89	0.001161472
84	0x3e5500d0	0.20801091
85	0xbd43cc81	-0.047802452
86	0x3ce37bda	0.027769018
87	0x3da28cb7	0.079369955
88	0x3e7e5878	0.24838436
89	0x3d9a0358	0.07520169
90	0xbddea49d	-0.10871241
91	0x3d926930	0.07148969
92	0xbe085271	-0.13312699
93	0xbeb8c0d6	-0.36084622
94	0xbe0e0973	-0.13870792
95	0xbd36d9f9	-0.04464147
96	0xbbb33fba	-0.0054702433
97	0x3e06dfe5	0.13171346
98	0x3e854e1f	0.26036164
99	0xbd289ef4	-0.041167215
100	0x3e625c85	0.22105606
101	0x3e1f944d	0.15583916
102	0xbdc2a5d2	-0.09504284
103	0xbd9caeae	-0.07650505
104	0xbd7dea0d	-0.061990786
105	0xbcadab86	-0.021199953
106	0x3d43b849	0.04778317
107	0x3ef5c387	0.48000738
108	0xbd1648a9	-0.036690388
109	0xbd9d3bd8	-0.0767743
110	0x3de83eec	0.113401264
111	0x3e8ecef1	0.2789226
112	0xbd82db0a	-0.06389435
113	0xbddd7fe2	-0.10815407
114	0xbe08b272	-0.13349321
115	0x3e41a557	0.18910728
116	0xbe80f93a	-0.25190145
117	0x3d9915ef	0.074748866
118	0x3c79b1dc	0.015240159
119	0xbddc6530	-0.107614875
120	0x3d4fc460	0.050724387
121	0x3ded5a85	0.11589531
122	0xbdd75d81	-0.10515881
123	0x3e4cc4c3	0.19996934
124	0x3d8767c7	0.06611591
125	0x3ece3839	0.4027727
126	0x3dcaaeb3	0.098966025
127	0x3d8f817b	0.07007118
128	0x3da38f50	0.07986319
129	0x3eb54c2d	0.3540968
130	0x3db7c5a2	0.08973242
131	0x3e157540	0.14595509
132	0xbdb28726	-0.08717184
133	0xbdb2a903	-0.08723643
134	0x3b2632ea	0.0025359937
135	0x3e80d230	0.2516036
136	0xbdb73ed3	-0.0894753
137	0x3dccb23d	0.09994934
138	0x3e3f9218	0.18708074
139	0x3bd66728	0.006543059
140	0xbdf2e779	-0.11860556
141	0x3e12201a	0.14270058
142	0x3cbd72a3	0.023125952
143	0x3de81a3a	0.11333127
144	0x3dd23c49	0.10265405
145	0x3e167cee	0.14696094
146	0xbcba4259	-0.022736715
147	0x3e727458	0.23677194
148	0x3c4bdda9	0.012442985
149	0x3da404f7	0.080087595
150	0xbce752b2	-0.028237674
151	0xbd81cc24	-0.06337765
152	0xbd81e929	-0.063433
153	0x3da03c11	0.07823957
154	0x3e93a27c	0.28834903
155	0xbd8160e0	-0.063173056
156	0x3b85d2f3	0.004083985
157	0x3de6929e	0.11258434
158	0xbdd8e72f	-0.1059097
159	0xbcd71cfa	-0.026258934
160	0xbccab8c9	-0.024746316
161	0x3bd43a70	0.006476693
162	0x3eb53424	0.35391343
163	0x3d56d8a0	0.052452683
164	0x3bd646f3	0.0065392195
165	0xbe638d8d	-0.22221966
166	0xbe051f70	-0.13000274
167	0x3de057d6	0.109542534
168	0x3dae5f7a	0.085143045
169	0x3d9007eb	0.0703276
170	0x3c9e2898	0.019306466
171	0xbda298c8	-0.07939297
172	0xbc9d0414	-0.019166984
173	0x3d9495f9	0.072551675
174	0x3db921ca	0.09039648
175	0x3e1a3b45	0.15061672
176	0xbab2d7bb	-0.0013644615
177	0xbec15fde	-0.37768453
178	0xbeb1f518	-0.34757304
179	0x3e4bcfb3	0.1990345
180	0xbba233af	-0.004950009
181	0xbe946476	-0.28982896
182	0x3dd66893	0.10469165
183	0xbe9e4cb1	-0.30917886
184	0x3dac04af	0.08399331
185	0x3e6e4f3c	0.23272413
186	0x3c8080df	0.01568645
187	0x3ea7b593	0.32755718
188	0xbe465f95	-0.19372399
189	0xbdb33c12	-0.08751692
190	0xbe26d6d1	-0.16292883
191	0x3e5c6ba3	0.21525435
192	0xbdf00e2e	-0.117214546
193	0x3dd47d4d	0.10375462
194	0x3e8155e6	0.25260848
195	0xbd3ab74a	-0.045584954
196	0xbd8dce2c	-0.0692409
197	0x3ae6577c	0.001757368
198	0xbdf88252	-0.121342316
199	0xbd8323e2	-0.064033285
200	0x3e0dd53c	0.13850874
201	0xbd6c9c6c	-0.057766363
202	0xbd50b963	-0.05095805
203	0x3d7581aa	0.05993811
204	0x3e8b9d42	0.27268416
205	0xbe6f940a	-0.23396316
206	0x3db1950f	0.08671009
207	0x3db3a7b5	0.08772222
208	0xbe088ed2	-0.13335732
209	0xbd0b0480	-0.03393984
210	0xbeb81967	-0.3595688
211	0x3e80c9e7	0.2515404
212	0x3dd29266	0.102818295
213	0x3d81a73a	0.06330724
214	0xbdb78e8d	-0.08962736
215	0xbdcc4eca	-0.09975965
216	0x3e30e3e8	0.1727444
217	0x3ce19dc5	0.02754105
218	0xbdc7777e	-0.09739588
219	0x3e12449f	0.1428399
220	0x3dd37fd8	0.10327119
221	0x3de33c67	0.11095505
222	0xbeb06d94	-0.344586
223	0xbd00bb50	-0.031428635
224	0xbdaca826	-0.08430509
225	0x3ddb1ae8	0.10698491
226	0xbe7d1993	-0.24716787
227	0xbddb52d4	-0.107091576
228	0x3e1f05eb	0.15529601
229	0xbd620c23	-0.055187356
230	0x3d9df3f3	0.07712545
231	0xbe073f84	-0.13207823
232	0xbd733e6a	-0.059385695
233	0x3e35057e	0.17677876
234	0xbd611394	-0.05495031
235	0xbe403e5a	-0.18773785
236	0xbe873f76	-0.26415604
237	0x3d4acf4a	0.049514093
238	0x3d065917	0.032799806
239	0xbe0f9f4f	-0.14025615
240	0x3d5fd03c	0.054641947
241	0xbca69932	-0.020336721
242	0xbc0ecc86	-0.008715754
243	0x3e0251a3	0.12726454
244	0xbe34345f	-0.17598103
245	0x3e6913b6	0.22761425
246	0xbc6707d9	-0.014100992
247	0x3e0e5330	0.13898921
248	0xbd1f8252	-0.038942643
249	0x3ec40461	0.3828459
250	0xbe78b7ef	-0.24288915
251	0x3ce26950	0.027638108
252	0x3e87bee3	0.26512823
253	0xbdefb4f3	-0.11704435
254	0xbda08ead	-0.07839713
255	0x3e57eaf4	0.21085721

network_body._body_endoder.seq_layers.0.bias f4 [256]
0	0x3c9dcb8b	0.019262096
1	0x3c8f16b4	0.01746688
2	0x3bb84b24	0.005624192
3	0x3d17c648	0.03705433
4	0x3b910968	0.00442617
5	0x3c889d29	0.016676502
6	0x3ca35cdb	0.019941738
7	0x3c394899	0.011308813
8	0xbc566b7e	-0.013087152
9	0x3aafd629	0.0013415265
10	0x3cedfd88	0.029051557
11	0x3c8ce89c	0.01720076
12	0xbd1cd1c0	-0.03828597
13	0x3c9b702d	0.018974388
14	0x3c0e6bb0	0.008692667
15	0xbc1190d0	-0.008884624
16	0x3c713750	0.01472266
17	0xbb2709be	-0.0025487985
18	0x3cf0bcd0	0.029386908
19	0x3a19c082	0.0005865173
20	0x3b40b26c	0.0029403223
21	0x3c68abf9	0.014201158
22	0x3d009070	0.031387746
23	0x3d4d85e6	0.050176524
24	0x3d823b94	0.0635902
25	0x3b5bdbf6	0.0033547855
26	0x3ccdc0b0	0.025116295
27	0x3c1a5b60	0.0094212
28	0x3cc868c5	0.02446402
29	0x3ca8f45e	0.020624336
30	0x3d177725	0.03697886
31	0xbc24cb4a	-0.0100582335
32	0x3c39b7a4	0.011335287
33	0x3bb6194e	0.005557216
34	0x3d454b79	0.04816768
35	0x3c5bedc4	0.013423387
36	0x3bf8c383	0.007591666
37	0x3ccf59da	0.0253114
38	0xbbb5d698	-0.005549263
39	0x3c01286c	0.0078831725
40	0x3d1c7ac5	0.03820302
41	0x3bc3c5a4	0.0059744883
42	0x3b722721	0.0036949592
43	0x3c0b960c	0.008519661
44	0x3c42bc00	0.011885643
45	0x3cc807d2	0.024417792
46	0xbbde2381	-0.0067791347
47	0x3bc0b040	0.0058803856
48	0x3b2f9830	0.0026793592
49	0xbc30460f	-0.010758891
50	0x3bcc1741	0.006228358
51	0x3cbcb1f6	0.023034077
52	0x3cd70c17	0.026250882
53	0xbb75e523	-0.003752061
54	0x3b8f4ba5	0.004373031
55	0xbb92c738	-0.004479315
56	0x3d407fd9	0.046996925
57	0xbb523d35	-0.003207994
58	0x3bb97ba4	0.005660491
59	0x3d7e6ab5	0.062113483
60	0x3be216e9	0.0068997038
61	0x3c73595f	0.014852851
62	0xbcc2d034	-0.02378092
63	0x3bd42f11	0.0064753373
64	0xba52aa0e	-0.00080362044
65	0x3c62ce37	0.013843111
66	0x3c1ecb0e	0.009691967
67	0x3cf31ac0	0.029675841
68	0x3ba8f1fa	0.005155799
69	0xbbabe04a	-0.005245243
70	0x3c450e97	0.012027404
71	0x3ca60300	0.020265102
72	0xbb1c9d76	-0.0023897565
73	0x3cc90889	0.024540203
74	0x3c9e7c84	0.019346483
75	0x3da72e3f	0.081631176
76	0xbc7338f7	-0.014845124
77	0x3d51efea	0.05125419
78	0xbc2e967c	-0.010655995
79	0x3d186787	0.037208106
80	0x3d4acadb	0.049509864
81	0x3c9586d6	0.018252771
82	0xb970e8fa	-0.00022974974
83	0x3b904d3f	0.0044037397
84	0x3c457b97	0.012053392
85	0x3c99059f	0.018679438
86	0x3d3b0e5c	0.04566799
87	0x3c152f61	0.009105534
88	0x3c38f792	0.011289494
89	0x3d43b633	0.04778118
90	0x3d34bff1	0.044128362
91	0x3c6c6b55	0.014429887
92	0x3d6735dd	0.056447852
93	0x3c65a1c8	0.014015622
94	0x3d73782f	0.059440788
95	0x3b9fb9d2	0.0048744464
96	0x3c9df9ba	0.019284118
97	0x3d2c2352	0.04202587
98	0x3bf0346f	0.0073304693
99	0xbc423416	-0.011853239
100	0xbcefc5f3	-0.029269194
101	0xbc86ed70	-0.01647064
102	0x3d64a8a0	0.055824876
103	0x3c6fedb4	0.014644075
104	0x3b5abad3	0.0033375516
105	0x3cb7dcf9	0.022444235
106	0x3cedfb89	0.029050605
107	0x3c519a3f	0.012793123
108	0xbbb7bf01	-0.0056074862
109	0x3d60dfe1	0.054901008
110	0x3ca0ecec	0.019644223
111	0x3d47f029	0.04881302
112	0x3d67c332	0.056582637
113	0x3aeb89d2	0.0017970151
114	0x3d43290e	0.047646575
115	0x3abda8de	0.0014469882
116	0x3c8e0e73	0.017340874
117	0x3b23c2ba	0.0024987892
118	0x3c62232a	0.013802329
119	0x3c88b15a	0.01668613
120	0x3c8c0b7e	0.017095324
121	0xbc86c38a	-0.016450662
122	0x3c06d1d3	0.008228737
123	0x3d00545b	0.031330448
124	0xbad07107	-0.0015902825
125	0x3d5cb5eb	0.053884428
126	0x3c7794d6	0.015111169
127	0x3bb3dce1	0.0054889773
128	0x3ce5e1ac	0.02806171
129	0x3c4be068	0.012443639
130	0x3c190fe3	0.009342167
131	0x3c8e4c3c	0.017370336
132	0x395c6bbe	0.00021020972
133	0x3c22c6a9	0.00993506
134	0x3cb59908	0.022167698
135	0x3bffae31	0.0078027477
136	0x3b8432ad	0.0040343613
137	0x3cd4eb91	0.025991233
138	0x3c987ac8	0.018613234
139	0xbc050e04	-0.008121017
140	0x3cd0b8d5	0.02547876
141	0x3d36b3b3	0.04460497
142	0x3cc2e24d	0.02378955
143	0x3c071fb8	0.008247308
144	0x3d69aab7	0.057047572
145	0x3bd759a9	0.0065719676
146	0x3d3d7c54	0.046261147
147	0xba90aba9	-0.0011037487
148	0xbc1cd401	-0.00957203
149	0xbb31f016	-0.002715116
150	0x3cdf4490	0.027254373
151	0x3c1f7f8a	0.0097349975
152	0x3d22edb4	0.039777473
153	0x3c91c152	0.017792378
154	0xbba49a86	-0.0050233034
155	0x3cc0617b	0.023483982
156	0x3cf57157	0.029961271
157	0xbb8e6a35	-0.004346157
158	0x3c1ae1a8	0.009453215
159	0x3ca38997	0.019963069
160	0x3cc9a613	0.024615323
161	0x3cee7bbc	0.029111736
162	0x3b9e63ee	0.00483369
163	0x3d634c73	0.05549283
164	0x3d71e908	0.059060127
165	0x3cdf6fe6	0.027275037
166	0xbc557dee	-0.013030512
167	0x3ce10622	0.027468745
168	0x3b530e63	0.003220462
169	0x3c033d1f	0.008010178
170	0x3d0cdec3	0.03439213
171	0xbaad7b1f	-0.0013235545
172	0x3c67840f	0.014130606
173	0xbc88530a	-0.016641159
174	0x3c13f559	0.009030663
175	0x3cc85f88	0.024459615
176	0x3d1c12ea	0.038103975
177	0x3c55b814	0.013044376
178	0xbc69f7ec	-0.014280301
179	0xbc63cf4b	-0.013904403
180	0x3cf8707b	0.030327072
181	0x3b167087	0.0022955255
182	0x3ac8a9ee	0.0015309432
183	0x39f77e41	0.00047205578
184	0x3d89fa99	0.06737251
185	0x3c520565	0.012818669
186	0xbb96b8c1	-0.004599661
187	0xbb6d65af	-0.0036223938
188	0x3d090ecd	0.03346138
189	0xba76350e	-0.0009392061
190	0x3cb77d05	0.022398481
191	0x3c88e2e2	0.016709749
192	0x3d067cba	0.032833792
193	0x3b478b1b	0.0030447904
194	0x3c074aae	0.008257551
195	0x3b7e734c	0.0038826047
196	0x3bd51a39	0.00650337
197	0x3ce1e3dc	0.027574472
198	0x3bc56381	0.0060238247
199	0xba57038f	-0.00082021294
200	0xbb95f13a	-0.0045758756
201	0x3d011b14	0.031519964
202	0x3cb37ef7	0.021911127
203	0xbae801c7	-0.0017700725
204	0x3a9c6677	0.0011932392
205	0x3d12e804	0.0358658
206	0x3d25c917	0.040474977
207	0x3c439fcc	0.011939954
208	0x3cc09786	0.023509752
209	0x3d3051bd	0.0430467
210	0x3ac4a9ba	0.0015004196
211	0x3ca9e150	0.02073732
212	0x3d04cd5f	0.03242242
213	0x3c36cac5	0.011156742
214	0x3d86763c	0.0656552
215	0xbc40ffaa	-0.011779705
216	0x3cc7c763	0.024387067
217	0x3c71afc8	0.014751382
218	0x3b1df082	0.0024099653
219	0x3cf059db	0.029339721
220	0xbc19c50f	-0.009385361
221	0x3c11af01	0.008891822
222	0xbcbc59a6	-0.022991966
223	0x3cfb3def	0.03066918
224	0x3b770d28	0.003769705
225	0x3d4894a1	0.04896987
226	0x3b0c8a62	0.0021444787
227	0xbb7f0228	-0.0038911197
228	0x3c2d5e3d	0.01058155
229	0xbc3df467	-0.011593915
230	0xbafc747e	-0.0019260792
231	0xbba49c25	-0.0050234967
232	0x3c35545b	0.011067475
233	0x3ca217b6	0.019786697
234	0x3d5ebbdd	0.05437838
235	0x3bebac5c	0.0071921777
236	0x3c8e4a25	0.01736934
237	0xbbdf0857	-0.006806414
238	0x3c8407ec	0.016117059
239	0x3cd58898	0.02606611
240	0x3d33edc1	0.04392791
241	0x3b072a5f	0.002062462
242	0x3b38d1be	0.0028201188
243	0x39e7fa17	0.00044246085
244	0x3a3a9e5a	0.0007118933
245	0x3b47779f	0.003043629
246	0xbba76502	-0.0051084766
247	0x3d105503	0.035237323
248	0x3c24b4e9	0.010052898
249	0x3c2aa586	0.01041544
250	0x3d56a80e	0.052406363
251	0x3c789ae1	0.015173645
252	0x3b8ec283	0.0043566837
253	0x3b04511b	0.0020189944
254	0x3cb07f18	0.021544978
255	0x3cca7f49	0.024718897

network_body._body_endoder.seq_layers.2.weight f4 [256, 256]
0	0x3d138fab	0.036025684
1	0xbd45ab33	-0.04825897
2	0x3d4f0945	0.05054595
3	0xbdc241cf	-0.09485208
4	0xbca0d2ca	-0.019631762
5	0xbdad69cb	-0.08467444
6	0xbd002442	-0.03128458
7	0xbd99192e	-0.07475506
8	0xbdddc9c9	-0.10829503
9	0xbd306f9a	-0.04307518
10	0x3dedbf26	0.11608724
11	0x3d99e991	0.075152524
12	0x3d68a073	0.05679364
13	0x3bb48b8d	0.0055098
14	0xbdde3183	-0.10849287
15	0x3dae6316	0.08514993
16	0x3de71a5b	0.11284324
17	0xbd79552c	-0.06087224
18	0x3dfc5e24	0.123226434
19	0xbaa569dd	-0.0012620051
20	0xbdab9c90	-0.08379471
21	0x3d221f9e	0.039580934
22	0xbcf2c720	-0.029635966
23	0x3d8d89d2	0.06911053
24	0x3c985778	0.018596396
25	0xbc8385d1	-0.01605502
26	0xbdf48846	-0.119400546
27	0xbd52fe76	-0.051512204
28	0x3d09c75b	0.033637386
29	0x3d515327	0.05110469
30	0xbe029225	-0.12751062
31	0xbd0ee65a	-0.03488765
32	0xbd9b8f09	-0.07595641
33	0x3e0f15bb	0.13973133
34	0x3c55a4a1	0.013039739
35	0x3ded0a8e	0.11574279
36	0x3d247033	0.040146064
37	0x3e034543	0.1281939
38	0xbd2c6308	-0.04208663
39	0xbcbb9105	-0.0228963
40	0xbe35e3fc	-0.1776275
41	0x3c940fed	0.018074
42	0x3d842615	0.06452576
43	0xbd82bd6f	-0.06383788
44	0xbd48ef73	-0.04905648
45	0x3cf9ad05	0.03047801
46	0x3cb989e4	0.02264876
47	0x3d84e9a1	0.06489874
48	0xbc9da066	-0.019241523
49	0xbba10a1a	-0.0049145343
50	0x3e5498b1	0.20761372
51	0xbdbed77a	-0.09318443
52	0x3cc0b702	0.023524765
53	0x3dad5257	0.08462971
54	0xbd310bac	-0.04322402
55	0x3c40675c	0.011743393
56	0x3c80e18d	0.015732551
57	0xbde5e581	-0.11225415
58	0xbd8d6efb	-0.069059335
59	0x3d78e583	0.060765754
60	0xbd08fae1	-0.03344238
61	0xbd4223ae	-0.047397308
62	0x3d13122c	0.035906002
63	0x3e328e32	0.17437056
64	0xbc8dcda6	-0.017309975
65	0x3d19381b	0.037407022
66	0x3cb313e5	0.021860072
67	0x3c48d917	0.0122587895
68	0xbd1a9eb2	-0.037749
69	0x3d9c9bca	0.07646902
70	0xbde67fcc	-0.11254844
71	0x3dc16c7b	0.09444519
72	0xbc8d82a7	-0.017274214
73	0x3dc0dd85	0.094172515
74	0xbc275b78	-0.010214679
75	0xbd6d9d2c	-0.05801122
76	0x3d1773e2	0.03697575
77	0xbd5f6fa3	-0.054549824
78	0x3c8f073b	0.017459502
79	0x3d5ce07a	0.053925015
80	0xbd5522e0	-0.052035213
81	0x3d99e0a5	0.07513551
82	0xbdf20926	-0.11818151
83	0x3dc7e6e7	0.09760838
84	0x3e03abd7	0.1285852
85	0xbd0f72f8	-0.035021752
86	0x3d5fbe20	0.054624677
87	0xbdeeb7dc	-0.11656162
88	0x3c821441	0.015878798
89	0xbc39c46f	-0.011338337
90	0x3e02c830	0.12771678
91	0xbbf7fd9f	-0.007568076
92	0xbcf8c509	-0.030367391
93	0xbd07ed0e	-0.033185057
94	0xbd692dfd	-0.056928623
95	0xbdd08299	-0.101811595
96	0x3c72447b	0.014786835
97	0x3e097715	0.13424332
98	0x3c87ade9	0.016562419
99	0x3b83c3b8	0.004021134
100	0xbdae2449	-0.085030146
101	0xbd6187a9	-0.055061016
102	0xbc8e6591	-0.017382415
103	0x3daae498	0.08344382
104	0x3d574e0f	0.052564677
105	0xbc8ecfa5	-0.017432997
106	0x3d2b59eb	0.0418338
107	0xbe7ed802	-0.24887088
108	0x3df99a1a	0.12187596
109	0xbcd7f900	-0.02636385
110	0x3bbd3561	0.0057741855
111	0x3d86a098	0.065735996
112	0x3cc176fb	0.023616305
113	0x3a303b6e	0.0006722723
114	0x3e28dd25	0.1649061
115	0xbd928a7a	-0.071553186
116	0x3c905376	0.017617922
117	0xbc88bd2e	-0.01669177
118	0xbd14c556	-0.036321007
119	0xbba2bb1d	-0.0049661533
120	0x3c816f8d	0.015800262
121	0x3df67e2d	0.12035785
122	0xbbbbb92d	-0.005728862
123	0xbd91b1c5	-0.07113985
124	0x3e10ecd0	0.14152837
125	0x3e02d2aa	0.12775674
126	0xbd0b31de	-0.033983104
127	0x3b835b69	0.0040086997
128	0x3d24b0c1	0.04020763
129	0xbd11adae	-0.035566024
130	0x3d59b02b	0.053146522
131	0x3e6c4d9c	0.2307648
132	0x3dca5d56	0.09881084
133	0x3d46770f	0.048453387
134	0x3d3a3d27	0.045468476
135	0xbbed3ebb	-0.007240144
136	0x3dafcec1	0.08584357
137	0x3c78a049	0.015174934
138	0x3b1a6cd0	0.0023563392
139	0xbd3222df	-0.043490287
140	0xbdf384dd	-0.11890576
141	0xbd9c5420	-0.07633233
142	0xbab5c2bc	-0.001386724
143	0xbc7aafd0	-0.015300706
144	0xbd0e1226	-0.034685276
145	0x3d4e0b68	0.050303847
146	0xbd3552ae	-0.044268303
147	0x3d04a2d7	0.03238186
148	0xbda503db	-0.08057376
149	0x3c9cfb91	0.019162925
150	0xbc8db500	-0.017298222
151	0x3b8b54a4	0.0042520333
152	0x3e04e6b4	0.12978631
153	0x3cdaf20c	0.026726745
154	0xbccbc659	-0.024874853
155	0x3d04c337	0.032412734
156	0xbc9dbc9c	-0.019254975
157	0xbda95448	-0.082680285
158	0xbd466e45	-0.048445005
159	0xbdcdbb18	-0.10045451
160	0xbe306ea5	-0.17229708
161	0x3e08dcda	0.13365498
162	0x3ceb5907	0.028728975
163	0xbd56bcef	-0.052426275
164	0xbc1193db	-0.008885349
165	0x3c816bd1	0.015798481
166	0x3d965a36	0.07341425
167	0xbb1446d8	-0.0022625234
168	0x3d656707	0.056006458
169	0x3c37b2e1	0.011212082
170	0x3d3fd416	0.04683312
171	0xbcc1121a	-0.023568202
172	0xbdfbb85b	-0.122910224
173	0xbc626810	-0.013818756
174	0xbcbc006f	-0.022949426
175	0x3cbadc51	0.022810133
176	0x3ca46d86	0.020071756
177	0xbd48140f	-0.048847254
178	0x3c6e5add	0.014548031
179	0x3d4f9627	0.050680306
180	0xbc39a962	-0.011331888
181	0xbe106210	-0.14099908
182	0x3dc4cb72	0.096091166
183	0x3d02c30c	0.031924292
184	0x3cdba42b	0.02681168
185	0xbc93339e	-0.017968949
186	0xbe68c6ef	-0.22732137
187	0x3d771385	0.06032135
188	0x3c81f6a1	0.015864672
189	0xbc31a95a	-0.010843599
190	0x3ca93477	0.0206549
191	0x3df75994	0.120776325
192	0x3c7bae37	0.01536136
193	0x3d70cc43	0.05878855
194	0x3cc2247b	0.023699036
195	0xbaf75f4b	-0.0018873004
196	0x3d00708f	0.031357344
197	0x3d1c0104	0.038086906
198	0xbce0422e	-0.027375307
199	0x3c4da312	0.012551086
200	0xbc1a3ec5	-0.0094143795
201	0x3c4e60f3	0.012596357
202	0xbdc5bbf2	-0.09654988
203	0x3c5d8c83	0.01352227
204	0x3cd9ca9f	0.026585875
205	0xbdef56e5	-0.11686496
206	0x3c57943f	0.013157903
207	0x3d5dde52	0.0541671
208	0x3d53240e	0.051548056
209	0xbd624d61	-0.055249576
210	0xbde6e5e2	-0.112743154
211	0xbe0cd0c4	-0.13751513
212	0xbc9bb861	-0.019008817
213	0xbca71133	-0.020393943
214	0xbda2cb43	-0.07948925
215	0xbd9ab7e0	-0.075546026
216	0x3d210767	0.0393137
217	0x3d48e288	0.049044162
218	0x3a9ea20c	0.0012102737
219	0x3d7077d0	0.058708012
220	0xbe012613	-0.1261218
221	0xbc17ab9c	-0.009257223
222	0x3ceabc32	0.028654192
223	0xba4a76b8	-0.0007723379
224	0x3d0b14e3	0.033955466
225	0xbd00d20b	-0.031450313
226	0xbd9a1eba	-0.07525392
227	0xbdacf616	-0.08445375
228	0x3991c08b	0.0002780001
229	0x3ca2716c	0.019829474
230	0xbd4300fb	-0.047608357
231	0xb97e5227	-0.00024253932
232	0x3cd9c97c	0.026585333
233	0x3d709792	0.0587383
234	0x3daefa93	0.08543887
235	0xbdc3e365	-0.095648564
236	0x3d80ff20	0.06298661
237	0xbe1f1608	-0.15535748
238	0x3d17f35d	0.037097324
239	0x3d802752	0.062575
240	0x3cf5e944	0.030018456
241	0x3d14820f	0.036256846
242	0xbd0553dc	-0.032550678
243	0xbc88c085	-0.016693363
244	0xbcb34e50	-0.021887928
245	0xbde93340	-0.11386728
246	0xbc8f1fc0	-0.017471194
247	0x3d3679ee	0.044549875
248	0x3d4749b0	0.04865426
249	0xbc897f3e	-0.016784307
250	0x3d9c71fd	0.07638929
251	0xba91e150	-0.001112977
252	0x3d815466	0.06314926
253	0xbdaec96c	-0.08534512
254	0x3c9489a3	0.018132037
255	0x3df7e6de	0.12104581

network_body._body_endoder.seq_layers.2.bias f4 [256]
0	0x3c68f771	0.014219151
1	0x3cee63da	0.029100347
2	0x39811c90	0.00024626078
3	0x3cac6392	0.021043573
4	0x3cf517fc	0.029918663
5	0xbbe7def6	-0.0070761396
6	0x3c15fe3e	0.009154854
7	0x3d00bc83	0.03142978
8	0x3cdb021e	0.026734408
9	0xbc3b0322	-0.011414321
10	0xbc32e757	-0.0109194135
11	0x3ca34b5f	0.0199334
12	0x3cb68490	0.022280008
13	0x3c7058a3	0.01466957
14	0x3c196a22	0.009363683
15	0x3bd2e277	0.006435688
16	0x3c730aae	0.014834089
17	0x3ba2ebe3	0.0049719675
18	0x3c75ec7f	0.015009998
19	0x3c486ca6	0.012232935
20	0x3cbb0cf7	0.02283333
21	0x3bf80a9f	0.0075696255
22	0x3cd3190b	0.025768777
23	0x3cd9a223	0.02656657
24	0xbb927168	-0.0044690855
25	0x3c5897d8	0.013219796
26	0xbc28d7e2	-0.010305377
27	0x3c51e9e2	0.01281211
28	0x3c411578	0.011784904
29	0xbb346f47	-0.0027532147
30	0xbb472063	-0.0030384294
31	0xbc3853b1	-0.011250422
32	0x3cbb0009	0.022827165
33	0x3d0c527d	0.034258354
34	0x3cf72aa1	0.030171694
35	0xbb008564	-0.0019610757
36	0x3b8af1d6	0.004240255
37	0x3b3961d2	0.0028287065
38	0x3bb08b8d	0.0053877295
39	0x3cc27828	0.023738936
40	0x3bd38673	0.0064552366
41	0x3ce28d00	0.027655125
42	0x3c20b79b	0.0098094
43	0xbc74fd16	-0.0149529185
44	0x3b3a887f	0.0028462706
45	0x3cb0b03e	0.021568414
46	0x3ccb92a6	0.0248502
47	0x3b233724	0.0024904693
48	0x3b1782f5	0.0023118828
49	0xbb5edbfe	-0.0034005637
50	0xbc4523a5	-0.012032424
51	0x3c5204f3	0.012818563
52	0x3c6b1a7b	0.014349575
53	0xbb01d32c	-0.0019809706
54	0xbafaad69	-0.0019125167
55	0xbc26183f	-0.010137617
56	0x3c7945c9	0.015214392
57	0xbcae73e2	-0.021295492
58	0x3be701ac	0.00704976
59	0x3cbfadbb	0.02339827
60	0x3cdbbbe3	0.02682299
61	0xbc871839	-0.016491042
62	0x3c03c1b7	0.008041791
63	0x3cb9fb85	0.022702942
64	0x3cf81986	0.030285608
65	0x3b3bb949	0.0028644374
66	0x3cfb3f02	0.030669693
67	0x3cb2c139	0.021820651
68	0x3ce5a035	0.028030494
69	0xbb75df30	-0.0037517063
70	0x3c2576b4	0.010099102
71	0xbc485513	-0.0122273145
72	0x3c8f91e9	0.01752563
73	0xbb7a6b92	-0.003821109
74	0x3c8f81e7	0.017517997
75	0x3c2fd196	0.0107311215
76	0xbb2cc202	-0.0026360755
77	0x3bbbc85f	0.005730673
78	0x3c8dbd46	0.017302167
79	0xbba45ba3	-0.0050158068
80	0xbbe7c678	-0.00707322
81	0x3c6c01f2	0.014404761
82	0xbb5df631	-0.0033868665
83	0xbb09457e	-0.0020945962
84	0xbba4c0f7	-0.005027886
85	0xba717ab0	-0.0009211702
86	0x3cf0445a	0.029329468
87	0x3c89db0c	0.016828083
88	0x3ca99b5a	0.02070396
89	0xbbd51b24	-0.0065034796
90	0xbc2df4dc	-0.010617461
91	0x3ca72bf4	0.0204067
92	0xbbcf86b2	-0.0063331956
93	0xbacab0ac	-0.0015464029
94	0xbb79d6c2	-0.003812239
95	0x3bc306a7	0.0059517208
96	0x3ca4037d	0.020021195
97	0x3c1765ff	0.009240626
98	0x3cfc86af	0.03082594
99	0xbc1f6a6f	-0.009729966
100	0x3c325cca	0.01088638
101	0x3ca8d77c	0.020610563
102	0x3c84bd5f	0.01620358
103	0x3b8dcafa	0.004327175
104	0x3c99f616	0.0187941
105	0xbb2ba024	-0.002618798
106	0xbbd37ad6	-0.006453852
107	0xbbf65e9e	-0.0075186035
108	0x3c88e85e	0.016712364
109	0xbbe14e3e	-0.0068757823
110	0x3a4fe9b8	0.000793125
111	0xbc8c83cf	-0.017152695
112	0x3b8f11f4	0.004366154
113	0x3cb39c6b	0.021925172
114	0x3ba37ee8	0.0049894936
115	0x3d1167ad	0.035499264
116	0x3b2230e1	0.0024748372
117	0x3d029bc7	0.031886842
118	0xbb10deaa	-0.0022105374
119	0xbaf80278	-0.0018921634
120	0x3c1bc993	0.009508508
121	0xbbae19ae	-0.00531312
122	0x3cc93879	0.024563061
123	0x3c4d6722	0.012536796
124	0x3c88401e	0.016632136
125	0x3c8a0c43	0.01685155
126	0x3c9c39ce	0.019070532
127	0x3cb0c5cb	0.02157869
128	0x3d2220d5	0.039582092
129	0x3d1abaf2	0.03777594
130	0x3d262447	0.04056194
131	0x3c649cb0	0.013953373
132	0x3c2f89d8	0.010714017
133	0x3b9b6c76	0.004743154
134	0xbb2bd847	-0.002622144
135	0x3cc60f47	0.024177207
136	0x3c594894	0.013261933
137	0x3ce60d32	0.028082464
138	0x3c6c9773	0.014440405
139	0x3ced4dcd	0.028967762
140	0x3baf1dcd	0.0053441287
141	0x3c9ab3c2	0.018884543
142	0x3b729ed7	0.0037020945
143	0xbb11c952	-0.002224524
144	0xbb65c111	-0.0035057703
145	0x3c7a0491	0.015259878
146	0x3cd80891	0.026371272
147	0xbb8234d2	-0.003973582
148	0x3c32858e	0.0108961
149	0x3a907abc	0.0011022906
150	0xb980c314	-0.00024559407
151	0x3c87ca0d	0.016575838
152	0xbc1780e9	-0.009247043
153	0x3c09f03f	0.008419096
154	0xbc165c05	-0.009177213
155	0x3c0db067	0.008648015
156	0x3c89b68e	0.016810682
157	0xbaae5c5a	-0.0013302669
158	0x3c0d62b9	0.008629494
159	0xbc6e626c	-0.014549833
160	0x3bf20761	0.0073861335
161	0x3cca23aa	0.02467521
162	0xbbdcadf3	-0.0067346036
163	0xbc400ddb	-0.011722053
164	0x3c245850	0.010030821
165	0x3c33b0f8	0.010967486
166	0x3c472d32	0.0121567715
167	0x3c6db11b	0.014507557
168	0x3c34e42a	0.011040727
169	0xbae88b1d	-0.0017741654
170	0xbb6a5d0a	-0.0035761022
171	0x3b5c0e14	0.0033577727
172	0x3cba9c18	0.02277951
173	0xbb8a1115	-0.004213462
174	0x3b1621f0	0.0022908412
175	0x3ca2f381	0.019891502
176	0xb9b6c240	-0.00034858473
177	0x3b923366	0.0044616936
178	0xba46e11b	-0.0007586644
179	0xbb7f19e8	-0.0038925353
180	0x3d2422ff	0.040072437
181	0x3b2fce3c	0.0026825806
182	0x3b826151	0.003978886
183	0x3c59dbba	0.013297016
184	0x3c9f146e	0.019418921
185	0xbb3908bc	-0.0028233966
186	0xbb9d58bf	-0.004801839
187	0x3d31d2d2	0.043413945
188	0x3b3f20b6	0.0029163784
189	0x3bbe872b	0.005814453
190	0x3b694303	0.003559292
191	0xbaf4c793	-0.00186752
192	0x3c9c68cf	0.019092945
193	0x3c8cd35e	0.017190631
194	0xbc49020c	-0.012268554
195	0x3c9940a2	0.018707577
196	0x3b3deb60	0.0028979406
197	0x3b3493c8	0.0027553905
198	0xbb72cb48	-0.0037047435
199	0x3ced205e	0.028946098
200	0x3cc32853	0.023822939
201	0x3c1c02dd	0.009522167
202	0x3c84e788	0.016223684
203	0x3c9d3cea	0.019194085
204	0x3c6584a1	0.014008672
205	0x3aa5999f	0.0012634284
206	0x3c33670b	0.01094986
207	0x3cdecb69	0.027196603
208	0xbc445d0d	-0.011985076
209	0x3c65f884	0.0140363015
210	0x3c84030b	0.016114732
211	0x3c39b3ea	0.011334399
212	0x3cf0eef2	0.029410813
213	0x3b88b394	0.004171798
214	0xbc7296e2	-0.014806481
215	0x3c390537	0.011292747
216	0x3ce3ca14	0.02780632
217	0x3bab7ed0	0.005233623
218	0x3d1a755d	0.037709583
219	0x3c2e3b37	0.010634235
220	0x3c6c8772	0.01443659
221	0xbc18153e	-0.009282408
222	0xbc811b53	-0.0157601
223	0x3d038afc	0.032114968
224	0xb9f8eb03	-0.00047477343
225	0x3d029997	0.031884756
226	0x3bfc36d5	0.007696966
227	0x3bc7b5f4	0.0060946885
228	0x3b9a638d	0.0047115744
229	0x3bb1f504	0.0054308195
230	0x3b4b70e5	0.0031042632
231	0x3c9118b9	0.017711984
232	0x3cf0c59a	0.029391099
233	0xbc7e9ade	-0.015539853
234	0x3cb5227a	0.022111166
235	0x3c928a95	0.017888347
236	0x3c5528b4	0.013010193
237	0x3c025164	0.007953975
238	0x3c96816c	0.01837226
239	0x3c065784	0.008199576
240	0x3ca4b577	0.02010606
241	0x3c15d90c	0.009145986
242	0x3c5a562f	0.013326212
243	0x3bf06dfd	0.0073373304
244	0x3c836bff	0.016042707
245	0xbc09bea8	-0.008407272
246	0x3ccd4102	0.025055412
247	0x3bb3580c	0.0054731425
248	0xbbe659d6	-0.0070297522
249	0x3bca69c4	0.006177159
250	0xbb84366d	-0.0040348084
251	0x3c68eafc	0.014216181
252	0x3bb8f0ad	0.005643925
253	0x3d20121a	0.039079763
254	0x3cccc3cf	0.024995713
255	0xba39d6ad	-0.0007089179

action_model._continuous_distribution.log_sigma f4 [1, 5]
0	0xbe2e32f0	-0.17011619
1	0xbe0a647d	-0.13514896
2	0xbe3aa6ed	-0.1822774
3	0xbc4d8bb8	-0.012545519
4	0xbd634a43	-0.055490743

action_model._continuous_distribution.mu.weight f4 [5, 256]
0	0xbcf8db5c	-0.030378036
1	0x3c9b7a10	0.018979102
2	0xbbecbed3	-0.0072248965
3	0xbcb7d62b	-0.02244099
4	0x3cf45896	0.029827397
5	0x3c7e5d57	0.015525184
6	0xbd88e6c0	-0.06684637
7	0x3cf550c6	0.029945742
8	0x3d652a67	0.05594864
9	0xbc0f91b6	-0.008762768
10	0xbd7754c6	-0.06038358
11	0xbcd4d148	-0.0259787
12	0xbbcedd11	-0.0063129743
13	0xbd56abcc	-0.052409932
14	0x3ad2c69a	0.0016080916
15	0xbd183679	-0.037161324
16	0xbc1e459d	-0.009660152
17	0xbcb65574	-0.022257544
18	0xbbbbbbf3	-0.0057291924
19	0x3ade8d50	0.001697937
20	0x3b17864f	0.0023120826
21	0x3d28a9a7	0.041177418
22	0x3d6c998c	0.05776362
23	0xbb99ba38	-0.0046913885
24	0xbb828f91	-0.0039843996
25	0xbcac8af8	-0.02106236
26	0x3bc924d7	0.006138425
27	0xbd5ce99d	-0.05393373
28	0x3d32c00f	0.043640193
29	0xbc041353	-0.008061248
30	0x3c83d2ae	0.01609167
31	0x3d64a4c0	0.05582118
32	0xbceb1b5a	-0.028699566
33	0x3d71903b	0.05897544
34	0x3c7e41ee	0.015518649
35	0xbb2b61f8	-0.0026150923
36	0x3d00ef02	0.031477936
37	0xbd20d400	-0.03926468
38	0xbdbe2048	-0.09283501
39	0x3c448c3f	0.011996328
40	0xbc7f53c5	-0.015583937
41	0x3b9004e8	0.004395116
42	0x3c2d4a85	0.010576849
43	0x3bbdd097	0.005792688
44	0x3cf9b005	0.03047944
45	0x3d2c8cbd	0.042126406
46	0xbc7a72f7	-0.015286199
47	0x3c9777f6	0.018489819
48	0xbc2fc8ff	-0.010729074
49	0xbce5feac	-0.028075539
50	0x3cc3a316	0.023881476
51	0x3d378b04	0.04481031
52	0xbbf6115a	-0.0075093927
53	0x3d6284ce	0.055302434
54	0x3d22e305	0.039767284
55	0xbb3ec357	-0.002910813
56	0xbd0933c3	-0.03349663
57	0xbc4a233e	-0.012337504
58	0xbcb921be	-0.022599097
59	0x3d3e923f	0.04652619
60	0x3ce9540a	0.028482456
61	0xbc81f8f3	-0.015865779
62	0xbcedf8e6	-0.029049348
63	0xbd88d03d	-0.06680343
64	0x3c1b3a10	0.009474292
65	0x3d425f57	0.047454204
66	0x3dab3ddb	0.08361407
67	0xbc7f61ee	-0.015587313
68	0x3c826272	0.015916083
69	0xbc907e51	-0.017638357
70	0xbcac2bca	-0.021016974
71	0xbd3030d4	-0.043015316
72	0xbcaa5736	-0.020793539
73	0x3c99bb06	0.018765938
74	0x3d8a0326	0.06738882
75	0xbd35650c	-0.04428582
76	0xbc6d1d3c	-0.014472302
77	0x3cc5a9f9	0.0241289
78	0xbd94419f	-0.07239079
79	0xbce371d2	-0.027764235
80	0x3c2b11ed	0.010441286
81	0xbc529eea	-0.012855271
82	0x3d412503	0.047154438
83	0xbd77f7d8	-0.060539097
84	0xbc8b99ac	-0.01704105
85	0xbd4014d5	-0.046894867
86	0xbd8ecce3	-0.06972673
87	0xbd16a57a	-0.036778904
88	0xbc2d1be1	-0.010565729
89	0xbbf52280	-0.0074809194
90	0x3c583675	0.013196577
91	0xbc390b0d	-0.011294139
92	0x3c6926dd	0.014230457
93	0xbcddcbd6	-0.027074736
94	0xbcb8e5a2	-0.022570435
95	0x3ca00245	0.019532332
96	0xbca9803b	-0.020691028
97	0xbd64b05d	-0.055832256
98	0x3c18b54c	0.009320568
99	0xbca1e218	-0.01976113
100	0xbb1596cb	-0.0022825475
101	0x3d03d0f0	0.03218168
102	0xbb37a389	-0.0028021059
103	0xbc80ec8b	-0.015737792
104	0xbb1f96e7	-0.002435142
105	0x3aec79fd	0.0018041726
106	0xbdad8054	-0.08471742
107	0xbd617bde	-0.05504977
108	0xbb4b3eb5	-0.0031012718
109	0x3cd26eb3	0.025687551
110	0x3d8bd441	0.068275936
111	0x3ac3d891	0.0014941861
112	0x3d9b9561	0.07596851
113	0xbd5858ff	-0.05281925
114	0xbd96f192	-0.07370295
115	0xbcd349fe	-0.025792118
116	0x3cc789c6	0.024357688
117	0xbc9b50a5	-0.018959353
118	0xbc48615b	-0.012230243
119	0x3c485717	0.012227795
120	0xbda5b09b	-0.080903254
121	0x3d228628	0.039678723
122	0x3d1e24b6	0.03860923
123	0xbcd7f48c	-0.026361726
124	0xbdb8405b	-0.0899665
125	0xbc8ff59d	-0.017573172
126	0xbd9416da	-0.07230921
127	0x3d836abd	0.06416843
128	0x3c60ead7	0.013727865
129	0x3c7a4b6a	0.015276769
130	0xb9f8d208	-0.00047458732
131	0xbd4f919b	-0.05067597
132	0x3cd688c4	0.026188262
133	0xbcf940b9	-0.03042637
134	0x3ca7b8b0	0.020473808
135	0x3d9ffeef	0.078122966
136	0x3cbaaa11	0.022786172
137	0xbd26ce55	-0.040724117
138	0x3da990c1	0.08279563
139	0xbc23f512	-0.01000716
140	0xbc8e490c	-0.017368816
141	0x3c101e71	0.00879632
142	0x3c32bd51	0.010909394
143	0x3d9539ac	0.07286391
144	0x3d19884d	0.037483502
145	0xbba39019	-0.004991543
146	0x3d9561a1	0.07294012
147	0x3c041daf	0.008063718
148	0xbce5ec23	-0.0280667
149	0x3d1355ee	0.03597062
150	0xbcb7468d	-0.022372508
151	0x3c695c0b	0.014243136
152	0xbc2903f6	-0.010315886
153	0xbdccad16	-0.09993951
154	0xbd5536fb	-0.052054387
155	0x3c2d67e9	0.010583856
156	0xbcfbea6a	-0.030751426
157	0xbd44877f	-0.04798078
158	0x3c5aa095	0.01334395
159	0x3d03ce35	0.032179076
160	0xbcc707c4	-0.024295695
161	0x3ce129e9	0.027485805
162	0x3a62b127	0.00086476136
163	0xbc175104	-0.009235624
164	0xbd91a866	-0.071121976
165	0x3c7b6ac7	0.015345282
166	0x3cf3b451	0.029749068
167	0xbd5ed798	-0.054404825
168	0x3cc125ac	0.023577534
169	0xbbfed3bf	-0.007776707
170	0x3cb62074	0.022232272
171	0xbbc62ac1	-0.006047577
172	0x3c11d86b	0.008901696
173	0xbd125718	-0.03572759
174	0x3c9c7bea	0.019102056
175	0x3cf00015	0.029296914
176	0x3d3b4635	0.04572125
177	0x3d96c488	0.07361704
178	0x3d982a46	0.07429938
179	0x3d083cb5	0.03326102
180	0xbd0b33d1	-0.033984963
181	0xbcf19b27	-0.029492928
182	0xbd5b6e7f	-0.053572174
183	0xbb169a39	-0.0022980107
184	0x3b1af103	0.002364219
185	0x3d907f72	0.07055558
186	0x3d1a1765	0.037619967
187	0x3d434c76	0.04768034
188	0x3db10040	0.08642626
189	0xbd1fe955	-0.039040882
190	0x3bf27a76	0.0073998524
191	0x3ca935d8	0.020655558
192	0x3d64bc8a	0.055843867
193	0xbcf01a07	-0.029309286
194	0xbd15570e	-0.036459975
195	0x3d28ff8c	0.041259333
196	0xbd6eb681	-0.058279518
197	0xbd0bf334	-0.034167483
198	0xbd8581f4	-0.06518927
199	0x3cc89141	0.024483325
200	0x3c8228a7	0.015888525
201	0xbd3c1eec	-0.045927927
202	0xbd285996	-0.04110106
203	0x3d828771	0.0637349
204	0x3d77aceb	0.06046764
205	0xbd9d895a	-0.07692213
206	0xbaed57d2	-0.0018107838
207	0x3cf75d5d	0.030195886
208	0xbd3d0742	-0.0461495
209	0x3c0f730b	0.008755456
210	0x3daf3f57	0.08557003
211	0x3d2acd8e	0.04169994
212	0x3cb039ac	0.021511875
213	0x3d38961b	0.045065027
214	0x3cfccda9	0.030859785
215	0x3d642886	0.05570271
216	0x3c741f9b	0.014900113
217	0x3d6e1f0f	0.05813509
218	0xbbe814a0	-0.007082537
219	0x3ce41fa2	0.027847115
220	0xbd1789ff	-0.036996838
221	0x3d152444	0.03641154
222	0x3ca08f0d	0.019599462
223	0xbca70ca8	-0.020391777
224	0x3d5fb337	0.054614272
225	0x3cb07e33	0.021544551
226	0xbc2cf8be	-0.010557352
227	0xbb43243b	-0.0029776234
228	0x3c53b896	0.012922427
229	0xbd56f981	-0.05248404
230	0x3c828d3d	0.015936488
231	0x3d024f68	0.03181401
232	0x3c6fbb7e	0.014632104
233	0xbd00c571	-0.031438295
234	0x3d185671	0.037191812
235	0xbd7a82cd	-0.061159898
236	0xbd64faf0	-0.055903375
237	0xbda0b41d	-0.07846854
238	0xbd62c9d3	-0.055368256
239	0xbcf05983	-0.029339558
240	0xbbc39a22	-0.005969302
241	0xbca11f51	-0.019668253
242	0xbcb185f0	-0.021670312
243	0xbcbd1f47	-0.023086203
244	0x3aac46bc	0.0013143639
245	0xbd0b2405	-0.033969898
246	0x3ccd2f1f	0.025046883
247	0xbd8fa610	-0.07014096
248	0xbd8f10f2	-0.06985654
249	0xb98a8e22	-0.00026427308
250	0xbd6b0523	-0.057377946
251	0xbdc95efc	-0.0983257
252	0xbb2810c1	-0.0025644752
253	0x3cca6b4b	0.024709364
254	0xbc8b330d	-0.016992116
255	0x3db701ba	0.08935876

action_model._continuous_distribution.mu.bias f4 [5]
0	0x3b00e2fd	0.0019666546
1	0x3cb09caa	0.021559078
2	0xbb271a8c	-0.0025498
3	0x3c472d47	0.012156791
4	0xbbcd2daa	-0.006261547
