config/results/hb_01/Hummingbird/Hummingbird-3999936.onnx (onnx, 318566 bytes, 7 tensors)

network_body._body_endoder.seq_layers.0.weight f4 [256, 46]
000000 a1 99 1b be 52 15 1e 3e 25 4f 0d 3e 46 97 3b be
       -0.15195324 0.1543782 0.13799722 -0.18319425
000010 e9 9f 13 be 42 2e 9b 3e e0 f1 08 be 65 a9 e3 bd
       -0.1441647 0.3030873 -0.13373518 -0.11116294
000020 31 9b 55 3e 57 b6 5c bd 95 c4 74 3d e9 dc 49 3e
       0.20859982 -0.05388483 0.059757788 0.19713177
000030 be 60 0e 3d 75 b8 af 3d 6b 85 50 be 8d 23 ae bd
       0.03476023 0.08580104 -0.20363395 -0.085028745
000040 a2 f1 d7 bd 8a 51 ab 3c 9e bd 33 be 2d 7e 74 3e
       -0.10544135 0.020912904 -0.17552802 0.23876257
000050 aa 45 4f 3b 32 1f 68 be e2 fc 15 bd df 6c 76 bd
       0.0031627216 -0.2266815 -0.03661812 -0.06016242
000060 5e 99 36 bd 0c 00 6a bb 36 8b 79 3e cb 8b d8 bc
       -0.044579856 -0.0035705594 0.24369511 -0.026433846
000070 7b ef 09 3e 30 3d 08 3e db 7d 27 3e 28 07 36 be
       0.13470261 0.13304591 0.16356604 -0.17776167
000080 5d 1f c5 bd 0e 62 82 3e f3 70 5e 3e a5 e5 aa 3d
       -0.09625123 0.25465435 0.21722774 0.083445825
000090 ca b0 c2 3c 57 d1 89 3e aa 18 58 bd d8 68 1d 3c
       0.02376594 0.26917526 -0.052757896 0.009607516
0000a0 3c ab d4 3e cc 4c 50 bd f5 61 13 bd f2 67 65 be
       0.4153689 -0.05085449 -0.03598209 -0.22402933
0000b0 c8 de 43 3d a5 2a df be 42 ac 80 3e 72 9c 97 3d
       0.047819883 -0.43587223 0.25131422 0.074028865
0000c0 87 73 c8 bd c4 3b ba bd 82 a7 f8 3d 7c 92 5a bd
       -0.0978766 -0.09093431 0.121413246 -0.053362355
0000d0 b8 34 c5 bd e7 d9 0c 3e 06 37 62 be ee 5d 61 bc
       -0.09629196 0.13754998 -0.22091302 -0.013755305
0000e0 e0 dc 2e be 9b 21 09 3d e8 3b 20 be d1 84 be 3d
       -0.17076445 0.033479314 -0.15647852 0.093026765
0000f0 98 89 3f be 12 83 68 be 7d 63 5e be 0f a3 9f be
       -0.18704832 -0.2270625 -0.2171764 -0.3117909
000100 d3 c7 ea 3d 69 e7 41 be 18 3b 64 bd 0a 5c ab 3e
       0.11463895 -0.18935932 -0.05572042 0.33468658
000110 c7 bc b3 3d ba d2 c3 3d ff dc 55 3d 44 33 f2 3d
       0.08776241 0.09561677 0.05221271 0.118261844
000120 0a eb 11 3e a3 d5 a9 bb ee 8f 1b be 58 8d 52 3e
       0.14249817 -0.005182938 -0.15191624 0.20561731
000130 87 1d b7 3d 14 7e a2 bd 48 f1 e3 3d 5e b8 19 bd
       0.08941179 -0.07934204 0.11130005 -0.037529342
000140 b0 0a c8 3d 04 90 8d 3d dc 21 4e be 34 fa dc 3a
       0.097676635 0.069122344 -0.20130104 0.0016859234
000150 de 02 54 3e 27 6a 3f bd a1 31 d9 3c 63 19 a4 3d
       0.20704219 -0.046732094 0.026512923 0.08012655
000160 35 ed 7d 3e ac 52 98 3d 5d 74 e1 bd 5e a5 8f 3d
       0.24797519 0.074376434 -0.11008523 0.07013963
000170 43 dd 07 be 42 29 b9 be 73 09 0e be 28 d5 3a bd
       -0.13267998 -0.3616429 -0.13870792 -0.045613438
000180 51 b4 d2 bb 58 38 08 3e 1f 4e 85 3e ab 6a 28 bd
       -0.006430187 0.13302743 0.26036164 -0.04111735
000190 43 bd 62 3e f3 64 1f 3e d2 a5 c2 bd 3b 2f 9f bd
       0.2214251 0.15565853 -0.09504284 -0.0777268
0001a0 c4 98 7f bd 98 6b 97 bc 49 b8 43 3d fe c0 f5 3e
       -0.062401548 -0.018483922 0.04778317 0.47998804
0001b0 ea a8 18 bd c7 c8 99 bd ec 3e e8 3d 5f 61 8d 3e
       -0.037270464 -0.07508998 0.113401264 0.2761335
0001c0 52 67 83 bd 9d cb da bd 72 b2 08 be 0a 4b 41 3e
       -0.06416191 -0.106833674 -0.13349321 0.18876281
0001d0 73 3e 81 be d1 02 99 3d dc b1 79 3c 1f 0b e4 bd
       -0.25242957 0.0747124 0.015240159 -0.11134934
0001e0 d1 94 4e 3d 5b e1 ee 3d 81 5d d7 bd f5 ca 4a 3e
       0.05043489 0.11664077 -0.10515881 0.19803984
0001f0 7d 12 87 3d ab 5b ce 3e b3 ae ca 3d 26 b4 8e 3d
       0.06595323 0.40304312 0.098966025 0.06967954
000200 c0 49 a0 3d 5c 18 b5 3e 83 fc b8 3d 0f 8c 14 3e
       0.07826567 0.35370147 0.09032538 0.14506553
000210 4a 7a b3 bd 58 1e b3 bd 3b 0e 39 3b a0 b7 80 3e
       -0.08763559 -0.08746022 0.0028237242 0.25140095
000220 e7 7c b5 bd 55 6c c5 3d 51 82 3f 3e 8d 5c b3 3b
       -0.08861714 0.09639803 0.18702056 0.0054736794
000230 79 e7 f2 bd d5 5b 12 3e 57 12 c4 3c ae 33 e6 3d
       -0.11860556 0.14292844 0.023934526 0.11240326
000240 49 3c d2 3d 11 90 16 3e 0c 6c bc bc 39 51 73 3e
       0.10265405 0.14703394 -0.02300074 0.23761453
000250 a9 dd 4b 3c 71 46 a7 3d 73 63 e8 bc 9e ff 87 bd
       0.012442985 0.081677325 -0.028367734 -0.06640552
000260 29 e9 81 bd f7 a8 a1 3d dd a4 93 3e e3 26 80 bd
       -0.063433 0.078935556 0.28836718 -0.06257417
000270 f3 d2 85 3b 00 ff eb 3d 89 54 d8 bd e8 97 dc bc
       0.004083985 0.11523247 -0.10562999 -0.026927903
000280 c9 b8 ca bc ea d5 f1 3b ac 35 b5 3e 82 3c 5a 3d
       -0.024746316 0.007380237 0.3539251 0.05328036
000290 f3 46 d6 3b 8e f0 5f be cb a5 04 be c4 0f db 3d
       0.0065392195 -0.21869108 -0.1295387 0.106963664
0002a0 7a 5f ae 3d 16 7f 93 3d 2f dd a2 3c ec 45 a4 bd
       0.085143045 0.07201974 0.01988086 -0.08021149
0002b0 14 04 9d bc d2 62 94 3d 76 cd ba 3d fd b0 19 3e
       -0.019166984 0.07245411 0.0912122 0.15008922
0002c0 32 eb 62 ba 01 24 c1 be df 43 b1 be 26 ea 4b 3e
       -0.00086562627 -0.3772278 -0.34622094 0.1991354
0002d0 64 2a b3 bb db 20 94 be 22 0e d5 3d be d3 9b be
       -0.0054677 -0.28931317 0.10403086 -0.30434984
0002e0 30 3b ac 3d 95 43 6e 3e df 80 80 3c dc 0e a8 3e
       0.084097266 0.23267968 0.01568645 0.32823837
0002f0 fc 84 45 be 94 a9 bb bd d1 d6 26 be 56 a4 5b 3e
       -0.19289011 -0.09163204 -0.16292883 0.21449408
000300 be 9a f1 bd 65 b7 d3 3d e6 55 81 3e 39 2d 37 bd
       -0.11797093 0.10337714 0.25260848 -0.044720862
000310 96 d4 8c bd 17 6d 10 bb 52 82 f8 bd ee 8b 81 bd
       -0.06876485 -0.002203768 -0.121342316 -0.063255176
000320 2f b5 0e 3e 19 f2 72 bd 63 b9 50 bd f4 4c 7e 3d
       0.13936304 -0.059312914 -0.05095805 0.062085107
000330 fe 06 8c 3e 0e be 70 be 0f 95 b1 3d f8 2b b4 3d
       0.27349085 -0.2351 0.08671009 0.08797449
000340 30 c8 07 be cf be 01 bd 67 19 b8 be 05 ef 82 3e
       -0.13259959 -0.03167611 -0.3595688 0.25572982
000350 45 5d d4 3d 71 3f 7f 3d 8d 8e b7 bd 2e e6 ca bd
       0.10369352 0.06231636 -0.08962736 -0.099071845
000360 b8 f3 31 3e f1 43 df 3c 7e 77 c7 bd 30 6b 12 3e
       0.17378128 0.027254077 -0.09739588 0.14298701
000370 64 7e d4 3d 73 37 e2 3d d2 43 b0 be 89 0a ff bc
       0.103756696 0.11045732 -0.34426743 -0.031132953
000380 bd a4 a9 bd 0e 9b db 3d 06 88 7c be b5 c6 d9 bd
       -0.082833745 0.10722934 -0.24661264 -0.106336035
000390 b9 01 1f 3e 5e 47 53 bd e0 34 9e 3d 2f 04 07 be
       0.15528001 -0.051581733 0.07724929 -0.1318519
0003a0 6a 3e 73 bd 57 ae 34 3e 57 96 62 bd 37 8e 3e be
       -0.059385695 0.1764463 -0.055319156 -0.18608938
0003b0 76 3f 87 be 1c 56 4a 3d 09 81 08 3d 1f c1 0d be
       -0.26415604 0.049398527 0.033326183 -0.13843201
0003c0 3c d0 5f 3d 35 47 a1 bc 19 a8 1c bc 50 ea 03 3e
       0.054641947 -0.019687274 -0.009561562 0.12882352
0003d0 5f 34 34 be ea 61 6a 3e 46 62 72 bc f2 30 13 3e
       -0.17598103 0.22888914 -0.014793938 0.1437414
0003e0 52 82 1f bd fb b0 c3 3e e7 b1 78 be a0 77 f0 3c
       -0.038942643 0.38220963 -0.24286614 0.029353917
0003f0 e3 be 87 3e fd 70 eb bd 5f 5f a1 bd 40 1b 59 3e
       0.26512823 -0.1149616 -0.07879519 0.21201801

network_body._body_endoder.seq_layers.0.bias f4 [256]
000000 f7 72 99 3c 00 69 91 3c 45 bf bc 3b 37 20 16 3d
       0.018731577 0.017750263 0.005760106 0.036651816
000010 5a 90 99 3b 4b 80 87 3c fe 6f a3 3c 74 f6 36 3c
       0.0046863975 0.016540667 0.019950863 0.011167157
000020 ca 35 49 bc 0a 4e cb 3a 12 33 ed 3c d0 79 8a 3c
       -0.012280891 0.0015510928 0.028955016 0.016903788
000030 a2 3b 1e bd 09 14 9b 3c d7 cb 0d 3c e0 fa 1b bc
       -0.03863109 0.018930452 0.008654556 -0.0095202625
000040 e3 38 70 3c 56 d1 3d bb 72 12 ed 3c cd 68 18 3a
       0.014662 -0.0028963885 0.02893946 0.00058139564
000050 00 25 20 3b be 33 67 3c 28 d8 fb 3c c6 a5 4a 3d
       0.0024436116 0.014111457 0.03074272 0.0494745
000060 a2 9f 80 3d 64 05 36 3b 14 d2 ce 3c 22 bf 26 3c
       0.062804475 0.002777421 0.025246657 0.010177406
000070 24 60 ca 3c da 70 ab 3c ba 79 16 3d 1a 0e 1b bc
       0.024704047 0.020927835 0.03673718 -0.009463811
000080 fa c2 33 3c fc a0 aa 3b 1c a3 41 3d d7 f7 55 3c
       0.010971779 0.005207179 0.047274694 0.013059578
000090 31 59 0e 3c 5c db c9 3c fe 95 c0 bb 75 c8 ff 3b
       0.008688257 0.024640732 -0.0058772555 0.0078058788
0000a0 e7 40 1b 3d 69 c2 d6 3b b3 de 77 3b da cb 10 3c
       0.037903693 0.006553937 0.0037821948 0.0088376645
0000b0 05 7d 68 3c 39 08 d0 3c 48 02 ec bb a0 b5 ea 3b
       0.014189963 0.025394546 -0.0072024204 0.0071627647
0000c0 ed 77 21 3b b0 d2 39 bc cb a1 c5 3b a4 f2 b4 3c
       0.0024638132 -0.011341736 0.00603125 0.022088356
0000d0 13 61 d0 3c 60 fa 85 bb b9 fd 99 3b 3d a2 8f bb
       0.025436914 -0.004088685 0.0046994356 -0.004383354
0000e0 98 16 40 3d ce 39 13 bb ba 86 af 3b c0 3a 7a 3d
       0.046896547 -0.0022464874 0.005356637 0.061091185
0000f0 f9 bc da 3b 94 d1 64 3c 6b 0c c2 bc 8f 19 eb 3b
       0.0066753593 0.013965983 -0.023687562 0.0071746777
000100 da a1 30 ba c0 34 6a 3c 64 93 2c 3c 7b 1c f7 3c
       -0.0006737985 0.014294803 0.010533188 0.030164948
000110 ae ad 9b 3b 0b e6 a6 bb d3 88 42 3c 10 22 a6 3c
       0.004750929 -0.005093341 0.011873442 0.020279914
000120 89 99 1b bb f8 c8 c3 3c 26 c1 9d 3c 66 e3 a7 3d
       -0.0023742637 0.02389954 0.01925714 0.0819767
000130 c0 a7 79 bc 05 c9 53 3d 59 2b 32 bc 37 7c 16 3d
       -0.015237749 0.05170538 -0.010874593 0.036739554
000140 be ff 45 3d 86 1f 92 3c cd f3 0e ba 46 8e 69 3b
       0.048339598 0.017837297 -0.0005453199 0.003563778
000150 41 6d 41 3c fd ac 93 3c f6 7c 39 3d 9b 36 09 3c
       0.011805833 0.018026823 0.045285188 0.008374835
000160 3d 53 39 3c b5 ff 44 3d 6f b2 34 3d ae 3e 61 3c
       0.011311349 0.048095424 0.04411548 0.013747854
000170 e2 97 66 3d 2e 94 7d 3c 30 71 74 3d 7e a0 98 3b
       0.05629719 0.015477223 0.059678257 0.004657804
000180 41 68 96 3c b2 97 28 3d 90 43 f7 3b 69 0b 45 bc
       0.018360259 0.041160293 0.007545896 -0.012026646
000190 b9 38 ee bc f8 7e 84 bc c9 e9 61 3d 4f 3f 74 3c
       -0.029079782 -0.016173825 0.055154596 0.014907672
0001a0 9c 29 90 3b 89 37 b1 3c dc bf e9 3c a1 86 48 3c
       0.0043994915 0.021632927 0.028533868 0.012239129
0001b0 63 fd c6 bb c8 c9 5e 3d 01 a2 98 3c 07 66 46 3d
       -0.0060726865 0.054391652 0.018631937 0.048437145
0001c0 79 8b 6a 3d 64 eb 12 3b b1 0c 41 3d 3c 16 23 3a
       0.057261918 0.0022418136 0.047131244 0.000622127
0001d0 9a 8b 8b 3c 49 2e 25 3b 02 66 65 3c 2e 9a 82 3c
       0.01703434 0.002520459 0.014001371 0.01594266
0001e0 11 d7 87 3c 68 39 88 bc 2a c6 fa 3b 66 7f fa 3c
       0.016582044 -0.016628936 0.0076530175 0.030578326
0001f0 0b c1 0c bb 6e ac 59 3d 61 c5 76 3c e5 1d ca 3b
       -0.0021477367 0.053142957 0.015061707 0.0061681145
000200 36 46 e0 3c 6b 40 3a 3c 36 76 12 3c 75 84 8d 3c
       0.02737723 0.0113678975 0.0089393165 0.017275074
000210 c9 68 ba b9 cb 31 1f 3c 8f 56 b4 3c 71 f5 de 3b
       -0.00035554756 0.009716461 0.02201393 0.0068041612
000220 d0 04 63 3b 39 f2 da 3c 86 9f 97 3c eb 22 07 bc
       0.003464032 0.026726829 0.018508684 -0.008248071
000230 20 c2 c6 3c 6c 32 35 3d 90 d2 c1 3c aa a3 06 3c
       0.024262488 0.04423754 0.023659974 0.0082177315
000240 de ed 66 3d 24 3c df 3b b2 dc 3b 3d c6 82 79 ba
       0.05637919 0.0068125892 0.04586477 -0.0009518083
000250 ae 1d 1f bc d5 3f 4a bb 57 aa d7 3c 96 9f 16 3c
       -0.009711666 -0.00308608 0.026326342 0.009193322
000260 81 dc 1f 3d 6d 43 91 3c 21 ea ba bb 4b 0a b9 3c
       0.03902865 0.017732346 -0.00570418 0.022587916
000270 73 a0 f6 3c b9 83 20 bb 37 88 1a 3c 81 30 a5 3c
       0.030105805 -0.0024492575 0.00943189 0.02016473
000280 97 13 c8 3c cb ea ea 3c f4 c2 9d 3b f8 bd 61 3d
       0.024423404 0.028676411 0.0048145 0.05511281
000290 92 97 73 3d 0f 46 db 3c 38 65 66 bc 58 66 df 3c
       0.05947072 0.026766805 -0.014062218 0.027270481
0002a0 49 6a 6f 3b 5d 64 04 3c 49 4c 09 3d 7f 75 fb ba
       0.0036531857 0.008080569 0.033520017 -0.0019184797
0002b0 e4 c0 5f 3c 79 ae 8b bc a4 d3 0a 3c 48 6f c5 3c
       0.013656829 -0.017050968 0.008473311 0.024100915
0002c0 29 cc 18 3d c2 54 56 3c ce 01 41 bc 64 30 60 bc
       0.037304077 0.013081731 -0.011780215 -0.013683412
0002d0 e6 b5 f5 3c 6a 7f 0b 3b 15 ff 8c 3a ec 90 86 b8
       0.029993962 0.0021285661 0.0010757173 -6.416612e-05
0002e0 66 40 8a 3d fd 04 63 3c fd 97 92 bb 51 d5 92 bb
       0.06750564 0.01385617 -0.004473685 -0.0044809957
0002f0 5b b4 09 3d d2 df 80 ba 85 6d b4 3c e3 d1 7d 3c
       0.033619266 -0.0009832329 0.02202488 0.015491935
000300 bb 4f 04 3d ef 18 25 3b 20 d9 fd 3b c3 74 58 3b
       0.0323026 0.0025191864 0.0077468306 0.003302858
000310 e9 22 d3 3b 17 eb de 3c 85 6d a6 3b 35 7a c6 ba
       0.0064433706 0.027211709 0.0050789737 -0.0015142622
000320 a0 10 90 bb 1a e7 fd 3c 3e 79 ae 3c cb 11 af b7
       -0.004396513 0.030993987 0.021298047 -2.0869911e-05
000330 91 ed b5 3a fd 5b 10 3d bf 80 24 3d 8e 15 43 3c
       0.0013880004 0.035243977 0.040161844 0.0119069945
000340 71 e0 c6 3c 6d e5 2d 3d 11 b2 0e 3b ed 58 a4 3c
       0.024276944 0.042455126 0.0021773616 0.020061934
000350 83 a6 01 3d c1 00 3a 3c b6 56 88 3d 77 f1 50 bc
       0.03165294 0.011352719 0.06657164 -0.012752882
000360 ac 61 c2 3c 9d f6 72 3c 95 fa e9 3a d8 4f e7 3c
       0.023728214 0.014829305 0.0017851169 0.028236315
000370 d3 c1 13 bc 20 43 0b 3c 8d 6a bf bc 6d 41 f8 3c
       -0.009018379 0.008499891 -0.023366237 0.030304635
000380 2a e4 6b 3b 8e a3 45 3d bd 10 05 3b 8a 3b 87 bb
       0.003599415 0.04825168 0.0020304166 -0.0041269707
000390 53 61 28 3c 3a 37 3a bc 46 a1 53 bb 4f 8d a5 bb
       0.01027711 -0.011365706 -0.0032292171 -0.0050522457
0003a0 cf ca 1e 3c a0 8d a0 3c ec 0d 5e 3d 68 fc db 3b
       0.009691908 0.019598782 0.054212496 0.006713439
0003b0 37 88 8a 3c f8 55 e0 bb 7e b3 7b 3c 8f e3 d8 3c
       0.016910655 -0.006846186 0.0153626185 0.026475696
0003c0 1e f4 36 3d 6c 10 4c 3b 14 61 1d 3b 0f d3 b7 3a
       0.044666402 0.0031137718 0.0024014162 0.0014024692
0003d0 22 e3 60 3a dd f5 35 3b 27 73 a3 bb 02 21 0e 3d
       0.00085787673 0.0027764954 -0.0049880925 0.034699447
0003e0 ed 76 23 3c 58 d8 32 3c 71 5b 55 3d b8 cc 75 3c
       0.009977085 0.010915838 0.05208916 0.015002422
0003f0 df 13 90 3b 30 c7 04 3b a2 18 ae 3c 60 0d c6 3c
       0.0043969 0.0020260327 0.02125198 0.0241763

network_body._body_endoder.seq_layers.2.weight f4 [256, 256]
000000 cf 0b 0c 3d 0b fe 42 bd d8 5b 49 3d 87 2a c4 bd
       0.03419095 -0.047605556 0.049159855 -0.09578424
000010 b0 ec a4 bc fe 89 b0 bd 63 53 00 bd 22 3b 98 bd
       -0.020132393 -0.0862007 -0.031329524 -0.07433154
000020 21 c8 dc bd 2f 07 34 bd 03 cb f0 3d 88 de 98 3d
       -0.10780359 -0.043952163 0.117574714 0.074643195
000030 04 a2 61 3d 1e 35 a7 3b d7 fa dc bd 3d 07 ac 3d
       0.05508615 0.0051027676 -0.107900314 0.08399818
000040 0d e5 e6 3d 91 f7 7f bd 27 8d fb 3d f2 e8 83 ba
       0.11274157 -0.062491957 0.12282782 -0.001006393
000050 6e 0d ab bd 96 6c 1c 3d 89 c6 ed bc 31 e8 8c 3d
       -0.08352171 0.038189493 -0.029025333 0.068802245
000060 7e f2 9f 3c 9a 70 8f bc 5f 39 f3 bd 92 39 4f bd
       0.019524809 -0.017509747 -0.11876177 -0.050592013
000070 b7 2b 09 3d 3f 84 56 3d 3f 77 02 be b1 27 0d bd
       0.033488955 0.052372213 -0.12740801 -0.03446168
000080 3f e3 9c bd c6 7c 0e 3e ff 69 52 3c ef 35 ec 3d
       -0.07660531 0.13914785 0.012842654 0.115337245
000090 f6 18 2a 3d 28 c5 02 3e 71 c6 2f bd ce c0 bf bc
       0.04152771 0.12770522 -0.042913858 -0.023407366
0000a0 17 e5 34 be a5 57 99 3c 38 1c 82 3d 9e 53 85 bd
       -0.17665516 0.01871855 0.063530385 -0.06510089
0000b0 b9 16 49 bd 44 79 fa 3c 0a c7 b5 3c 86 37 88 3d
       -0.049093936 0.030575402 0.022189636 0.06651215
0000c0 91 9e a0 bc 00 3c a5 bb d8 3c 54 3e 1f 8e bf bd
       -0.01960686 -0.005042553 0.20726335 -0.09353279
0000d0 fb 39 bc 3c 77 d0 ae 3d 55 0e 34 bd 90 c8 3a 3c
       0.022976866 0.08535855 -0.04395898 0.011400357
0000e0 47 56 78 3c 8b 06 e2 bd 06 e3 8f bd 2e d4 6f 3d
       0.015157289 -0.11036404 -0.07025723 0.05855196
0000f0 e2 87 0b bd 9f 02 42 bd a7 a2 0f 3d b5 21 33 3e
       -0.034065135 -0.04736578 0.035067227 0.17493327
000100 28 a6 95 bc 2f c9 1b 3d a8 98 b4 3c 67 17 54 3c
       -0.018267706 0.03803366 0.022045448 0.012945033
000110 a0 d9 19 bd 4c 3c 9b 3d e5 36 e6 bd 7e d7 c0 3d
       -0.03756106 0.0757986 -0.11240939 0.09416102
000120 41 6c 91 bc 89 36 bd 3d 0f 1c 2e bc 64 e1 6d bd
       -0.017751815 0.092389174 -0.010626807 -0.058076277
000130 6e 07 13 3d a7 ab 5d bd bd d8 8d 3c 09 00 59 3d
       0.035895757 -0.05411878 0.017315263 0.05297855
000140 7f 94 51 bd 1c 8d 99 3d 36 55 f2 bd eb 2c c6 3d
       -0.051167008 0.074976176 -0.11832659 0.09676536
000150 12 d0 02 3e 45 e7 0f bd f0 3b 5f 3d 97 3f f0 bd
       0.12774685 -0.035132665 0.05450052 -0.11730879
000160 cc 80 82 3c 74 bb 2b bc 8c 22 03 3e a2 e2 0d bc
       0.015930556 -0.010481704 0.12806147 -0.0086599905
000170 09 23 e8 bc d7 d2 04 bd 20 a8 63 bd a8 f0 d0 bd
       -0.028337019 -0.032427635 -0.05558026 -0.102021515
000180 df e8 7d 3c 54 1d 08 3e 8f 99 82 3c 8f 97 7a 3b
       0.015497415 0.13292438 0.015942363 0.0038237309
000190 d6 e2 ae bd e6 f4 5f bd 2f 66 91 bc 36 b6 ab 3d
       -0.08539359 -0.054676913 -0.01774892 0.08384363
0001a0 7c c1 56 3d 57 00 8c bc 64 68 2a 3d d0 05 80 be
       0.052430615 -0.017090006 0.04160346 -0.25004435
0001b0 75 ad f8 3d d0 03 ce bc 76 ad c4 3b 68 29 86 3d
       0.12142459 -0.025148302 0.0060021235 0.06550866
0001c0 35 43 ca 3c 4d 76 89 3a 2a 89 28 3e 16 9f 94 bd
       0.02469025 0.0010487527 0.16458574 -0.07256906
0001d0 15 e7 92 3c d7 13 8c bc bf 26 16 bd 75 8c a2 bb
       0.017932454 -0.017099304 -0.036658045 -0.0049605914
0001e0 70 d3 71 3c e4 3d f4 3d 30 00 f7 bb 70 c3 92 bd
       0.014759883 0.11925867 -0.007537864 -0.07166183
0001f0 56 38 10 3e 03 5a 01 3e 2c 4e 08 bd 49 fe 6a 3b
       0.1408399 0.12631993 -0.033277676 0.0035857132
000200 60 21 20 3d 29 a2 17 bd 61 ab 57 3d a3 04 6a 3e
       0.03909433 -0.037019882 0.052653674 0.22853331
000210 6e 99 ca 3d 7b ab 44 3d e1 98 38 3d 0b 49 08 bc
       0.09892546 0.0480151 0.04506767 -0.008318196
000220 77 45 ae 3d 76 a0 80 3c 22 9d 28 3b 65 54 30 bd
       0.08509343 0.015701514 0.0025728424 -0.043049235
000230 75 a3 f2 bd 4f 2b 9d bd 79 d8 23 ba 7d 07 7c bc
       -0.11847583 -0.07674276 -0.00062502135 -0.015382645
000240 40 3f 0e bd c2 19 4b 3d b8 f6 2f bd 68 8a 04 3d
       -0.03472829 0.04958511 -0.0429599 0.032358557
000250 f8 bd a5 bd bf b9 97 3c 14 bb 89 bc a9 67 75 3b
       -0.08092874 0.018521188 -0.016812839 0.003744582
000260 5d 65 03 3e e2 f2 d5 3c 43 05 d2 bc 2e 9d 05 3d
       0.12831636 0.026116792 -0.025637275 0.0326206
000270 05 f5 8c bc ae f2 a8 bd 53 60 46 bd 35 1d d1 bd
       -0.017206678 -0.082494125 -0.048431706 -0.10210649
000280 07 7d 30 be d2 ca 08 3e 04 6c e1 3c f4 13 54 bd
       -0.17235194 0.1335862 0.027517326 -0.05177684
000290 18 94 05 bc 05 95 6a 3c 78 31 93 3d 0f 42 26 bb
       -0.008152984 0.014317756 0.0718717 -0.0025368964
0002a0 98 e4 6a 3d 3c 91 37 3c 32 af 36 3d ab e7 c9 bc
       0.05734691 0.01120406 0.044600673 -0.0246466
0002b0 d3 2e fd bd 2c 2e 64 bc 6d 14 c9 bc 00 8e c0 3c
       -0.12362447 -0.013927024 -0.024545873 0.02350521
0002c0 54 af a0 3c 6c e1 44 bd ac f5 78 3c 33 69 4e 3d
       0.019614853 -0.04806654 0.0151952915 0.050393295
0002d0 1f 21 43 bc 8d 72 0f be 2f 60 c4 3d 0c 27 00 3d
       -0.011909752 -0.14008541 0.09588658 0.031287238
0002e0 8e 50 dd 3c 88 c6 8e bc 10 01 68 be 45 47 74 3d
       0.02701595 -0.017428651 -0.22656655 0.05963828
0002f0 57 77 83 3c 44 4c 33 bc 40 00 a2 3c f9 2e f6 3d
       0.016048117 -0.010943476 0.01977551 0.12020678
000300 23 cc 6d 3c 3e 2d 6d 3d 9f 22 be 3c a0 18 2b bb
       0.014514002 0.057904474 0.023209868 -0.0026107207
000310 d5 a4 fc 3c dd 69 1d 3d d5 f9 f0 bc 15 73 46 3c
       0.030840317 0.038431037 -0.029416004 0.012112399
000320 ff b2 3d bc b0 a0 3b 3c 79 22 c7 bd 75 8e 65 3c
       -0.0115783205 0.011451885 -0.09723372 0.014011015
000330 08 09 dd 3c 80 64 f2 bd 39 90 4d 3c 67 33 5b 3d
       0.026981845 -0.11835575 0.012546592 0.053515818
000340 12 89 54 3d 79 a2 65 bd 53 4d e4 bd 93 01 0d be
       0.051888533 -0.05606315 -0.11147561 -0.13770132
000350 16 c8 a7 bc 8e f9 a7 bc 25 7d 9f bd f7 cd 99 bd
       -0.02048115 -0.02050474 -0.07787541 -0.07509988
000360 3e 2f 16 3d 55 c9 49 3d f7 88 15 3a 9b 00 71 3d
       0.036666147 0.04926427 0.0005704308 0.058838468
000370 97 1b 02 be bd 16 1d bc 80 d6 e8 3c d7 a9 fe b9
       -0.12705837 -0.009587941 0.028422594 -0.00048573196
000380 d9 f6 0f 3d f4 b3 03 bd d2 de 99 bd c1 0c ae bd
       0.03514752 -0.03215404 -0.07513203 -0.08498526
000390 90 08 51 b9 12 93 9b 3c c9 47 42 bd 65 91 3f ba
       -0.00019934983 0.018991027 -0.04743174 -0.0007307737
0003a0 e1 da d8 3c 1a 88 6d 3d a9 39 af 3d 80 f4 c3 bd
       0.026471557 0.057991125 0.0855592 -0.09568119
0003b0 c6 cc 7e 3d e5 c1 1e be 7c b3 14 3d 8b d0 7e 3d
       0.062207006 -0.15503652 0.036303982 0.0622106
0003c0 16 d4 00 3d 9f 05 15 3d 2f 08 02 bd e4 1f 87 bc
       0.03145226 0.036382314 -0.031746086 -0.016494699
0003d0 2d 80 ab bc 7f 3e e9 bd 12 ed 90 bc 3f fe 2f 3d
       -0.020935142 -0.11388873 -0.017691169 0.042967077
0003e0 dc 68 43 3d 7a 26 78 bc 62 28 9c 3d 0c 34 ae b8
       0.047707424 -0.015145892 0.0762489 -8.306661e-05
0003f0 eb 1e 81 3d db a2 ad bd 86 3c 94 3c ee 4e f9 3d
       0.06304725 -0.08478328 0.018095266 0.12173258

network_body._body_endoder.seq_layers.2.bias f4 [256]
000000 0b da 5d 3c 95 13 eb 3c bb 0c a7 3a 3c d7 a5 3c
       0.013540755 0.02869586 0.0012744883 0.020244233
000010 5d 59 ef 3c 82 0c e6 bb 6a 15 12 3c db d1 fc 3c
       0.029217416 -0.007020534 0.008916238 0.030861786
000020 8c 1c d6 3c 10 82 2f bc 38 a9 31 bc 8b 17 a3 3c
       0.02613666 -0.010712162 -0.010843568 0.019908687
000030 f2 35 b4 3c 1b 45 71 3c dc 9a 13 3c 88 10 c6 3b
       0.02199838 0.014725949 0.009009089 0.006044451
000040 5c a5 69 3c d7 51 9a 3b 90 ad 6a 3c 0c bd 3d 3c
       0.014260616 0.004709463 0.014323607 0.011580717
000050 5f 2a b5 3c f4 fe d3 3b 29 84 cf 3c ef da d6 3c
       0.02211493 0.0064696018 0.025331574 0.026227443
000060 f2 62 8c bb 8f aa 51 3c d4 40 22 bc 4f f1 55 3c
       -0.004284256 0.012797012 -0.009903152 0.013058021
000070 c8 bd 32 3c 19 60 31 bb 1d 3a 48 bb db 07 3e bc
       0.010909505 -0.0027065335 -0.0030552216 -0.011598553
000080 cc 00 b5 3c 73 39 09 3d 1b a9 f0 3c 2f c7 cf ba
       0.022095107 0.033502053 0.02937751 -0.0015852208
000090 ea 05 84 3b ac 94 61 3b 45 74 bd 3b 58 7d c4 3c
       0.0040290253 0.003442089 0.0057816827 0.02398555
0000a0 16 1a b2 3b 46 a4 db 3c 7c 05 23 3c 41 9a 72 bc
       0.0054352386 0.02681173 0.009950038 -0.014807285
0000b0 2f 1f 24 3b 8f e1 a9 3c 5d d3 c3 3c 1d 16 32 3b
       0.0025043 0.020737438 0.023904497 0.0027173825
0000c0 d6 0a 2a 3b 76 46 3d bb a0 cb 47 bc 7b 25 47 3c
       0.00259464 -0.002888111 -0.012194544 0.012154932
0000d0 59 0d 63 3c ef d3 39 bb 04 9f f4 ba 67 98 21 bc
       0.013858163 -0.0028355082 -0.0018663113 -0.009862996
0000e0 21 16 7d 3c 79 b1 a7 bc 2c 2e fd 3b 3d 0e b7 3c
       0.0154471705 -0.020470368 0.0077264514 0.022345657
0000f0 dd c1 d4 3c 66 f3 76 bc b2 c8 fa 3b 6f 48 b7 3c
       0.025971347 -0.015072679 0.0076533193 0.022373406
000100 4e 47 ee 3c 0d 14 0b 3b b6 27 f4 3c 62 68 aa 3c
       0.029086735 0.0021221668 0.029804092 0.020801727
000110 61 09 e5 3c 03 21 84 bb e1 d5 26 3c 60 eb 3f bc
       0.027958574 -0.0040322556 0.010182829 -0.011713833
000120 e7 d6 8f 3c b3 79 6e bb d6 eb 88 3c 78 93 29 3c
       0.017558528 -0.0036388456 0.016714018 0.010350101
000130 77 a8 1b bb 33 4b c0 3b d1 86 88 3c 31 b6 8c bb
       -0.0023751536 0.0058683394 0.016665848 -0.00429418
000140 6f c5 e2 bb 69 8a 76 3c d5 4a 7d bb ee ab e6 ba
       -0.0069205086 0.015047648 -0.003864934 -0.0017598846
000150 ea 60 8c bb 45 f5 83 ba c6 68 ea 3c bb 8b 84 3c
       -0.004284014 -0.0010067603 0.028614413 0.01617991
000160 9a d7 a2 3c 83 46 d1 bb 96 e4 29 bc 2e ff a0 3c
       0.019878197 -0.0063865795 -0.010369441 0.01965293
000170 17 78 c5 bb 66 c2 8a ba 61 e7 86 bb 0c 0d c5 3b
       -0.0060262787 -0.00105865 -0.004116938 0.006013518
000180 0b 7c 9f 3c b5 7f 17 3c 17 a5 f4 3c b4 31 13 bc
       0.019468328 0.009246756 0.029863877 -0.008984018
000190 6d d3 23 3c 36 54 a4 3c f5 e6 7d 3c 96 c2 8f 3b
       0.009999138 0.020059686 0.015496959 0.00438721
0001a0 49 a3 9b 3c 98 a6 29 bb 7e 9c c6 bb c7 94 dc bb
       0.018998759 -0.002588665 -0.006061136 -0.006731603
0001b0 ee 3f 82 3c 34 2d e9 bb 46 cc ff b9 70 5e 88 bc
       0.015899625 -0.0071159843 -0.00048789586 -0.016646594
0001c0 9a af 5c 3b a0 a0 af 3c 04 0d 94 3b 9e 85 0e 3d
       0.0033674003 0.021438897 0.004518153 0.034795396
0001d0 2d 3d 29 3b bc a5 fd 3c 28 f7 18 bb 4d 3f f2 ba
       0.0025823817 0.030962817 -0.0023340676 -0.0018482
0001e0 da bc 20 3c fb 68 c4 bb b8 f7 c0 3c 3c fb 53 3c
       0.009810651 -0.00599396 0.023555622 0.012938317
0001f0 e8 c9 85 3c 90 07 84 3c e1 bf 95 3c 78 b1 a8 3c
       0.016331628 0.016116887 0.018279972 0.020592436
000200 b3 03 1e 3d 69 ea 17 3d ed ee 22 3d b1 42 5c 3c
       0.038577747 0.037088785 0.03977864 0.013443635
000210 7d 5b 23 3c 60 55 9a 3b 97 ba 35 bb 66 ec c0 3c
       0.009970543 0.0047098845 -0.0027729624 0.023550224
000220 6b 1c 4d 3c ce 50 e3 3c 0c d1 5f 3c 90 57 eb 3c
       0.012518982 0.027748492 0.0136606805 0.028728276
000230 8c b8 c5 3b 11 0a 94 3c 5c e4 81 3b d6 eb 2b bb
       0.0060339626 0.018071206 0.00396399 -0.0026233098
000240 50 81 83 bb da e8 74 3c 36 90 d1 3c 84 54 87 bb
       -0.004013218 0.014948094 0.02558146 -0.004129948
000250 cc f6 38 3c 8c ae 43 3a 0a 20 7a 39 ca 33 81 3c
       0.01128931 0.0007464669 0.00023853793 0.015771765
000260 58 3e 10 bc db 04 11 3c 9e d4 08 bc 61 5e 0d 3c
       -0.008803926 0.008851255 -0.008351473 0.008628459
000270 d3 35 87 3c d7 58 89 ba f1 29 06 3c 40 a9 6f bc
       0.016505158 -0.0010478747 0.008188711 -0.014627755
000280 33 10 fc 3b 9a f8 c1 3c 38 83 c8 bb 47 09 3b bc
       0.007692361 0.023678113 -0.006119158 -0.011415786
000290 b0 12 20 3c b5 8f 25 3c bc 4e 3c 3c 4e 64 6b 3c
       0.00977008 0.010105063 0.011493381 0.014367176
0002a0 5d 19 2c 3c f7 17 0e bb 16 5e 61 bb 41 92 58 3b
       0.010504094 -0.0021681765 -0.0034388355 0.0033046158
0002b0 11 40 b4 3c 98 50 64 bb 49 a1 08 3b d4 71 9a 3c
       0.022003205 -0.0034838077 0.0020848087 0.018853106
0002c0 3b 97 65 ba d6 61 69 3b e9 f8 90 ba 34 52 7f bb
       -0.0008758192 0.0035611293 -0.0011060509 -0.003895891
0002d0 61 03 20 3d 36 65 40 3b 2e 13 85 3b 94 26 59 3c
       0.039065722 0.0029357201 0.0040611243 0.013253827
0002e0 53 54 98 3c ad b9 5f bb 36 3e 9b bb e3 08 2e 3d
       0.018594896 -0.003413777 -0.0047376407 0.042488944
0002f0 2f 3e ee 3a e6 f9 ba 3b c7 86 65 3b 8a dc d3 ba
       0.0018176491 0.0057060597 0.003502296 -0.0016163748
000300 25 51 95 3c 8e a2 87 3c 77 3a 3b bc bc c3 91 3c
       0.01822717 0.016557004 -0.011427513 0.017793529
000310 1c 1f 73 3b b4 ca 3f 3b ee 25 6b bb 8f 42 e3 3c
       0.00370974 0.0029265108 -0.0035880762 0.027741699
000320 88 9b bc 3c 43 8a 12 3c 80 94 80 3c 63 7f 9a 3c
       0.023023382 0.008944097 0.01569581 0.01885957
000330 c4 84 5e 3c be 4d ce 3a d8 2f 2b 3c f7 e6 d5 3c
       0.0135814585 0.0015739722 0.010448419 0.02611111
000340 b7 13 39 bc 5c cd 66 3c 80 1e 78 3c f6 21 2e 3c
       -0.011296204 0.014087047 0.0151439905 0.010628214
000350 f7 aa e8 3c 92 30 77 3b 42 c2 71 bc 4d c5 34 3c
       0.028401835 0.003771816 -0.014755787 0.011033368
000360 20 e1 db 3c 35 1d a3 3b 0a 6d 18 3d ee 35 24 3c
       0.026840746 0.004977847 0.037213363 0.010022623
000370 3e ca 61 3c a8 cc 1f bc 35 5f 7e bc 8b ec ff 3c
       0.013781128 -0.009753384 -0.015525629 0.031240722
000380 12 97 43 ba 18 96 fc 3c 40 5e f0 3b f0 27 bc 3b
       -0.0007461171 0.030833289 0.007335454 0.0057420656
000390 a9 20 90 3b 71 7b c2 3b c0 a0 2e 3b ef b5 8b 3c
       0.0043984246 0.0059351255 0.0026646107 0.017054526
0003a0 f0 c4 eb 3c 7e ff 72 bc d6 fb b3 3c 87 c4 8c 3c
       0.02878043 -0.014831422 0.02197067 0.017183555
0003b0 21 e5 56 3c 1d a9 09 3c 14 88 8d 3c 62 70 fb 3b
       0.013116152 0.008402136 0.017276801 0.007673309
0003c0 8f e2 a8 3c 27 70 12 3c 56 f8 4e 3c 0b 19 e2 3b
       0.020615844 0.008937872 0.01263245 0.006899958
0003d0 2f 31 81 3c a4 7f fd bb 8f b7 c7 3c 79 70 bb 3b
       0.015770523 -0.007736163 0.02437952 0.005720195
0003e0 78 f4 d2 bb b2 87 d6 3b 8b cf 7e bb f6 40 63 3c
       -0.0064378344 0.006546938 -0.003888103 0.013870468
0003f0 a6 17 aa 3b 70 dc 1b 3d 54 5c c4 3c c2 a5 c6 ba
       0.0051908074 0.038052022 0.023969807 -0.0015155601

action_model._continuous_distribution.log_sigma f4 [1, 5]
000000 ad 72 27 be f2 63 08 be 93 02 35 be 45 6d 6b bc
       -0.16352339 -0.13319376 -0.17676763 -0.014369314
000010 9b ab 4f bd
       -0.050700765

action_model._continuous_distribution.mu.weight f4 [5, 256]
000000 69 db ea bc c7 81 9d 3c 37 cb 1e bc b6 5d ac bc
       -0.028669076 0.019226922 -0.009692005 -0.021040779
000010 93 46 e8 3c 2f 6f 76 3c 23 f0 85 bd 74 a4 f5 3c
       0.028353965 0.015041157 -0.06539943 0.029985644
000020 87 2e 63 3d a4 f3 2e bc 2c 1b 75 bd 2a 42 e0 bc
       0.055464294 -0.010678206 -0.059840366 -0.0273753
000030 ca 40 03 bc d0 76 54 bd da ff 14 3b b9 77 16 bd
       -0.008011052 -0.05187112 0.0022735507 -0.03673527
000040 4f 30 10 bc 8e c3 b0 bc 94 a0 91 bb 78 fb e8 3a
       -0.00880058 -0.021577623 -0.004444191 0.0017775139
000050 50 64 11 3b 31 20 23 3d 63 a7 69 3d c0 0c 8e bb
       0.0022185035 0.039825622 0.057044398 -0.004335016
000060 9d e0 7d bb c5 75 a9 bc 95 ea cf 3b a7 3e 59 bd
       -0.0038738616 -0.02068604 0.006345103 -0.053038266
000070 32 f7 2f 3d 61 85 04 bc d7 29 89 3c 47 7a 62 3d
       0.042960353 -0.008088441 0.016743584 0.055292394
000080 eb 38 d3 bc 32 6a 6f 3d 0a c8 7d 3c 50 20 7a bb
       -0.025783977 0.058450885 0.015489588 -0.0038166232
000090 a4 bd 00 3d f6 82 1f bd a3 2b bc bd f9 2b 21 3c
       0.031430855 -0.038943253 -0.091880105 0.009837144
0000a0 a0 4d 72 bc 41 9a b4 3b 91 af 2a 3c 2e 17 a0 3b
       -0.014789015 0.0055115526 0.010417835 0.0048855757
0000b0 4a de e6 3c 50 b6 28 3d 8b 90 6d bc aa 31 96 3c
       0.028182168 0.04118949 -0.014499794 0.018334229
0000c0 20 0d 25 bc 5e dc dd bc 24 e6 c3 3c 1a 10 36 3d
       -0.01007393 -0.027082618 0.02391345 0.04444895
0000d0 21 c6 0c bc fa 6f 5c 3d 6c 62 22 3d 3b ff 18 bb
       -0.0085921595 0.053817727 0.039644644 -0.0023345489
0000e0 c7 fa 07 bd 05 fd 5c bc 1f 60 c9 bc f1 e6 39 3d
       -0.033198144 -0.013488059 -0.024581967 0.04538626
0000f0 91 6f e8 3c 2d 4a 97 bc f5 b2 eb bc 5e 76 87 bd
       0.028373512 -0.018467987 -0.028771857 -0.066143736
000100 80 b9 23 3c 21 7a 37 3d b1 9b a9 3d 6e 28 6e bc
       0.009992957 0.044794206 0.08281649 -0.014536006
000110 99 f8 64 3c 0a 8f 8e bc 24 ee aa bc ad ae 30 bd
       0.013975286 -0.01740219 -0.020865507 -0.043135334
000120 21 8a ac bc ad 36 97 3c a4 37 87 3d 46 b7 33 bd
       -0.021061959 0.018458689 0.066024095 -0.043875955
000130 70 56 6b bc be cd c5 3c 87 ef 91 bd 0e 41 ee bc
       -0.01436387 0.024145957 -0.07125764 -0.029083755
000140 e2 fb 2b 3c cc 28 7e bc 0d 1a 3c 3d 5f 3d 74 bd
       0.010497065 -0.015512656 0.04592328 -0.05962884
000150 34 3d 8c bc 67 bb 39 bd 57 5a 8b bd a2 66 13 bd
       -0.017119028 -0.045344736 -0.0680434 -0.03598655
000160 ea 97 ec bb eb 8c f1 bb 28 30 58 3c 11 72 33 bc
       -0.007220258 -0.007371535 0.013195075 -0.0109524885
000170 5a 70 66 3c 8a cc df bc 7e 41 b4 bc 88 40 98 3c
       0.014064873 -0.027319212 -0.022003885 0.018585458
000180 df 2a a1 bc 57 d1 5f bd 32 d6 1a 3c 3d 27 aa bc
       -0.019673763 -0.054643 0.009450482 -0.020770663
000190 11 4e ca ba 78 cd ee 3c 7f ce 0a bb 9b 27 7c bc
       -0.0015434643 0.02915071 -0.002118021 -0.015390302
0001a0 e3 8f 18 bb 3e 88 ac 3a 7f 9e ab bd 43 87 62 bd
       -0.0023279123 0.0013163162 -0.0837984 -0.055304777
0001b0 16 53 30 bb 1e 7f be 3c e4 6d 88 3d 56 81 4e b8
       -0.0026904992 0.023253974 0.06661585 -4.923468e-05
0001c0 7b 8e 98 3d df b3 4f bd 16 7e 94 bd a6 12 cb bc
       0.07449051 -0.050708648 -0.072506115 -0.024789166
0001d0 e1 87 af 3c 3e c0 90 bc 68 a3 3f bc 8e e6 48 3c
       0.021427097 -0.017669793 -0.011696674 0.012262
0001e0 46 d1 a4 bd 83 c7 1f 3d aa 6b 1a 3d ce 1b d2 bc
       -0.08047728 0.03900863 0.037700333 -0.025648024
0001f0 73 00 b6 bd 04 52 8c bc 90 7f 91 bd f1 a0 80 3d
       -0.088868044 -0.017128952 -0.07104409 0.06280697
000200 f9 97 66 3c f2 03 76 3c 03 e8 32 b9 4d 57 4b bd
       0.014074319 0.015015589 -0.00017061834 -0.049643803
000210 11 05 d4 3c 3f da f4 bc 5a db 95 3c cf dd 9e 3d
       0.025881322 -0.029889224 0.018293072 0.077571504
000220 65 5b bb 3c 86 bd 22 bd db 3d a7 3d 46 7a 0b bc
       0.022870729 -0.039731525 0.08166095 -0.008513039
000230 c4 36 a1 bc c5 ee 1e 3c 93 5b 3a 3c 3b 49 95 3d
       -0.019679435 0.009700482 0.011374372 0.07289358
000240 e5 15 17 3d 90 76 c0 bb d6 13 94 3d 20 30 eb 3b
       0.036886115 -0.0058735088 0.07230346 0.007177368
000250 3b 12 e6 bc d8 10 13 3d 54 09 be bc a2 1c 6e 3c
       -0.028084865 0.035904735 -0.023197807 0.014533194
000260 62 87 20 bc f7 0b cc bd b5 8a 52 bd ce 5e 35 3c
       -0.009797903 -0.099632196 -0.051401813 0.0110699665
000270 31 e5 f6 bc 53 e9 44 bd 18 c7 50 3c 8d cd 00 3d
       -0.030138584 -0.048074078 0.01274278 0.03144603
000280 62 c5 c9 bc e8 68 da 3c 6a 1e 40 bb fc 26 12 bc
       -0.024630252 0.026661351 -0.0029315003 -0.008920427
000290 72 a2 8e bd 55 06 7c 3c f6 61 f3 3c d9 ad 57 bd
       -0.06964578 0.015382369 0.029709797 -0.05265603
0002a0 0f cf bc 3c b5 85 f4 bb 98 4a b6 3c a4 48 c2 bb
       0.023047952 -0.007462228 0.022252366 -0.0059290696
0002b0 b2 94 06 3c df cb 0f bd 78 c4 9b 3c a1 9c e9 3c
       0.008214163 -0.035106536 0.019014582 0.02851707
0002c0 fb c3 37 3d 61 9d 94 3d 26 6e 97 3d 48 23 03 3d
       0.044864636 0.0725658 0.07394056 0.03201607
0002d0 1f 5b 07 bd 54 ce ee bc 4f ae 56 bd 90 b8 a1 bb
       -0.033045884 -0.02915112 -0.052412327 -0.0049353316
0002e0 dc df a9 3a 58 01 90 3d ca a7 15 3d de 0a 42 3d
       0.0012960392 0.07031506 0.03653697 0.047373645
0002f0 ed 49 ad 3d a7 55 1a bd d1 18 ea 3b 19 9c a7 3c
       0.08461366 -0.03767934 0.0071440716 0.020460175
000300 a1 9e 61 3d 8f ed e7 bc 5c e4 16 bd 20 1a 26 3d
       0.05508292 -0.028311519 -0.036838874 0.04055226
000310 f0 ec 71 bd 34 96 11 bd 2d f5 83 bd 36 93 c9 3c
       -0.05906385 -0.035543635 -0.06443248 0.024606328
000320 70 3d 4f 3c 7a 98 33 bd 03 75 21 bd f2 90 81 3d
       0.012648925 -0.043846585 -0.03941823 0.06326474
000330 51 d2 75 3d 75 ff 9a bd d9 a2 0a bb 2c d1 eb 3c
       0.060015026 -0.07568256 -0.0021154194 0.028786264
000340 7d 8a 3d bd 23 93 1a 3c bd de ab 3d b4 08 27 3d
       -0.04627465 0.009434494 0.08392093 0.040779784
000350 7a b2 b2 3c 79 f3 37 3d de ce fc 3c a5 f1 63 3d
       0.02181362 0.044909928 0.03086036 0.055650372
000360 27 84 74 3c ee f6 6b 3d 05 13 da bb 59 51 e6 3c
       0.014924086 0.057608537 -0.0066550993 0.028114961
000370 e8 ef 11 bd 14 bb 0b 3d 60 5c 9d 3c 5a b3 9e bc
       -0.035629183 0.03411396 0.019209087 -0.01937263
000380 a1 ed 5c 3d b0 d2 ab 3c 32 07 1b bc 5a 7e 2c bb
       0.053937558 0.020974487 -0.009462165 -0.0026320429
000390 dd 17 43 3c a5 a0 52 bd 48 37 72 3c 6f e7 01 3d
       0.011907545 -0.051422734 0.014783688 0.031714853
0003a0 7c c0 6c 3c 47 bd 00 bd 0f 24 14 3d 14 26 77 bd
       0.014450189 -0.03143051 0.0361672 -0.06033905
0003b0 c9 ff 66 bd 42 7c a0 bd b5 f9 5a bd d1 3d e7 bc
       -0.05639628 -0.078362 -0.053460795 -0.028227719
0003c0 4d db a4 bb 67 e5 9c bc 5f 73 94 bc c3 4d ac bc
       -0.0050310255 -0.019152356 -0.01812142 -0.021033173
0003d0 2e 6c 00 3b 8c 0f 0f bd 3b 81 c9 3c 0e b7 8d bd
       0.001959573 -0.034926936 0.024597755 -0.069196805
0003e0 4d b1 8e bd 8d 2a 1e bb 8c 2d 66 bd de c4 c6 bd
       -0.06967411 -0.002413425 -0.05619578 -0.09705518
0003f0 b7 a1 cd ba 5b d7 c3 3c ba e6 80 bc 14 d4 b5 3d
       -0.0015688454 0.0239064 -0.015735019 0.08878341

action_model._continuous_distribution.mu.bias f4 [5]
000000 4d e8 a7 3a 6b 4d ab 3c f6 08 1f bb a4 11 49 3c
       0.001281032 0.02091094 -0.0024266816 0.012272272
000010 4d 9d b2 bb
       -0.0054508806
