config/results/hb_01/Hummingbird/Hummingbird-3499992.onnx (onnx, 318566 bytes, 7 tensors)

network_body._body_endoder.seq_layers.0.weight f4 [256, 46]
0	0xbe1c23f7	-0.15248094
1	0x3e1ad817	0.15121494
2	0x3e0d4f25	0.13799722
3	0xbe3ca52b	-0.18422382
4	0xbe141e35	-0.14464648
5	0x3e9cc047	0.30615446
6	0xbe08f1e0	-0.13373518
7	0xbde756ef	-0.11295878
8	0x3e54f3fc	0.20796198
9	0xbd4f1102	-0.05055333
10	0x3d74c495	0.059757788
11	0x3e4971de	0.19672343
12	0x3d080993	0.033212256
13	0x3db54ea4	0.0885289
14	0xbe50856b	-0.20363395
15	0xbdb2f753	-0.087385796
16	0xbddbb183	-0.10727217
17	0x3cd472e7	0.025933696
18	0xbe33bd9e	-0.17552802
19	0x3e7597ef	0.2398374
20	0x3b148230	0.0022660606
21	0xbe641ff4	-0.22277814
22	0xbd15fce2	-0.03661812
23	0xbd6da24b	-0.058016103
24	0xbd3c57c2	-0.04598213
25	0xbb387eaa	-0.002815167
26	0x3e798b36	0.24369511
27	0xbcd40c7f	-0.025884865
28	0x3e0854d5	0.13313611
29	0x3e0608e2	0.13089326
30	0x3e277ddb	0.16356604
31	0xbe337f3c	-0.17529005
32	0xbdc99c65	-0.09844283
33	0x3e820f7b	0.25402436
34	0x3e5e70f3	0.21722774
35	0x3daa3e35	0.08312646
36	0x3ccaeef8	0.024772152
37	0x3e887047	0.2664816
38	0xbd4b217f	-0.04959249
39	0x3c35158b	0.0110524995
40	0x3ed4d0c5	0.4156553
41	0xbd4b9029	-0.04969803
42	0xbd19fda9	-0.037595425
43	0xbe647a25	-0.2231222
44	0x3d3eef0f	0.046614703
45	0xbede22c2	-0.43385893
46	0x3e80c686	0.2515146
47	0x3d99d806	0.07511906
48	0xbdc87387	-0.0978766
49	0xbdb824e3	-0.089914106
50	0x3df73989	0.12071521
51	0xbd50a49e	-0.05093824
52	0xbdc534b8	-0.09629196
53	0x3e135861	0.14389183
54	0xbe62fe86	-0.22167405
55	0xbc4257fa	-0.011861796
56	0xbe2edce0	-0.17076445
57	0x3d23041c	0.03979884
58	0xbe20551d	-0.15657468
59	0x3dc7504c	0.09732112
60	0xbe3f8998	-0.18704832
61	0xbe61402e	-0.21997139
62	0xbe5eda6a	-0.21763006
63	0xbe9d5a69	-0.3073304
64	0x3deac7d3	0.11463895
65	0xbe3aa8fc	-0.18228525
66	0xbd653550	-0.055959046
67	0x3eab7cf8	0.3349378
68	0x3db3bcc7	0.08776241
69	0x3dc975f1	0.09836949
70	0x3d59cc78	0.053173512
71	0x3ded77ae	0.11595093
72	0x3e11eb0a	0.14249817
73	0x3a67e007	0.00088453334
74	0xbe1aeb2d	-0.15128775
75	0x3e532f51	0.20623519
76	0x3db71d87	0.08941179
77	0xbd9c4bc0	-0.07631636
78	0x3de8d4ed	0.11368737
79	0xbd1d8255	-0.038454372
80	0x3dc80ab0	0.097676635
81	0x3d8ababe	0.067738995
82	0xbe50ad1c	-0.20378536
83	0x3b80be4a	0.003928934
84	0x3e52d930	0.20590663
85	0xbd4abcc5	-0.04949643
86	0x3ce5ba21	0.028042855
87	0x3da5654e	0.08075963
88	0x3e7cc27d	0.24683566
89	0x3d97bdf8	0.074092805
90	0xbde40cb7	-0.11135238
91	0x3d96447a	0.073372796
92	0xbe071b24	-0.13193947
93	0xbeb9412a	-0.3618253
94	0xbe0e0973	-0.13870792
95	0xbd3d0467	-0.046146777
96	0xbbcbb1cb	-0.006216263
97	0x3e03e022	0.12878469
98	0x3e854e1f	0.26036164
99	0xbd3afe63	-0.04565276
100	0x3e625941	0.2210436
101	0x3e1b1712	0.1514552
102	0xbdc2a5d2	-0.09504284
103	0xbdab20d6	-0.08355872
104	0xbd80d886	-0.062912986
105	0xbcb5d471	-0.022196027
106	0x3d43b849	0.04778317
107	0x3ef3c06d	0.47607747
108	0xbd171236	-0.0368826
109	0xbda7bd11	-0.081903584
110	0x3de83eec	0.113401264
111	0x3e8a3489	0.26993206
112	0xbd8405c3	-0.064464115
113	0xbde022d9	-0.10944147
114	0xbe08b272	-0.13349321
115	0x3e3a7fd7	0.1821283
116	0xbe81a29d	-0.25319377
117	0x3d9b8ca1	0.07595182
118	0x3c79b1dc	0.015240159
119	0xbdf05817	-0.11735552
120	0x3d4fe26d	0.050753046
121	0x3df4563c	0.119305104
122	0xbdd75d81	-0.10515881
123	0x3e42206d	0.18957682
124	0x3d80d328	0.06290275
125	0x3ecf5958	0.4049785
126	0x3dcaaeb3	0.098966025
127	0x3d8f5c5a	0.070000365
128	0x3da327da	0.079665855
129	0x3eb5820d	0.35450783
130	0x3db50ae9	0.088399716
131	0x3e160bd3	0.14652948
132	0xbdb6721a	-0.08908482
133	0xbdb1d904	-0.086839706
134	0x3aa02e2a	0.0012220789
135	0x3e808b79	0.2510641
136	0xbdb1ecaa	-0.08687718
137	0x3db852c7	0.090001635
138	0x3e406e60	0.18792105
139	0x3a5882c2	0.00082592305
140	0xbdf2e779	-0.11860556
141	0x3e15053d	0.1455278
142	0x3ccb3247	0.024804248
143	0x3deece83	0.11660483
144	0x3dd23c49	0.10265405
145	0x3e17d4e6	0.14827308
146	0xbcbcae31	-0.02303228
147	0x3e78e6cb	0.2430679
148	0x3c4bdda9	0.012442985
149	0x3dac303c	0.084076375
150	0xbcdb5c8d	-0.02677753
151	0xbd829760	-0.06376529
152	0xbd81e929	-0.063433
153	0x3da21988	0.07915026
154	0x3e937b0b	0.28804812
155	0xbd68b673	-0.056814622
156	0x3b85d2f3	0.004083985
157	0x3df44627	0.11927443
158	0xbdd58203	-0.104251884
159	0xbcb74170	-0.02237007
160	0xbccab8c9	-0.024746316
161	0x3c5a65a8	0.013329901
162	0x3eb54fe1	0.35412505
163	0x3d6100b3	0.054932307
164	0x3bd646f3	0.0065392195
165	0xbe5a8e8e	-0.21343443
166	0xbe04586d	-0.12924357
167	0x3dd75bd7	0.10515564
168	0x3dae5f7a	0.085143045
169	0x3da12ef7	0.07870286
170	0x3cbdc519	0.023165273
171	0xbda8dea8	-0.08245593
172	0xbc9d0414	-0.019166984
173	0x3d92e2af	0.07172143
174	0x3db47fbd	0.08813427
175	0x3e18b056	0.14911017
176	0x3a559e84	0.0008148926
177	0xbec29048	-0.38000703
178	0xbeb1e254	-0.34742987
179	0x3e4ba09a	0.19885483
180	0xbbabb7a4	-0.0052403975
181	0xbe93eb6a	-0.28890544
182	0x3dd3e616	0.1034662
183	0xbe98c2ef	-0.29836223
184	0x3dabeda6	0.08394937
185	0x3e6cda72	0.23130205
186	0x3c8080df	0.01568645
187	0x3ea92ac9	0.33040455
188	0xbe44194e	-0.19150278
189	0xbdbc87a9	-0.092055626
190	0xbe26d6d1	-0.16292883
191	0x3e5d216a	0.21594778
192	0xbdef47b1	-0.11683596
193	0x3dd0a005	0.10186771
194	0x3e8155e6	0.25260848
195	0xbd30886b	-0.04309885
196	0xbd88c9bb	-0.06679102
197	0xbb134bac	-0.0022475524
198	0xbdf88252	-0.121342316
199	0xbd7db7f6	-0.061943017
200	0x3e0f0252	0.13965729
201	0xbd7211c0	-0.05909896
202	0xbd50b963	-0.05095805
203	0x3d83fde3	0.064449094
204	0x3e8cdd67	0.27512667
205	0xbe70cf20	-0.23516512
206	0x3db1950f	0.08671009
207	0x3dbf3e67	0.09338074
208	0xbe06876b	-0.13137595
209	0xbd12582a	-0.03572861
210	0xbeb81967	-0.3595688
211	0x3e852bd8	0.26010013
212	0x3dd52a0e	0.10408412
213	0x3d75a2d2	0.05996973
214	0xbdb78e8d	-0.08962736
215	0xbdbc9b7b	-0.09209343
216	0x3e34d727	0.17660199
217	0x3ccb025c	0.024781398
218	0xbdc7777e	-0.09739588
219	0x3e11ddd9	0.14244784
220	0x3dcf91ae	0.10135208
221	0x3de2a290	0.110661626
222	0xbeb03571	-0.34415773
223	0xbd0987d3	-0.033576798
224	0xbda7c0f2	-0.08191098
225	0x3dd978c9	0.10618741
226	0xbe7b892b	-0.24564044
227	0xbdda3f3d	-0.10656593
228	0x3e1e170c	0.15438479
229	0xbd394ee8	-0.045241266
230	0x3da313ec	0.07962784
231	0xbe0be0da	-0.13659993
232	0xbd733e6a	-0.059385695
233	0x3e35cf6b	0.17754905
234	0xbd664fd5	-0.056228478
235	0xbe3c2460	-0.18373251
236	0xbe873f76	-0.26415604
237	0x3d3d4d62	0.046216376
238	0x3cffcb65	0.031224916
239	0xbe099ab7	-0.13437925
240	0x3d5fd03c	0.054641947
241	0xbcb16218	-0.02165322
242	0xbc0cc94b	-0.008592914
243	0x3e03391e	0.12814757
244	0xbe34345f	-0.17598103
245	0x3e673a6b	0.22580878
246	0xbc68bf97	-0.014205835
247	0x3e154a21	0.14579059
248	0xbd1f8252	-0.038942643
249	0x3ec34b16	0.38143224
250	0xbe77ea36	-0.24210438
251	0x3d046806	0.032325767
252	0x3e87bee3	0.26512823
253	0xbdee095d	-0.1162288
254	0xbda25164	-0.0792568
255	0x3e5dae2d	0.21648474

network_body._body_endoder.seq_layers.0.bias f4 [256]
0	0x3c8f156f	0.017466275
1	0x3c943949	0.018093722
2	0x3bcfefd5	0.006345729
3	0x3d14a77a	0.03629253
4	0x3b83b343	0.0040191724
5	0x3c8fe13e	0.017563459
6	0x3ca140cd	0.01968422
7	0x3c40915b	0.011753405
8	0xbc181ea2	-0.009284647
9	0x3ae9dee6	0.0017842918
10	0x3cf22d0d	0.029562498
11	0x3c8b58f0	0.017010182
12	0xbd20cfb7	-0.039260592
13	0x3c9ef5b6	0.019404273
14	0x3c1069f3	0.008814323
15	0xbc1be4dd	-0.0095150145
16	0x3c6789f7	0.0141320145
17	0xbb4c4624	-0.0031169737
18	0x3ce96a9c	0.028493218
19	0x38990e14	7.298231e-05
20	0x3b1562cd	0.0022794486
21	0x3c59e6d0	0.013299659
22	0x3cfaf23b	0.030633083
23	0x3d46cd25	0.048535485
24	0x3d7e7219	0.06212053
25	0x3b3b1eed	0.0028552369
26	0x3cc975c1	0.024592282
27	0x3c287265	0.01028118
28	0x3cd0cd10	0.025488406
29	0x3ca72979	0.020405518
30	0x3d10483e	0.035225146
31	0xbc00f329	-0.007870474
32	0x3c38e642	0.0112853665
33	0x3b9393ec	0.0045037176
34	0x3d3eff44	0.04663016
35	0x3c4deeac	0.012569111
36	0x3c0a6d41	0.0084489
37	0x3cb68d0d	0.022284055
38	0xbbb4b647	-0.005514893
39	0x3bfdfc22	0.007751004
40	0x3d1a04b5	0.037602145
41	0x3bc755d3	0.006083229
42	0x3b19c76e	0.0023464817
43	0x3c1df18e	0.009640111
44	0x3c96103a	0.018318284
45	0x3cd7fb0d	0.026364828
46	0xbbe07345	-0.0068496787
47	0x3bbe3019	0.0058040735
48	0x3b272052	0.0025501442
49	0xbc3863c9	-0.011254259
50	0x3b9f1e9a	0.004855943
51	0x3caf22a6	0.021378826
52	0x3ccc9ac7	0.024976147
53	0xbb91a188	-0.004444305
54	0x3bca8477	0.006180342
55	0xbb902c62	-0.004399822
56	0x3d3c00b2	0.0458991
57	0xbb053f86	-0.0020332052
58	0x3bbd9dc0	0.0057866275
59	0x3d75910f	0.05995279
60	0x3bd47322	0.0064834515
61	0x3c5d2dcc	0.013499688
62	0xbcbe22b4	-0.023209907
63	0x3bdaf33d	0.0066818283
64	0xb9bd1804	-0.00036066782
65	0x3c57127c	0.013126966
66	0x3c3facb2	0.011698889
67	0x3cea2898	0.02858381
68	0x3bbd1704	0.005770566
69	0xbbb681fc	-0.0055696946
70	0x3c39d469	0.011342146
71	0x3ca011a9	0.019539671
72	0xbab5a755	-0.0013859073
73	0x3cc2b39e	0.023767289
74	0x3c97e307	0.018540872
75	0x3da6fb8c	0.081534475
76	0xbc80010e	-0.015625503
77	0x3d552a45	0.052042264
78	0xbc2b73d6	-0.010464629
79	0x3d1398ec	0.03603451
80	0x3d46fc03	0.04858018
81	0x3c8c8655	0.017153898
82	0xbafb6671	-0.001918031
83	0x3b58af1a	0.0033063353
84	0x3c3d1879	0.011541479
85	0x3c8be100	0.017075062
86	0x3d35d2e3	0.04439057
87	0x3c1d3ff4	0.009597767
88	0x3c49033c	0.012268838
89	0x3d42c3a7	0.04754987
90	0x3d353c46	0.044246934
91	0x3c56d980	0.0131133795
92	0x3d61e160	0.055146575
93	0x3c8468b6	0.016163211
94	0x3d6bf0e9	0.057602797
95	0x3b965a77	0.004588421
96	0x3c95bf39	0.018279659
97	0x3d24bbf2	0.0402183
98	0x3c04dbb7	0.008109025
99	0xbc3c440f	-0.011490836
100	0xbce93f61	-0.028472604
101	0xbc82a4b4	-0.015947677
102	0x3d5d24ff	0.05399036
103	0x3c71cdc3	0.01475853
104	0x3b4a79f6	0.0030895448
105	0x3caab46b	0.020837983
106	0x3ce5f214	0.028069533
107	0x3c45c308	0.012070425
108	0xbbd21535	-0.0064112195
109	0x3d57dce5	0.052700896
110	0x3c910f61	0.017707529
111	0x3d4937ac	0.04912536
112	0x3d6178b9	0.05504677
113	0x3b388c72	0.0028159884
114	0x3d434303	0.04767133
115	0x39aee706	0.00033359992
116	0x3c8a6c27	0.016897274
117	0x3b25d65a	0.0025304765
118	0x3c6cf4b3	0.014462638
119	0x3c80f554	0.015741982
120	0x3c83899e	0.016056832
121	0xbc88032c	-0.016603075
122	0x3beb8749	0.007187758
123	0x3cf32690	0.029681474
124	0xbb206e04	-0.0024479637
125	0x3d59736a	0.053088583
126	0x3c757f85	0.014984016
127	0x3c03213f	0.008003532
128	0x3ce18e2b	0.027533611
129	0x3c3aab8f	0.011393442
130	0x3bf19913	0.007372984
131	0x3c815766	0.015788745
132	0xba35946b	-0.0006926718
133	0x3c19c228	0.009384669
134	0x3cb70fd4	0.022346415
135	0x3bd123c6	0.0063824384
136	0x3b2ec0c0	0.002666518
137	0x3cd9bbc1	0.026578786
138	0x3c9e88c5	0.019352326
139	0xbc14e4a3	-0.009087714
140	0x3cc14362	0.023591701
141	0x3d330ef4	0.043715432
142	0x3cbedae7	0.02329774
143	0x3c0ce9e8	0.0086006895
144	0x3d63deb5	0.05563231
145	0x3bc09623	0.0058772727
146	0x3d38e9f2	0.045144983
147	0xbab35952	-0.0013683236
148	0xbc19fc82	-0.009398581
149	0xbb5fe8b2	-0.0034165797
150	0x3ccbfc6f	0.024900643
151	0x3c0e784e	0.008695675
152	0x3d1cc7b9	0.038276408
153	0x3c929167	0.017891599
154	0xbbb4c04f	-0.005516089
155	0x3cb357e1	0.02189249
156	0x3cedcdab	0.029028734
157	0xbb8d5aa4	-0.0043137837
158	0x3c1d5ddc	0.009604897
159	0x3caef660	0.021357715
160	0x3cc8cb84	0.024511106
161	0x3cdfaabe	0.027303096
162	0x3b9d5a26	0.0048020063
163	0x3d5f920d	0.054582644
164	0x3d6795fb	0.056539517
165	0x3cdbf332	0.026849363
166	0xbc61ef4e	-0.013789965
167	0x3cd55d80	0.02604556
168	0x3b8cc57b	0.0042960024
169	0x3bcac4c7	0.0061880085
170	0x3d06b461	0.032886866
171	0xbb18b417	-0.0023300701
172	0x3c3fcd6c	0.011706691
173	0xbc95d9b9	-0.018292295
174	0x3c0662e3	0.008202287
175	0x3cc0edeb	0.023550948
176	0x3d155583	0.036458503
177	0x3c5930c8	0.013256259
178	0xbbf713db	-0.0075402088
179	0xbc5eb98f	-0.013594045
180	0x3ce994d8	0.028513357
181	0x3b1e9569	0.0024197942
182	0x38d917bb	0.000103517865
183	0xba4972bb	-0.00076846377
184	0x3d86dba2	0.065848604
185	0x3c61f458	0.013791166
186	0xbb98262d	-0.004643223
187	0xbb8f2112	-0.004367956
188	0x3d074be1	0.03303135
189	0xbad332ea	-0.0016113196
190	0x3cad2bb3	0.021139001
191	0x3c822995	0.015888968
192	0x3d025c8c	0.03182654
193	0x3b1b4226	0.002369055
194	0x3bf6a574	0.007527048
195	0x3b178cf9	0.0023124798
196	0x3bd1d528	0.006403584
197	0x3cda9cb3	0.026686048
198	0x3b675e9b	0.0035304192
199	0xbb130997	-0.0022436136
200	0xbb97044f	-0.004608668
201	0x3d00694a	0.03135041
202	0x3ca96b78	0.020681128
203	0x3b0bf148	0.0021353532
204	0x3a52aab2	0.00080363
205	0x3d1037bb	0.0352094
206	0x3d1ddfa9	0.038543377
207	0x3c445c0b	0.011984835
208	0x3cce0f44	0.025153764
209	0x3d28f86a	0.04125253
210	0x3b642bca	0.003481614
211	0x3ca39ff6	0.019973736
212	0x3cfc9663	0.030833429
213	0x3c3e77fc	0.011625286
214	0x3d861ac6	0.065480754
215	0xbc4c8ef9	-0.012485259
216	0x3cbc3f0d	0.022979284
217	0x3c8520c7	0.016250981
218	0x3a804b29	0.0009788024
219	0x3cd6b448	0.026209012
220	0xbbf27e43	-0.0074003055
221	0x3beeacbd	0.0072837756
222	0xbcba3435	-0.022729972
223	0x3cf664f3	0.030077433
224	0x3b2a675d	0.002600155
225	0x3d438c12	0.047741003
226	0x3b0270fe	0.0019903774
227	0xbbba7fa8	-0.0056914873
228	0x3c1efd67	0.0097039705
229	0xbc2cbcf0	-0.010543093
230	0xbbe612a3	-0.0070212646
231	0xbb8c0fe3	-0.004274355
232	0x3c0cb4b9	0.0085880095
233	0x3c9e8319	0.019349622
234	0x3d58b084	0.052902713
235	0x3bbb89a2	0.005723194
236	0x3c8a2455	0.016863028
237	0xbbb85c20	-0.0056262165
238	0x3c7628b6	0.015024355
239	0x3cd6a28f	0.02620056
240	0x3d333d9c	0.043759927
241	0x3b30a939	0.0026956333
242	0x3ae39c36	0.001736528
243	0x3b4352fa	0.0029804097
244	0x3b198b40	0.0023428947
245	0x3b3c582e	0.0028739083
246	0xbb9c3b9f	-0.0047678496
247	0x3d09a5f0	0.033605516
248	0x3c1c71fb	0.009548659
249	0x3c33872e	0.010957522
250	0x3d51e79f	0.05124628
251	0x3c849aea	0.01618715
252	0x3b9d5506	0.0048013953
253	0x3b47bf00	0.0030478835
254	0x3cac1c99	0.02100973
255	0x3cc0c1bd	0.023529882

network_body._body_endoder.seq_layers.2.weight f4 [256, 256]
0	0x3d0e9384	0.03480865
1	0xbd41e4bd	-0.047337282
2	0x3d3b9cb1	0.04580373
3	0xbdc2e53d	-0.0951638
4	0xbcade58f	-0.021227626
5	0xbdb9d1ae	-0.09073196
6	0xbd00ce48	-0.031446725
7	0xbd97f037	-0.07418864
8	0xbddc5b57	-0.10759609
9	0xbd44921b	-0.0479909
10	0x3df013d4	0.11722532
11	0x3d95de79	0.07317824
12	0x3d557904	0.052117363
13	0x3bb3bf87	0.0054854783
14	0xbddaf6f1	-0.106916316
15	0x3dabe4dc	0.08393261
16	0x3de4bc13	0.11168685
17	0xbd80dcaf	-0.06292092
18	0x3df69910	0.12040913
19	0xb910fc27	-0.00013826844
20	0xbda8b3ff	-0.082374565
21	0x3d1483f0	0.036258638
22	0xbcc94a5b	-0.024571588
23	0x3d8b450f	0.06800281
24	0x3cbeab00	0.023274899
25	0xbc6916a0	-0.014226586
26	0xbdf1786a	-0.11790545
27	0xbd5b8512	-0.053593703
28	0x3d008aa0	0.031382203
29	0x3d571e41	0.052519087
30	0xbe0617ab	-0.13094966
31	0xbd0ebbf4	-0.034847215
32	0xbda08dea	-0.07839568
33	0x3e0d695c	0.13809723
34	0x3c4eb959	0.0126174325
35	0x3deae712	0.114698544
36	0x3d2be952	0.04197056
37	0x3dfdfce1	0.124017484
38	0xbd348caa	-0.04407946
39	0xbcc885df	-0.024477897
40	0xbe33b21a	-0.17548409
41	0x3c85ee1a	0.016348887
42	0x3d7418de	0.059594028
43	0xbd84faeb	-0.06493171
44	0xbd4edd0a	-0.050503768
45	0x3d015900	0.031579018
46	0x3ccc57cf	0.024944214
47	0x3d8849d3	0.06654706
48	0xbc9f1c20	-0.01942259
49	0xbbcdb7a5	-0.0062779956
50	0x3e525342	0.20539573
51	0xbdbfbf1c	-0.09362623
52	0x3cbaf312	0.022820983
53	0x3dae0d18	0.08498591
54	0xbd3a98d0	-0.04555589
55	0x3c2fb064	0.010723207
56	0x3c31ed61	0.010859818
57	0xbde336eb	-0.11094459
58	0xbd8daaef	-0.069173686
59	0x3d57d904	0.052697197
60	0xbd09bfac	-0.03363006
61	0xbd4cfc3d	-0.05004524
62	0x3d10edcf	0.035383042
63	0x3e369efb	0.17834084
64	0xbc9bbd7a	-0.019011248
65	0x3d1dc3f2	0.038516946
66	0x3cc02049	0.023452895
67	0x3bfe8029	0.0077667427
68	0xbd12f618	-0.035879225
69	0x3d9da5bd	0.07697628
70	0xbde5b80c	-0.11216745
71	0x3db6194a	0.08891542
72	0xbc8ccc4f	-0.017187266
73	0x3dbd1a74	0.09233561
74	0xbc62ca8e	-0.013842238
75	0xbd72913c	-0.059220538
76	0x3d0fa9f1	0.035074178
77	0xbd58913c	-0.05287288
78	0x3c977cb9	0.01849209
79	0x3d509002	0.050918587
80	0xbd4eae49	-0.05045918
81	0x3d9ad918	0.075609386
82	0xbdf120a3	-0.11773803
83	0x3dc55234	0.096348196
84	0x3e018332	0.12647703
85	0xbd05fe52	-0.032713242
86	0x3d55b108	0.052170783
87	0xbdf08f8c	-0.117461294
88	0x3c59472e	0.0132615995
89	0xbc2eaecb	-0.010661791
90	0x3e0318b6	0.12802395
91	0xbbfc363e	-0.007696896
92	0xbcffb8ad	-0.03121599
93	0xbd01415d	-0.031556476
94	0xbd5e9e5b	-0.05435024
95	0xbdd269bb	-0.10274073
96	0x3c84187b	0.016124954
97	0x3e054d89	0.13017859
98	0x3c8aa168	0.016922668
99	0x3bd11cc0	0.006381601
100	0xbdaef0cd	-0.08542023
101	0xbd5c96d0	-0.053854764
102	0xbc857549	-0.016291277
103	0x3da5c9fa	0.080951646
104	0x3d48037e	0.048831455
105	0xbc937b9c	-0.018003277
106	0x3d2e202a	0.042511143
107	0xbe7eb526	-0.2487379
108	0x3df88b44	0.12135938
109	0xbcdf0db3	-0.027228212
110	0x3c19cc49	0.009387084
111	0x3d8c2f9b	0.068450175
112	0x3ca065f2	0.019579861
113	0x3ab96dad	0.0014147066
114	0x3e284b94	0.16435081
115	0xbd9329ff	-0.071857445
116	0x3c8cb37c	0.017175429
117	0xbc90d584	-0.017679937
118	0xbd0c1499	-0.03419933
119	0xbb5e91e0	-0.003396146
120	0x3c42d017	0.011890433
121	0x3df1ea05	0.11812214
122	0xbc1304f3	-0.008973348
123	0xbd923641	-0.07139254
124	0x3e0e85ca	0.13918224
125	0x3dfb68c9	0.122758456
126	0xbd089fa9	-0.03335539
127	0x3bb164ff	0.005413651
128	0x3d20ff3b	0.039305907
129	0xbd0fdb30	-0.035121143
130	0x3d481a57	0.048853245
131	0x3e638a58	0.22220743
132	0x3dcf0d07	0.10109907
133	0x3d46619f	0.048432942
134	0x3d3da032	0.046295352
135	0xbc263650	-0.010144785
136	0x3dabacc5	0.083825625
137	0x3c7fef61	0.015621037
138	0x3b4cc601	0.003124595
139	0xbd31e16d	-0.043427873
140	0xbdea7516	-0.114481136
141	0xbd9dc0b0	-0.07702768
142	0x3b08f7a4	0.0020899558
143	0xbc8178f4	-0.015804745
144	0xbd020dbb	-0.031751376
145	0x3d4cbe53	0.049986195
146	0xbd319a92	-0.0433603
147	0x3d0003cf	0.031253632
148	0xbda43d00	-0.08019447
149	0x3c915477	0.017740471
150	0xbca653dd	-0.020303661
151	0x3bf33bc9	0.0074228984
152	0x3dfccafe	0.12343405
153	0x3ce3cbf8	0.02780722
154	0xbcbbedd4	-0.022940554
155	0x3d0608ba	0.032723166
156	0xbc8692b3	-0.016427374
157	0xbda6ca5b	-0.08144065
158	0xbd44e523	-0.048070084
159	0xbdd47e29	-0.10375626
160	0xbe2c976e	-0.16854641
161	0x3e055ad8	0.13022935
162	0x3cd0f821	0.025508942
163	0xbd58f23d	-0.05296539
164	0xbc4c40ab	-0.01246659
165	0x3c83671a	0.016040374
166	0x3d92e867	0.071732335
167	0xbb586cce	-0.0033023837
168	0x3d5a6991	0.053323332
169	0x3bd8ea4e	0.006619728
170	0x3d2f3957	0.042779293
171	0xbcc5c268	-0.024140552
172	0xbe0151f0	-0.12628913
173	0xbc60ebd4	-0.013728101
174	0xbcc81d19	-0.024427937
175	0x3cdff4e2	0.027338449
176	0x3cad8656	0.02118222
177	0xbd2c1de9	-0.042020712
178	0x3c86631b	0.016404679
179	0x3d4d13a4	0.05006756
180	0xbc895204	-0.01676274
181	0xbe0d6fc0	-0.1381216
182	0x3dc332fe	0.0953121
183	0x3cf995a2	0.030466858
184	0x3cba5236	0.02274428
185	0xbc87fbcc	-0.016599558
186	0xbe62ffc2	-0.22167876
187	0x3d7403af	0.059573825
188	0x3c7f9271	0.015598879
189	0xbc5703b2	-0.01312344
190	0x3ca27e22	0.019835535
191	0x3df27c1f	0.118400805
192	0x3c62fc8e	0.013854159
193	0x3d718705	0.058966655
194	0x3ccbf970	0.024899215
195	0xbb8ba3ff	-0.004261493
196	0x3d008352	0.031375237
197	0x3d1bf132	0.03807182
198	0xbcf32bec	-0.02968403
199	0x3c42bbf5	0.011885633
200	0xbc2f7335	-0.01070862
201	0x3c7d0938	0.015444092
202	0xbdc6c543	-0.097055934
203	0x3c59ddb6	0.013297489
204	0x3ce33886	0.027736913
205	0xbdec89ff	-0.11549758
206	0x3c121287	0.00891555
207	0x3d4c97f6	0.04994961
208	0x3d52e51c	0.051488027
209	0xbd603dfd	-0.054746617
210	0xbddf392c	-0.108995765
211	0xbe0b66e6	-0.13613471
212	0xbc9093b3	-0.017648553
213	0xbca2e990	-0.019886762
214	0xbda248ea	-0.079240635
215	0xbd947a9e	-0.0724995
216	0x3d04d7e3	0.032432448
217	0x3d4a99e1	0.049463157
218	0xb8c7634f	-9.507557e-05
219	0x3d5fdc3e	0.0546534
220	0xbe0260b3	-0.127322
221	0xbc339714	-0.010961313
222	0x3ceaac30	0.028646559
223	0x3b498fdf	0.003075592
224	0x3d0b8b7c	0.03406857
225	0xbd02fe50	-0.031980813
226	0xbd99770e	-0.07493411
227	0xbdb305a2	-0.08741309
228	0xba01562e	-0.0004933801
229	0x3ca8cad0	0.020604521
230	0xbd43301b	-0.0476533
231	0xba9f03ff	-0.0012131928
232	0x3cf4290b	0.029804727
233	0x3d6a0cb7	0.057141032
234	0x3dacc1d0	0.08435404
235	0xbdc689f1	-0.09694279
236	0x3d7b7c21	0.061397675
237	0xbe235ef7	-0.15954195
238	0x3d14fef0	0.03637594
239	0x3d77dd83	0.060513984
240	0x3cf920b1	0.030411096
241	0x3d0f6533	0.03500862
242	0xbceab039	-0.028648483
243	0xbc75ed90	-0.015010253
244	0xbc9c5442	-0.019083146
245	0xbde88015	-0.11352555
246	0xbc84abce	-0.016195204
247	0x3d23db81	0.040004257
248	0x3d3f44af	0.04669636
249	0xbc52d9b5	-0.012869288
250	0x3d98594f	0.07438909
251	0x3acfaebc	0.0015844922
252	0x3d800756	0.06251399
253	0xbdad8546	-0.084726855
254	0x3ca28736	0.019839864
255	0x3df602be	0.12012242

network_body._body_endoder.seq_layers.2.bias f4 [256]
0	0x3c479afa	0.012182945
1	0x3cdd9cd2	0.027052317
2	0x3b1f6610	0.0024322309
3	0x3ca224f9	0.01979302
4	0x3ce9deb6	0.02854858
5	0xbbeb21e0	-0.007175669
6	0x3c1a13bf	0.009404122
7	0x3cef2fef	0.029197661
8	0x3ccbad2c	0.024862848
9	0xbc1b21fa	-0.00946855
10	0xbc2eae03	-0.010661605
11	0x3ca2d89d	0.01987868
12	0x3cb2d05f	0.021827875
13	0x3c540ced	0.012942535
14	0x3c0f6d66	0.00875411
15	0x3ba82aeb	0.0051320693
16	0x3c545170	0.012958869
17	0x3b3b4d49	0.002858
18	0x3c5dac35	0.013529827
19	0x3c3d89df	0.011568516
20	0x3cb63b52	0.022245083
21	0x3bb7d2ca	0.005609845
22	0x3cc329f3	0.023823714
23	0x3ccf7223	0.02532298
24	0xbb82a5d4	-0.0039870534
25	0x3c58435a	0.013199652
26	0xbc157cec	-0.009124022
27	0x3c5c0e5b	0.013431157
28	0x3c25a962	0.010111185
29	0xbb19a912	-0.002344672
30	0xbb4cbe7a	-0.0031241463
31	0xbc28c8fd	-0.010301826
32	0x3cac063a	0.020999063
33	0x3d04f658	0.032461494
34	0x3ceedb67	0.029157354
35	0xbb07cbfa	-0.0020720945
36	0x3b876827	0.004132289
37	0x3b701989	0.0036636314
38	0x3bbad6b8	0.005701866
39	0x3cbc5977	0.022991879
40	0x3b9b7bf4	0.004745001
41	0x3cd2b501	0.025721075
42	0x3bfa62a5	0.007641154
43	0xbc61b9d9	-0.01377722
44	0x3a8c3d7e	0.0010699478
45	0x3ca13a6d	0.01968118
46	0x3cc43ff1	0.02395627
47	0x3b4a1df3	0.0030840605
48	0x3b4ba7dd	0.0031075396
49	0xbb8b8c49	-0.0042586667
50	0xbc42789d	-0.011869577
51	0x3c403fbc	0.011733945
52	0x3c70deaf	0.014701529
53	0xbb326e8c	-0.0027226536
54	0xbb16738d	-0.0022957057
55	0xbc1b42ec	-0.009476405
56	0x3c7a45b2	0.015275406
57	0xbc9cf93a	-0.01916181
58	0x3bf9df34	0.007625485
59	0x3caf1dcd	0.021376515
60	0x3cce71f0	0.025200814
61	0xbc66afd8	-0.01408001
62	0x3bd09d63	0.006366418
63	0x3cb9b46e	0.022669043
64	0x3ce5e6ba	0.02806412
65	0x3ae56293	0.0017500691
66	0x3cecff07	0.0289302
67	0x3cab7610	0.02093032
68	0x3ce0cafe	0.027440544
69	0xbba3a59b	-0.004994107
70	0x3c311fb9	0.010810786
71	0xbc3a70ed	-0.011379463
72	0x3c872662	0.016497795
73	0xbb3f3d73	-0.0029180914
74	0x3c83f1f1	0.016106578
75	0x3c327022	0.010890992
76	0xbb4617fd	-0.00302267
77	0x3bcf54cf	0.0063272486
78	0x3c8f10fc	0.017464153
79	0xbb7aff83	-0.003829927
80	0xbbdde197	-0.006771277
81	0x3c72441a	0.0147867445
82	0xbb618919	-0.0034413992
83	0xbb032b01	-0.0020014646
84	0xbb6a835c	-0.0035783863
85	0xbb3201cc	-0.0027161716
86	0x3cf0b853	0.029384768
87	0x3c87f8d5	0.016598145
88	0x3c9a4bff	0.018835066
89	0xbbbad35b	-0.005701465
90	0xbc1fb0e9	-0.0097467685
91	0x3c9c1fdb	0.019058159
92	0xbbbb1d29	-0.0057102633
93	0xbb0591fd	-0.0020381205
94	0xbba06ccc	-0.004895782
95	0x3b8ccb33	0.004296684
96	0x3c99845c	0.018739872
97	0x3c08df35	0.008353998
98	0x3cecb43b	0.028894534
99	0xbc1d03c0	-0.009583414
100	0x3c1df193	0.009640115
101	0x3c9e9ef4	0.019362904
102	0x3c74f670	0.014951333
103	0x3b52e7e0	0.0032181665
104	0x3c9287f0	0.017887086
105	0xbae1d57f	-0.0017229764
106	0xbbc86cad	-0.006116471
107	0xbbf22dcd	-0.007390714
108	0x3c853ed1	0.016265305
109	0xbbe17d1f	-0.0068813707
110	0xb9e1e586	-0.00043086353
111	0xbc8222a5	-0.01588566
112	0x3b3ad2fe	0.0028507109
113	0x3cac055e	0.020998653
114	0x3b92328c	0.004461592
115	0x3d0acc36	0.033886157
116	0x3b40953d	0.0029385828
117	0x3cf43ca9	0.029814081
118	0xbb5e541d	-0.0033924647
119	0xbb2a84e9	-0.0026019162
120	0x3c0a344d	0.008435321
121	0xbb977b32	-0.0046228403
122	0x3cbeda18	0.023297355
123	0x3c51c64f	0.012803628
124	0x3c8c7841	0.017147185
125	0x3c82f90c	0.015987895
126	0x3c9ac8a3	0.0188945
127	0x3ca19f9d	0.01972943
128	0x3d1a7aed	0.037714887
129	0x3d1212b0	0.035662353
130	0x3d203625	0.039114136
131	0x3c4df834	0.012571383
132	0x3c1be047	0.009513921
133	0x3b98359a	0.0046450617
134	0xbb66a460	-0.003519319
135	0x3cb60c26	0.02222259
136	0x3c47b2ad	0.012188596
137	0x3cdb7ea7	0.026793791
138	0x3c508e89	0.0127292955
139	0x3ce6599b	0.0281189
140	0x3bc731aa	0.0060789185
141	0x3c8c354d	0.01711526
142	0x3b8abc4d	0.004233873
143	0xbab14202	-0.00135237
144	0xbb9f7cd6	-0.0048671765
145	0x3c6a859b	0.014314081
146	0x3cd05d87	0.025435222
147	0xbb6f6c7a	-0.0036533163
148	0x3c359137	0.011081985
149	0x3a1929a1	0.000584269
150	0x3a8308df	0.0009997151
151	0x3c7c01a1	0.015381248
152	0xbc034454	-0.008011896
153	0x3c137da7	0.009002126
154	0xbc17f1e0	-0.009273976
155	0x3c021862	0.007940384
156	0x3c77542c	0.015095752
157	0xba5160e4	-0.0007987155
158	0x3c0d5444	0.0086260475
159	0xbc6affc9	-0.0143432105
160	0x3c0cbd03	0.008589986
161	0x3cbff67a	0.023432959
162	0xbbae7864	-0.0053244103
163	0xbc37a44d	-0.011208606
164	0x3c101cd3	0.008795935
165	0x3c25f831	0.010129974
166	0x3c43769b	0.011930133
167	0x3c6f2653	0.01459654
168	0x3c285e2b	0.010276358
169	0xbaa817c5	-0.0012824467
170	0xbb20a343	-0.0024511374
171	0x3b62e7e9	0.0034623093
172	0x3cb4e80b	0.022083303
173	0xbb5f562e	-0.0034078467
174	0x3aec20df	0.0018015167
175	0x3c942bff	0.018087385
176	0xb9ce6ad0	-0.00039370963
177	0x3b5a44cf	0.0033305173
178	0xba58b3e8	-0.0008266554
179	0xbb63fbe8	-0.00347876
180	0x3d205c62	0.039150603
181	0x3b844f26	0.0040377555
182	0x3b2f2c90	0.0026729442
183	0x3c61c75f	0.013780444
184	0x3c971f40	0.018447518
185	0xbb12fd53	-0.0022428825
186	0xbb76e577	-0.0037673393
187	0x3d29ed4b	0.041486066
188	0x3b0c51e1	0.0021411108
189	0x3bc37777	0.005965169
190	0x3b6da724	0.0036262954
191	0xba01de5f	-0.00049540953
192	0x3c8c32bf	0.017114041
193	0x3c7803ac	0.015137594
194	0xbc44d27b	-0.012013073
195	0x3c884fb6	0.016639572
196	0x3b557db9	0.0032576157
197	0x3b81d67d	0.0039623366
198	0xbb3b2170	-0.0028553866
199	0x3cdcca2a	0.026951868
200	0x3cbe1b91	0.023206504
201	0x3c007639	0.0078406865
202	0x3c7f0fbc	0.015567716
203	0x3c959d0c	0.018263362
204	0x3c68024b	0.014160703
205	0x3a0092ad	0.0004904669
206	0x3c35202a	0.011055032
207	0x3cd1616d	0.025559152
208	0xbc3077c4	-0.010770742
209	0x3c3bd21d	0.011463669
210	0x3c721262	0.014774891
211	0x3c2b51a5	0.010456477
212	0x3ce1e85d	0.02757662
213	0x3b746ea2	0.0037297388
214	0xbc654329	-0.013993063
215	0x3c39c71b	0.011338974
216	0x3ccf345d	0.025293523
217	0x3bbd084c	0.0057688113
218	0x3d148e50	0.036268532
219	0x3c1f0316	0.009705326
220	0x3c658a7d	0.014010069
221	0xbc245a78	-0.010031335
222	0xbc7914ad	-0.015202683
223	0x3cfb408c	0.030670427
224	0x38d7fd37	0.00010299164
225	0x3cf77f42	0.030212048
226	0x3bd63641	0.0065372293
227	0x3bc645ad	0.0060507865
228	0x3b99316d	0.0046750815
229	0x3b96b0f2	0.0045987302
230	0x3b5affd8	0.0033416655
231	0x3c832a6a	0.016011436
232	0x3ce214ed	0.027597869
233	0xbc700ecf	-0.014651968
234	0x3ca51852	0.020153198
235	0x3c91a9e1	0.0177812
236	0x3c5d53b2	0.013508724
237	0x3c0c3dbc	0.0085596405
238	0x3c8fc039	0.017547714
239	0x3bdd2c76	0.006749685
240	0x3c9793dc	0.018503122
241	0x3c1c2bff	0.009531974
242	0x3c4534bb	0.012036498
243	0x3bf572f1	0.0074905087
244	0x3c602343	0.013680282
245	0xbbf0024d	-0.007324493
246	0x3cb9bba1	0.022672476
247	0x3bd2ebf2	0.0064368183
248	0xbbd31994	-0.006442258
249	0x3bae90c3	0.0053273155
250	0xbba2b9a5	-0.004965978
251	0x3c6bf4e3	0.014401647
252	0x3b56af5a	0.0032758326
253	0x3d1641e0	0.036683917
254	0x3cbf7f90	0.023376256
255	0xb9f1bbe7	-0.000461071

action_model._continuous_distribution.log_sigma f4 [1, 5]
0	0xbe1c1aaa	-0.15244547
1	0xbdfdbfec	-0.12390122
2	0xbe2a3239	-0.16620721
3	0xbc71fe47	-0.014770097
4	0xbd34c6f3	-0.044135045

action_model._continuous_distribution.mu.weight f4 [5, 256]
0	0xbcdb5ddd	-0.026778156
1	0x3c9bfe8d	0.019042278
2	0xbc265e8a	-0.010154376
3	0xbcb8cd8b	-0.022558948
4	0x3cd83316	0.026391547
5	0x3c81d732	0.015849683
6	0xbd7efff1	-0.062255803
7	0x3cebeb83	0.028798824
8	0x3d5d8589	0.054082427
9	0xbc11befc	-0.008895632
10	0xbd665e3a	-0.056242205
11	0xbcf3759e	-0.02971917
12	0xbc2de1e4	-0.010612939
13	0xbd50963a	-0.050924517
14	0x3b5700ac	0.0032806797
15	0xbd0fd80f	-0.03511816
16	0xbbede32c	-0.007259747
17	0xbc9a0021	-0.01879889
18	0xbb530d89	-0.0032204113
19	0x3b5e0aeb	0.003388102
20	0x3a688587	0.0008869995
21	0x3d1cbacd	0.038264085
22	0x3d681edf	0.056670066
23	0xbbe03ee2	-0.0068434337
24	0xbb42e2e4	-0.0029737288
25	0xbcb5858e	-0.02215841
26	0x3c007efe	0.007842777
27	0xbd5ba536	-0.053624354
28	0x3d28b0f4	0.04118438
29	0xbc17aebe	-0.00925797
30	0x3c90bf5e	0.017669376
31	0x3d6e390e	0.05815988
32	0xbcc23c7e	-0.023710486
33	0x3d696d44	0.05698897
34	0x3c7f2709	0.015573272
35	0xbb723cfb	-0.0036962617
36	0x3d041c1e	0.032253377
37	0xbd198db6	-0.03748866
38	0xbdb981a0	-0.09057927
39	0x3be8c07d	0.0071030245
40	0xbc6ed2d4	-0.0145766325
41	0x3ba1b2a4	0.0049346257
42	0x3c2a0e0f	0.010379328
43	0x3bbba235	0.0057261237
44	0x3ce027aa	0.027362663
45	0x3d208daf	0.03919762
46	0xbc7d877e	-0.015474198
47	0x3ca219a2	0.019787613
48	0xbbffe6c6	-0.0078094928
49	0xbccb6e3e	-0.024832841
50	0x3cd593b0	0.0260714
51	0x3d358621	0.04431737
52	0xbc2e83e0	-0.010651559
53	0x3d60dfbf	0.05490088
54	0x3d26885a	0.04065738
55	0xba31acc1	-0.00067777565
56	0xbd0e07a7	-0.034675267
57	0xbc40f0a0	-0.0117761195
58	0xbcdcf6ea	-0.026973207
59	0x3d2f83b4	0.04285021
60	0x3cd9d00d	0.026588464
61	0xbc7f3ce3	-0.015578481
62	0xbcdf1a77	-0.0272343
63	0xbd8a89f1	-0.067645915
64	0x3c175bfd	0.00923824
65	0x3d39edf7	0.045392957
66	0x3da9074e	0.082533464
67	0xbc811671	-0.015757771
68	0x3c286835	0.010278751
69	0xbc868acf	-0.016423611
70	0xbc9c341f	-0.019067822
71	0xbd289b32	-0.04116363
72	0xbcb369a8	-0.021900967
73	0x3ca04e6e	0.019568648
74	0x3d873952	0.0660273
75	0xbd35a5ce	-0.044347577
76	0xbc5257d9	-0.012838327
77	0x3cd37be9	0.02581592
78	0xbd928fc7	-0.071563296
79	0xbce58e78	-0.028022036
80	0x3c385c7b	0.011252518
81	0xbc933111	-0.017967733
82	0x3d3fc594	0.046819285
83	0xbd64c2dc	-0.055849895
84	0xbc80ccb2	-0.015722606
85	0xbd2d74cc	-0.042347714
86	0xbd8b8912	-0.068132535
87	0xbd151617	-0.03639802
88	0xbbb8fd33	-0.005645418
89	0xbba17b2c	-0.0049280133
90	0x3c6c1027	0.014408148
91	0xbc5f2550	-0.013619736
92	0x3c77c720	0.015123159
93	0xbcd87b21	-0.0264259
94	0xbca66b7f	-0.02031493
95	0x3c96b0c0	0.018394828
96	0xbca878d5	-0.02056543
97	0xbd58c842	-0.052925356
98	0x3bedcbb6	0.0072569503
99	0xbcaa0b77	-0.02075742
100	0xbaee4c23	-0.001818065
101	0x3cd6b310	0.02620843
102	0xba5553ee	-0.00081378117
103	0xbc4e596f	-0.012594565
104	0xbb94240d	-0.004520899
105	0x3af4fd70	0.0018691253
106	0xbda8961a	-0.082317546
107	0xbd5d0318	-0.05395803
108	0xbb7e6966	-0.0038820147
109	0x3cc78532	0.024355505
110	0x3d8baa20	0.06819558
111	0xb9efa427	-0.00045707935
112	0x3d9b23f7	0.07575219
113	0xbd484a6a	-0.04889909
114	0xbd920d2e	-0.0713142
115	0xbcc97eaf	-0.02459654
116	0x3caba782	0.020953897
117	0xbc96c624	-0.018405028
118	0xbc3b0f60	-0.01141724
119	0x3c5f5ce7	0.0136329895
120	0xbda0deb8	-0.0785498
121	0x3d2cb300	0.042162895
122	0x3d128e86	0.035780452
123	0xbcc6807f	-0.024231194
124	0xbdb6780a	-0.089096144
125	0xbc88a744	-0.016681321
126	0xbd914209	-0.07092673
127	0x3d7d379c	0.06182061
128	0x3c445ad7	0.0119845485
129	0x3c57c889	0.01317037
130	0xbb053508	-0.0020325799
131	0xbd4a65a1	-0.049413327
132	0x3cc5a654	0.024127163
133	0xbce04510	-0.027376682
134	0x3c9c91f8	0.019112572
135	0x3da0b576	0.07847111
136	0x3cb56cd9	0.02214663
137	0xbd250026	-0.040283345
138	0x3da69bff	0.08135223
139	0xbc37ec8d	-0.011225832
140	0xbcaf9a70	-0.021435946
141	0x3c143177	0.009044996
142	0x3c64719f	0.013943105
143	0x3d9811cc	0.074252695
144	0x3d1d02c3	0.038332712
145	0xbc136226	-0.008995568
146	0x3d968c58	0.07350987
147	0x3c1485ca	0.009065101
148	0xbcfcff9a	-0.0308836
149	0x3d193ebd	0.037413348
150	0xbcacf1ef	-0.021111457
151	0x3c694b26	0.014239108
152	0xbc043073	-0.008068192
153	0xbdc9f0b7	-0.09860366
154	0xbd4b7e64	-0.049681082
155	0x3c604818	0.0136890635
156	0xbce6495d	-0.028111154
157	0xbd413604	-0.047170654
158	0x3c79300f	0.015209212
159	0x3d047339	0.032336447
160	0xbcb6887e	-0.022281881
161	0x3cc7674b	0.024341246
162	0xbb8e8703	-0.0043495907
163	0xbc039722	-0.008031638
164	0xbd8a7692	-0.06760897
165	0x3c8d9f8c	0.017287992
166	0x3d045a65	0.03231277
167	0xbd5594f6	-0.052144013
168	0x3cbd6ac4	0.023122199
169	0xbb9e4549	-0.004830037
170	0x3cbeeb91	0.023305686
171	0xbb90603f	-0.0044060047
172	0x3bf01a7a	0.007327375
173	0xbd050907	-0.032479312
174	0x3ca7c3b8	0.020479068
175	0x3cce7814	0.025203742
176	0x3d3d3e3f	0.04620194
177	0x3d948727	0.07252341
178	0x3d99b856	0.075058624
179	0x3d043d94	0.032285288
180	0xbd0d4bee	-0.03449624
181	0xbcce6419	-0.025194215
182	0xbd51f2c8	-0.051256925
183	0xbb98a838	-0.004658725
184	0xb99f01c9	-0.00030328173
185	0x3d935f34	0.07195893
186	0x3d175873	0.036949586
187	0x3d3a4404	0.04547502
188	0x3daf526f	0.08560645
189	0xbd1a87e1	-0.03772724
190	0x3bddb4f2	0.006765955
191	0x3cb42536	0.0219904
192	0x3d5e5349	0.054278646
193	0xbcd1a18d	-0.025589729
194	0xbd11f9d5	-0.03563865
195	0x3d1b1055	0.037857372
196	0xbd705109	-0.05867103
197	0xbd15063e	-0.036382906
198	0xbd801af9	-0.062551446
199	0x3cbdffb4	0.023193218
200	0x3c184791	0.0092944065
201	0xbd271555	-0.04079183
202	0xbd1ed446	-0.03877666
203	0x3d826854	0.06367555
204	0x3d7b6e37	0.061384406
205	0xbd95e5f2	-0.07319249
206	0xbb7e2c12	-0.0038783592
207	0x3cde1e81	0.027114155
208	0xbd379276	-0.04481741
209	0x3c0f9026	0.008762395
210	0x3dac6efa	0.084196046
211	0x3d214f15	0.03938206
212	0x3ca7d135	0.0204855
213	0x3d3a3c9b	0.045467954
214	0x3d03c8ea	0.03217403
215	0x3d6891ec	0.056779787
216	0x3c7ab157	0.01530107
217	0x3d6f0b48	0.058360368
218	0xbc05cd9c	-0.008166697
219	0x3ce8f9a4	0.02843935
220	0xbd0bb3f6	-0.03410717
221	0x3d11d894	0.035606936
222	0x3ca91e33	0.020644283
223	0xbcabea14	-0.02098564
224	0x3d639718	0.055564016
225	0x3c9fc267	0.019501878
226	0xbbfb266c	-0.0076644924
227	0xba48610c	-0.00076438556
228	0x3c3bf413	0.011471766
229	0xbd42ac36	-0.047527514
230	0x3c4b8b1c	0.012423303
231	0x3d049f01	0.0323782
232	0x3c49b75f	0.0123117855
233	0xbcf25d5d	-0.029585535
234	0x3d0a92e9	0.03383151
235	0xbd79b6cc	-0.060965344
236	0xbd68d5a1	-0.056844357
237	0xbda28728	-0.07935935
238	0xbd5d3063	-0.054001223
239	0xbcd79064	-0.026313968
240	0xbb8ba334	-0.0042613987
241	0xbc9562f6	-0.018235665
242	0xbc68f93a	-0.0142195765
243	0xbc8edf95	-0.017440597
244	0x3b14ce48	0.002270596
245	0xbd0981e5	-0.033571143
246	0x3cbf9922	0.02338845
247	0xbd8b87ea	-0.06813033
248	0xbd891b98	-0.06694716
249	0xbb3d2c83	-0.0028865642
250	0xbd5145ba	-0.051091887
251	0xbdc631c5	-0.096774615
252	0x3a84a50d	0.001011999
253	0x3cac85fd	0.021059984
254	0xbc7eeeea	-0.015559891
255	0x3db8a25d	0.09015343

action_model._continuous_distribution.mu.bias f4 [5]
0	0x3a67edf7	0.000884741
1	0x3ca54423	0.020174092
2	0xba2e6966	-0.0006653279
3	0x3c4152a4	0.011799488
4	0xbbb1f64b	-0.0054309717
