results/hb_01/Hummingbird/Hummingbird-499968.onnx (onnx, 318566 bytes, 7 tensors)

network_body._body_endoder.seq_layers.0.weight f4 [256, 46]
00000000: 8ef3 6dbe f917 823e 8a92 f3bd fb42 b7bc
00000010: 9634 273e 0ea1 503c f4c4 5bbe 2397 433e
00000020: fb48 ed3c d42b 553e bf7f 60bc ec3a fd3d
00000030: 076f 223d fa27 51be c293 f5bd 0316 973d
00000040: ef61 14be 14ff 0c3e b106 a8bd 39a4 86bd
00000050: 55fb 5cbe 337b 443e b815 703d ba6c 8dbd
00000060: 287d 8dbd bda9 9cbd eacc dabd 68a5 37bd
00000070: 053d cabd c763 d0bd bdcc ab3c 40d4 e63d
00000080: aa26 ac3e 0aed b8bc 88b4 1c3e 8e89 893d
00000090: 05ba 8b3d 0244 923c 63c0 003e 5fa7 643d
000000a0: 02f0 0c3e 88e8 4abd f8c2 733c 8f10 b5be
000000b0: d4a8 24be 7317 d53c b077 c13d cc91 823d
000000c0: 45e3 ee3d f409 f73c ad12 eebd 6808 0b3e
000000d0: f20f 853e 734c 343e 661e dfbd 11f7 b33d
000000e0: 6d67 c33c 293c 0ebe be22 d7bd ae03 fc3d
000000f0: 112c 20be ebfb 2b3c 9a93 f8bc 051c ad3d
00000100: 7f11 0a3e 801e c63b 98bb 083d eb36 dfbd
00000110: 81f1 373e e6a1 613e b38f 14be 67a9 ad3c
00000120: 6044 153d 678c abbc 2754 033e b245 76bb
00000130: 5c01 f93d 1b53 f33d 848a fc3b a823 cabe
00000140: c6be 26be 0275 e0bd 4825 a43d 7f2e 2fbc
00000150: f7c3 f93d bc4d abbd efad 643d e237 153d
00000160: 7d7a 553e eb9b b7bd 1ae8 bcbe 303d 633d
00000170: 6269 5cbe 5a8c de3d 1645 633d 1a63 983d
00000180: c3de d4bc 38de ae3c 4b83 74be 26a7 79bd
00000190: df0e 843e 735e 7a3e a56b be3d 0cb2 2a3e
000001a0: 6965 ce3d 313a eb3d 62fc 37bc 2ff6 26be
000001b0: 12cd e33d 6d2b 923d 779b a0bc 2863 b83d
000001c0: 1ea8 2dbe 48ea 123e 6370 05be f699 0cbe
000001d0: 8c0c adbd bac4 6fbd 8f8e 02be 09a2 8d3e
000001e0: fe7a 32bd 8e8e b7bd af07 4abe 424d c3bd
000001f0: 8092 ce3e b496 d73d 43ec 4dbe 348b 80bd
00000200: 52e9 24bd 8ebd 88be 331a e8bc b0b1 a3bd
00000210: 48f3 323d 7040 393e 18cb cfbd bdf7 173e
00000220: 52d7 84be 8b4d 8cbd c09e 983d 1810 5dbe
00000230: 1745 35bc 5f16 333e 41cc 52bb 13a0 153d
00000240: eb4a a53e a367 14be d6e6 aa3d 5e9f 4a3d
00000250: d960 ffbd e016 2e3e a81e 253a 861a ebbd
00000260: 6a26 103e 1b0f 113e 6ab4 513e b4c2 7a3d
00000270: 9ef2 2d3d 9165 5eba 1874 a2bd 7860 52be
00000280: 2a2a 18be b9b9 ea3d b995 8e3d 4c05 1b3e
00000290: fd31 a2bd 0d12 32be a5be 25be ab14 29be
000002a0: 3472 1ebd 3442 6dbd 8a5a 993e b465 e33d
000002b0: c490 f03d 0e41 93bd be85 11bb a120 43bd
000002c0: b6ec bebe 55c4 f23d 2666 09be 9b95 7e3e
000002d0: a0a6 a1bd ad58 4a3e c2ad 623e 803a c53e
000002e0: b65a 043e 9356 ae3d 4a5d 123e 3ab8 243d
000002f0: b154 f6bd 6116 3ebd addc 853c 9129 083d
00000300: efe5 8a3d 7663 6cbd e9e1 0abe 8e5f 8c3d
00000310: 0eea a2bd e02a 46be 61a3 073e 5c6d 233d
00000320: 0c8e 3fbd 54ea a33c 718b e93d c171 073e
00000330: b660 07be a9b2 d83c 9945 66bd e6fc 1fbd
00000340: 9e34 1f3e c387 c3be 1a1d d4bc f180 b8bd
00000350: 3c07 e3bd b9f2 3cbc fa4f fbbd 0f45 69bc
00000360: 1495 38be 08d0 a9be 8fc0 a2bd f9a0 fa3d
00000370: 931e 7fbe 4aa3 c73d 92cc 3bbe c4e8 83b9
00000380: 2cf6 a23e fa90 99be 52ee 1cbd b8b1 8c3d
00000390: 741e c7bd e1bc 203e ba01 4cbd d7d1 c33c
000003a0: 6757 50be 0aa7 883e e781 543d a1f9 393d
000003b0: 9685 8b3d cc49 3fbd e701 cd3d 4898 d53c
000003c0: 253f 193d 5222 52be a07e 923d 4786 233e
000003d0: 1d24 82bd 5db9 ba3c 8b03 823d d046 7b3e
000003e0: 8a28 183d 0abd 6fbe fb5f fcbd 1d0f 4dbe
000003f0: 43b4 c0bd e2f9 2e3e c508 7bbe f86e 833e
-0.2323744 0.25408915 -0.118931845 -0.022370806 0.16328654 0.012733711 -0.2146185 0.19100623
0.028965464 0.208175 -0.013702332 0.12364754 0.039656665 -0.20425406 -0.11991073 0.07377245
-0.14490484 0.1376918 -0.08204401 -0.06574292 -0.2158025 0.19187622 0.058614463 -0.069055036
-0.06908637 -0.076495625 -0.106836155 -0.044835478 -0.0987492 -0.10175281 0.02097165 0.11270952
0.33623248 -0.022573967 0.15303242 0.067156896 0.0682259 0.017854694 0.1257339 0.05582368
0.1376343 -0.049538165 0.014878027 -0.35364196 -0.16080028 0.026012158 0.09446657 0.06375465
0.11664442 0.030156113 -0.11624656 0.13577425 0.25988728 0.17607288 -0.1089447 0.087873586
0.023853028 -0.13890137 -0.105046734 0.12305389 -0.1564181 0.010497074 -0.03034382 0.0845261
0.13483237 0.0060461164 0.03338203 -0.10899147 0.1796322 0.22034416 -0.14507942 0.021198941
0.03644216 -0.020940972 0.1282507 -0.0037578163 0.121584624 0.118810855 0.007706942 -0.3948033
-0.16283712 -0.109598175 0.08014923 -0.010692238 0.121955805 -0.08364436 0.05582994 0.036430247
0.20847507 -0.08965286 -0.3689583 0.055478275 -0.21524575 0.10866614 0.055485807 0.07440777
-0.025985127 0.021346197 -0.2387821 -0.06095042 0.25792596 0.24450092 0.09297875 0.16669482
0.10077936 0.114857085 -0.011229606 -0.16304849 0.111230984 0.07137189 -0.019605381 0.090032876
-0.16958663 0.14347184 -0.13031153 -0.13730606 -0.08449659 -0.058537222 -0.12749694 0.27662686
-0.043574326 -0.08962737 -0.19729494 -0.0953622 0.40346146 0.10526791 -0.20109658 -0.06276551
-0.040261574 -0.2670712 -0.028332805 -0.079928756 0.043689042 0.18090987 -0.10146159 0.14840598
-0.25945526 -0.06850728 0.07452154 -0.2158817 -0.011063836 0.17489003 -0.0032165202 0.03652961
0.3228372 -0.1449266 0.0834481 0.04946839 -0.12469644 0.17000914 0.00062988186 -0.11479668
0.14077154 0.14165919 0.20478979 0.06122084 0.042467706 -0.00084837625 -0.079322994 -0.20544612
-0.14859834 0.11461205 0.06962151 0.1513874 -0.07919691 -0.17389698 -0.16186006 -0.1651179
-0.03868313 -0.057924464 0.29951888 0.11103383 0.11746362 -0.071901426 -0.002220496 -0.04763854
-0.3728997 0.118538536 -0.13417873 0.24861757 -0.07893109 0.1976039 0.22136596 0.38521194
0.12925228 0.085126065 0.142934 0.040214755 -0.12027872 -0.04640806 0.016340578 0.033242766
0.067821376 -0.05771204 -0.1356274 0.06854163 -0.07954799 -0.19352293 0.13245918 0.039899215
-0.046766326 0.020009197 0.114035495 0.13226987 -0.13220486 0.02645238 -0.056218717 -0.039059542
0.15547416 -0.38189515 -0.025892783 -0.090089686 -0.11085364 -0.011532479 -0.12271114 -0.014237656
-0.18025619 -0.33166528 -0.07946884 0.12237734 -0.24914007 0.09747942 -0.18339756 -0.0002515969
0.3182844 -0.2999342 -0.038313217 0.06869835 -0.09722605 0.15697052 -0.049806334 0.02390377
-0.20345841 0.2668994 0.051881697 0.04540408 0.06812589 -0.046701238 0.100101285 0.02607359
0.037413735 -0.20520905 0.07153058 0.15969191 -0.06354544 0.022793466 0.06348332 0.24538732
0.037148036 -0.23411956 -0.12322994 -0.20025297 -0.09409382 0.1708751 -0.24515064 0.256706

network_body._body_endoder.seq_layers.0.bias f4 [256]
00000000: 85d3 a3b9 15b1 9e3a 7b46 9f3b 0cc1 993c
00000010: fa37 e33b 392e 803b 6098 e03b 4bab 93bb
00000020: 87bc c03b 37a2 713b a33b 1d3c 86a7 e43c
00000030: e8d5 b63c 72ca 0f3c a87d 5c3c ebac e4bb
00000040: fe1b 773b 177d 76bc 3a1c afbb 703d 143c
00000050: 196b 673b 2e5d 2e3c 45ef 183c 15bb 413c
00000060: 7853 c83c d735 103c 415f 36ba 1c3e 29bb
00000070: 2d8c 013c 4229 f2bb 9a69 98bb 369b 2fbc
00000080: 5626 623c 57af 403c 5edd 1c3c 9035 b23b
00000090: a9c5 723c d305 9a3c 20ce 63bc d795 7c3b
000000a0: 909f db3b 2374 003c 1bfe 233b 309c dbb8
000000b0: cf2e a93a ff0b 953c 5678 c1b9 96e7 49bc
000000c0: a37c 183b 7f7e 46bc 8ab7 6d3b 5745 683c
000000d0: 4456 593c d62e 86bb d3d8 e5ba 8efd 663c
000000e0: 1f3f 003d ee5a 89ba 589a 7bbb a4bc 4c3c
000000f0: 19da 81bb c4e0 31bc 21cf 1d3c 41ea 663b
00000100: 9882 bf3c 224d eebb 5d63 873b 73d6 fe3a
00000110: cc2f 6b3c 5ff9 6dbb bdf2 cc3a dce0 e83a
00000120: 746b 7d3b 22da ac3c c73b b6bb 0df6 4c3c
00000130: 46f2 79bb 80b3 12bc 3814 873b e1e1 17bc
00000140: 5e28 ecbb 0a8d c83b 1757 1abb 2955 1b3b
00000150: 14d2 ac3b 38a1 8d3b ca2f 6bbc a346 d73a
00000160: a7f7 313a 5756 87bc 6d91 8ebc da28 7dbc
00000170: eeaa 723c a6ed a43b aaa0 b53b f8b5 aebb
00000180: f077 5c3b a68b 9c3c e06b aa3c ee03 4c3c
00000190: 696a ceb9 d81b fa38 fe1b 683c b3a6 c439
000001a0: 8b9d 09bc 535b 93bb 2312 0e3c 2c5d 403b
000001b0: 54c6 bc3c 0309 aa3a 9bd7 19bc 30fe 223c
000001c0: c156 963b fbb2 a43b d53b 2ebb 17ab 173c
000001d0: 81d6 203c 2900 20bb 29da 3cbc 51f3 b9ba
000001e0: dc7d db3b af36 f4bb 1013 a4b7 ef52 7e3b
000001f0: e25b c53a b13c be3b 4a52 e53b 30e7 513b
00000200: b9a1 de3c 50fa c139 f447 2c3c cc93 f9ba
00000210: 5b7c 40bc 1609 a83b bfbe 733c 5efb 463b
00000220: 2320 753a dd57 533b 5fd8 6c3c 4ae7 8d3b
00000230: 34bd 5f3b dbc5 5abb 7718 0d3b 7d19 263c
00000240: ed8c c2bb 2c7d c03c c2be b1bb f003 89ba
00000250: 6e08 003d 6bbc e53b ffa4 893c d2ac c2b9
00000260: e173 31bc 7296 993c addd 43bc 1885 9c3c
00000270: 157e ef3a 9c81 c93c 75ab c3bb 772f be3c
00000280: c090 afba c677 c73b b2da 9bb9 5532 34bc
00000290: e05a 8639 97d2 193c e722 efba 29da bb3c
000002a0: a887 78bc 8b7b 853c daf1 3cba 062c fdbb
000002b0: dbe2 0a3c afb6 863c c9ce 6c3b 22ca 66ba
000002c0: 44e7 5f3b 6521 a9ba f00e 6c3c 3c2b 7c3c
000002d0: 5144 373c 3d66 a63b 1825 203b 02d6 bebb
000002e0: e39f 5abc 3104 1a3b 3e28 26bc e5a3 87bc
000002f0: b31e 7a3c 3756 ac3b c843 863c 69c2 823b
00000300: 5cc2 8d3b ae4f e33a 6220 d63b 8232 81bc
00000310: d99f ae3a 5fb7 9e3b 3222 c4bb c1a3 49ba
00000320: f361 433b 5cf3 24ba ebd3 f63b 0f32 bd3b
00000330: 2723 5d3c 2f8e cf3a 1cbc 34bb 8c07 273c
00000340: d798 acba 42ad 7f3c aa0c 6b3b d96a e33b
00000350: 4860 d6bb c235 d63b 1f3d ae3b 0704 1abc
00000360: 68a4 c3bb 2b23 55bc 0a53 243c 1c05 d6b7
00000370: 4827 953b 78c1 e13b 282d 4a3c c363 acba
00000380: 15b2 aa3c c023 353c 3b24 1dbb 9764 cabb
00000390: 09c1 0a3c a882 20ba a2f0 6d3c e56e a43c
000003a0: 2804 e3bb 4221 efbb a059 79bb 973a 403b
000003b0: a9d6 383b 8886 7d3c 84c3 8dbb d705 ab3a
000003c0: ec13 2d3c d5e8 543c 3d63 203c 04da dd39
000003d0: f512 62bc 4ed1 e7ba 4132 76bb 2f61 ce3c
000003e0: 867b 47bc 0525 d83b bc6f b9bc 5905 0abb
000003f0: 5b3a a7b9 bc5e fcbb 27c9 5c3c 11d9 f0bb
-0.00031247377 0.0012107218 0.004860697 0.01876881 0.006934163 0.00391176 0.006854102 -0.0045065037
0.005881849 0.003687037 0.009596738 0.027911913 0.022318795 0.008776294 0.013457693 -0.0069786212
0.0037705894 -0.015044472 -0.005343941 0.009047851 0.0035311638 0.010642333 0.00933439 0.011824389
0.024453864 0.008801899 -0.0006956943 -0.0025824374 0.007906956 -0.007390172 -0.0046512606 -0.0107181575
0.013803085 0.011760554 0.009574262 0.005438514 0.014817634 0.018801605 -0.0139041245 0.003854146
0.006702371 0.007840189 0.0025023285 -0.00010471826 0.0012907627 0.018194197 -0.00036901486 -0.012323281
0.0023267649 -0.01211512 0.0036272728 0.014176688 0.013265196 -0.0040949387 -0.0017535932 0.014098538
0.031310197 -0.001047937 -0.0038391557 0.012496147 -0.003962767 -0.010856811 0.009631903 0.003523484
0.023377702 -0.0072723785 0.004131718 0.0019442573 0.014354657 -0.0036311967 0.0015636306 0.0017767209
0.0038668783 0.021100108 -0.0055613252 0.012509835 -0.003813879 -0.008953929 0.0041222833 -0.009270162
-0.0072069606 0.006120329 -0.0023550445 0.0023701882 0.0052740667 0.0043221973 -0.0143546555 0.001642425
0.0006788917 -0.016520662 -0.017403329 -0.015451634 0.014811261 0.0050332127 0.0055428343 -0.005331751
0.0033640824 0.019109558 0.020803392 0.012452109 -0.00039370664 0.00011926115 0.01416683 0.00037508234
-0.008399378 -0.0044969707 0.008671316 0.002935241 0.023043789 0.0012972656 -0.009389783 0.009948298
0.0045879786 0.005026219 -0.0026585956 0.0092571 0.009816767 -0.0024414158 -0.011526623 -0.0014186894
0.006698353 -0.007452808 -1.95592e-05 0.0038806756 0.001505729 0.005805575 0.006998335 0.0032028668
0.027176725 0.00036998326 0.010515202 -0.0019041239 -0.011748399 0.0051280363 0.01487702 0.003036223
0.0009350797 0.0032248416 0.014455884 0.0043305503 0.0034139873 -0.0033382091 0.0021529475 0.010137913
-0.00593721 0.023497187 -0.0054243514 -0.0010453444 0.03125804 0.0070109866 0.01680231 -0.00037131325
-0.01083085 0.018748496 -0.011954707 0.019106433 0.0018271828 0.024597935 -0.005971367 0.023215992
-0.0013394579 0.006087276 -0.00029726845 -0.010998328 0.0002562618 0.009388587 -0.0018244655 0.022931175
-0.015169062 0.016294261 -0.00072076696 -0.0077261953 0.008476938 0.016444532 0.0036133996 -0.0008803924
0.0034164945 -0.0012903629 0.014407858 0.015391167 0.0111857215 0.0050781057 0.0024436172 -0.0058238516
-0.013343784 0.0023501033 -0.01014143 -0.016557643 0.015266108 0.005259301 0.016389742 0.0039904607
0.004326148 0.0017342472 0.006534622 -0.015771154 0.0013322785 0.004843637 -0.0059855217 -0.0007691943
0.002981302 -0.0006292367 0.007532587 0.0057737897 0.0134971505 0.0015835221 -0.0027577942 0.01019467
-0.0013168108 0.015605273 0.0035865703 0.0069402275 -0.0065422393 0.00653717 0.005317345 -0.009400374
-0.0059705265 -0.013008873 0.010029564 -2.5513167e-05 0.004551802 0.0068895184 0.012339868 -0.001315229
0.02083687 0.011055887 -0.0023977894 -0.006176542 0.008468875 -0.0006122985 0.014522703 0.02007241
-0.0069279857 -0.007297666 -0.0038047805 0.0029331797 0.002820412 0.015473969 -0.004326286 0.0013048005
0.010563832 0.012994965 0.009789285 0.0004231484 -0.013798465 -0.0017686279 -0.0037566575 0.025192825
-0.012175446 0.00659621 -0.022636287 -0.0021060316 -0.000318962 -0.007701723 0.013475693 -0.007350095

network_body._body_endoder.seq_layers.2.weight f4 [256, 256]
00000000: 962d 5cbc 495a a93d c87d 9e3d 2c8c 5d3d
00000010: ee76 fc3c ffda 1fbd 0814 7d3c 1620 06bd
00000020: d106 2d3b 44f3 5a3c 06ad c53d c953 643d
00000030: 9e10 cbbc ee3d 253d 5616 35bd 3944 d9bd
00000040: dbdb e73b 6e6c d23d 42f3 f2bc 05be d2bb
00000050: 6703 1a3d 0f2d b3bd 2352 9d3d 9383 74bd
00000060: cdb9 b3bd 68ed fa3c 5e4b 1bbd 41e4 f73b
00000070: 1e58 5abd cd69 e5bc 1b58 0abd 5885 393b
00000080: 5671 5fbc 9abd cebd 1cb1 a13c 2966 ad3c
00000090: dc68 a8bc dbab e2bd 36bc b5ba 980d 093d
000000a0: 0dfb 6e3c e23a 43bd d8ef 573c 72df 233d
000000b0: 676d ab3c 91b3 42bd 19fc 20bd e321 d93c
000000c0: 831d 073e d3f0 e03d 9a45 99bd 244a 623c
000000d0: ed6a b3bd 7c2b d93d 21da cd3b c3d3 a53d
000000e0: f482 6c3d 0856 39bb 76b7 c3bc 8a39 b0bd
000000f0: d09d a2bd 5a5a d3bd 33a6 cf3c c3ca d73c
00000100: 0e36 fb3d 293b 4ebd 2c05 0b3d c10c e4ba
00000110: 9f88 99bd 5f8d 423d 7e69 abbb 2c42 fa3c
00000120: 6d14 003c bf38 1dbd 0d8a bb3c 0708 a7bd
00000130: 8fe8 b8bc 074e 333d 2d05 fe3d d010 a63c
00000140: f826 fdbd 1bec b83b 17a2 dc3c 4836 0dbd
00000150: a86d 6fbd 5c8f 383d 296e 273c dc97 153d
00000160: 5cc2 3dbd 23e6 8dbc 25c1 4ebe 9ab6 4ebc
00000170: 6b28 c93d 65c0 d6bd e195 5c3d 9465 9dbb
00000180: fc2d 123d 1933 6c3d 73c2 85bd a4f0 183d
00000190: f386 c53d 4cf0 a6bd 4cae 063e a9fb 92bd
000001a0: 1dc7 3c3d c735 cd3d 702e a7bc b949 0abe
000001b0: cb64 283c 022b 093c e536 923d 7f14 2abc
000001c0: 70e0 bbbc 4af5 813d df9d 533c 12f2 55bd
000001d0: 36b1 323c d764 97bd 30a4 2b3c e108 5cbd
000001e0: 769b dbbc d547 183e 9f4e b43d e781 f4bc
000001f0: 07e4 843c 7cb6 0f3e a446 37bd b8d1 2d3e
00000200: e4d6 1a3d 199f 323e f139 0c3e 8dff 973d
00000210: 4e54 df3c 3fba 4dbd d15b 45bd fed1 12bc
00000220: f915 7c3b 86ce 0a3e d725 df3c 458c 3fbd
00000230: 9880 5dbc a475 9abd 025f b139 185e a4bd
00000240: ede0 9fbd 1647 90bd 0768 22bd b349 1e3e
00000250: 1375 96bc 1697 ca3c 3945 b53c b5ad 613d
00000260: 0660 d13c ebab acbc 3234 76bd 1952 c53d
00000270: 80f6 203c 9899 633d 3174 8cbd 8dcd f33c
00000280: 4f08 95bc 6347 953d 355f abbd 479b 16bd
00000290: d7c2 c0bc 0ef5 b03c a842 a6bd bcba 933d
000002a0: 5d41 02bd 9327 763c b12d 84bd 3af3 103e
000002b0: 1beb 1b3e 5e9b b9bd eb81 93bc 2e22 45bc
000002c0: 9179 a2bd a4b2 6ebd 58d6 bdbd 09b4 903d
000002d0: cdc3 04bd 68a2 f4bc 1d51 90bd c113 73bc
000002e0: b9be 9ebd 871e 423d 7ab3 743d 4f73 90bd
000002f0: 1a8d 733c 9af6 09bc 05e7 a4bb 0e90 1abd
00000300: e751 703d d562 0b3d 0cb5 6cbd 37a4 943d
00000310: c5df 94bc a19f cd3a 9a9d 523d cf15 15be
00000320: 6277 0a3e 5bd5 5e3d 4e2f a7bc 16e8 a53c
00000330: 351e 933d 3baa 163e 3b7e 803d 5794 0b3d
00000340: a41d 46bc 52d6 643c 7aee 23bd 04bd a43c
00000350: 47b4 573d 7eaf 2bbd 0741 793d b4cc aabc
00000360: 2a2e 313d 931f 803d 4d0d 84bb 5b0e 27bd
00000370: 4b3e e0bd 7060 a1bd 6106 a93c 2a5f 2dbd
00000380: 90e8 6b3d 7197 2d3d b98a 99bd 5df3 9cbd
00000390: 5437 5bbc 8ebb 603d 0b04 543b 3032 c63d
000003a0: 64af c0bc 3bf6 d0bb 2569 1f3d 9695 193d
000003b0: 537c 803b 4de5 983c a461 fcbc 17bd 67bc
000003c0: 4def 493c 72c1 f13c f957 6b3d e282 ce3d
000003d0: 08cb da3d 0283 59bd 4846 ab3d 913f 22bc
000003e0: f296 e9bb 2d39 303e de4a debc a253 c03c
000003f0: d6aa e6bc 5c8b 11be c0ab ab3c 41ed 313d
-0.013438603 0.08269174 0.077388346 0.054088756 0.030818429 -0.03902721 0.01544667 -0.032745443
0.0026401768 0.013363663 0.09652142 0.055743966 -0.024788197 0.040342264 -0.044210754 -0.106087156
0.0070757694 0.102745876 -0.02965701 -0.0064313435 0.0376009 -0.087488286 0.07681682 -0.05969579
-0.08775673 0.030630782 -0.037913673 0.007565052 -0.05330669 -0.028004551 -0.03377543 0.0028308239
-0.013637861 -0.100947574 0.019737773 0.021166878 -0.020557813 -0.11067935 -0.0013865295 0.03346023
0.014586222 -0.047663577 0.013179742 0.040008016 0.02092619 -0.04753453 -0.03930292 0.026505416
0.13194852 0.109834336 -0.074839786 0.013811622 -0.08760629 0.10603997 0.0062821065 0.08097031
0.057742074 -0.0028280038 -0.023891192 -0.08604725 -0.079402566 -0.103199676 0.025347805 0.026341802
0.122661695 -0.05034939 0.03394048 -0.001739882 -0.074967615 0.047498103 -0.0052310815 0.030549131
0.00781737 -0.038384195 0.022892976 -0.08155828 -0.02257183 0.043775585 0.12403331 0.020271689
-0.12360948 0.0056433803 0.02693276 -0.034475595 -0.058454186 0.045058593 0.010219135 0.036521778
-0.046327934 -0.017321652 -0.20190866 -0.012616778 0.09822162 -0.10485915 0.053853873 -0.004803369
0.035688385 0.057665918 -0.06531229 0.037338868 0.0964488 -0.08151302 0.13152426 -0.071769066
0.046088327 0.10020023 -0.020407885 -0.13504685 0.010277937 0.00837207 0.071393766 -0.010380863
-0.022934169 0.06345613 0.012916057 -0.05223281 0.010906508 -0.073922805 0.010476157 -0.053719405
-0.026807528 0.14871152 0.08804058 -0.029847099 0.016222013 0.14034456 -0.044745103 0.16974533
0.037802592 0.17443503 0.13693978 0.07421789 0.02726188 -0.050226446 -0.048183266 -0.008961199
0.0038465245 0.13555345 0.027239723 -0.04676463 -0.013519429 -0.075419694 0.00033830857 -0.080257595
-0.07806573 -0.070448086 -0.03964999 0.15457802 -0.018366372 0.024730247 0.022127734 0.0550973
0.025558483 -0.02107807 -0.06010837 0.096347995 0.009824395 0.0555664 -0.06858099 0.0297611
-0.018192438 0.072890066 -0.08367769 -0.036769178 -0.023530407 0.021601226 -0.081181824 0.07213351
-0.031800617 0.015024084 -0.064540274 0.14155284 0.15226404 -0.09062837 -0.018006286 -0.012032075
-0.07933343 -0.058275834 -0.092693985 0.07065589 -0.032413293 -0.029862598 -0.07046721 -0.014836253
-0.07751221 0.047392394 0.059741475 -0.07053243 0.014865184 -0.008420611 -0.0050324225 -0.037735038
0.05867186 0.0340298 -0.057789847 0.07257884 -0.018173108 0.0015687832 0.05141983 -0.145591
0.13522103 0.05440269 -0.020408299 0.020252269 0.07183496 0.14713375 0.062740766 0.034077015
-0.012092028 0.013967114 -0.04002235 0.02010966 0.05266216 -0.04191541 0.06085303 -0.020849563
0.043256916 0.06256022 -0.004029906 -0.040785175 -0.109493814 -0.07879722 0.020632925 -0.042327084
0.057594836 0.042380754 -0.07497162 -0.07663605 -0.0133798905 0.054866366 0.0032351043 0.09677541
-0.023521133 -0.006377009 0.038918633 0.037496172 0.0039210706 0.018664027 -0.030808277 -0.014144204
0.01232512 0.029511187 0.057456944 0.10083558 0.106832564 -0.053103454 0.083630145 -0.009902851
-0.00712859 0.17209311 -0.027135309 0.02347738 -0.028157633 -0.14213318 0.02095592 0.043439154

network_body._body_endoder.seq_layers.2.bias f4 [256]
00000000: 2b2f 9d3b 8c7c 703c b4c0 c2b9 e3f1 7abb
00000010: 9b77 8ebb 0efc ab38 6102 2bbc 0924 e53b
00000020: da34 833b 94e0 e9bb cd9c 6d3b 7eae 0e3c
00000030: 9088 373c f616 813b f435 0d3c 38ee 2abc
00000040: 123b a0bb cb97 9b3b 61ec 39bb 49cf beba
00000050: e473 c03a 8cb8 9e3b 5cdb 153c 6730 8f3b
00000060: 78e4 39bc 3303 18bc eedc 283b 01f2 873b
00000070: 7149 afbb 18d4 9b3b f381 413b 2c04 01ba
00000080: bcb4 cf3b 1953 583a 6e84 dfbb 0192 e13a
00000090: 6c09 303b b3c8 ea3a 3ff7 f137 14a6 12bc
000000a0: 7fa7 a938 f9af 403c 47e6 4c3b cfe4 273c
000000b0: 4e77 88ba 9997 7b3b 4541 9e3b 5fb5 413c
000000c0: fc66 85bb afc3 1fbb dab0 2cbb 6fba 2c3c
000000d0: 9eea d7bb 00c7 c63a dd41 3fbb 27d0 843c
000000e0: c9f6 de3b abe0 163c 45d7 9dbb 8b1a 173a
000000f0: 3095 fe3a 6af2 b13b c6ad 513c 6233 9d3a
00000100: 733b 473c c577 283b 48dc f8bb 9d3d 37bb
00000110: 0a0c 07bb d751 133a 70cd d0b8 61d5 683b
00000120: 11d0 103b 8a93 ffba bdb2 45bc e0b4 0f3c
00000130: b55d f83b f95e cf3a ac06 29bb 433a 0a3b
00000140: eb1d 6f3b 1a67 f4bb 7d0a 073c 25c0 5d3a
00000150: 0fe7 bc3b 54cd 7f3b 39b5 4dbb e0ba 833b
00000160: 68f9 733c 58f5 29bb 94a4 5e3c 0f3a 203c
00000170: c3ea 95bb c907 8abb afa0 343c b23d c1ba
00000180: 2056 9dbb b8b1 4a3c 78b6 623b a0ac c93b
00000190: e07b ad3b c71f 01b9 14a7 c5ba 982a 89bb
000001a0: 915b acbb 2fc2 e23b fb5b 49bb 4456 2b3c
000001b0: cc9c cebb d1b9 f8bb 8091 f03b 8812 343c
000001c0: 460c d839 6ff9 2a39 9a27 323b 9091 64bb
000001d0: 221f 683a 6512 e03b c6c7 1d3b e8c2 193c
000001e0: 47d3 d23a bf1a c73a 7f5a 413c 3c82 d8bb
000001f0: 30e1 073c d72b de3b 2ff3 58bb 3781 093c
00000200: 6eb6 293c 5c6d f83b c7bc 16bc 6653 873c
00000210: 9249 b83b ea95 773b 6f67 3dbb 0a5f 4e3b
00000220: ad88 b5b9 28f2 a8bb 74da 66bb d828 0e3b
00000230: ca28 bc3a 006e 3d3b cebd 30bc 126d 8fbb
00000240: 18c6 9c3b 3e3b 3bbb 82aa f03b 4108 7cbb
00000250: 2b5e 3f3b 7a6a e53b d5c8 883b 21d6 183b
00000260: ac64 093b d07e 3d3c 2d97 fe39 93e5 77ba
00000270: 6f09 1cbc d53e efba b79c d73b 11b7 c03a
00000280: 788d 4e3a c133 103b b4e2 193c 12fc 93bb
00000290: 0d3e 1fbb a822 ed3a 7f21 0d3c 30df f83b
000002a0: 54b8 003b dfee 2b3b 99cd 8ebb 7bb9 b63b
000002b0: 7df9 44ba c44b 61bb aa7c b63b 8830 16bb
000002c0: 8bec 413b 07e8 a43c b845 b43b b1f8 e23b
000002d0: 904a 84bb bcea cebb 1a70 b9ba 95a4 283c
000002e0: 23b1 1b3b 639d 5dbb 2e4f ce3b 14a2 bdba
000002f0: bebb 48b7 3b0d acbb 9f39 9ebb 956a ce3b
00000300: bdbc 213b c3e5 0f3a 00ce f7ba e6b7 323a
00000310: ffe9 03bb 041d b1bb f47f 173c e34d 703c
00000320: 60a3 7c38 fa7b 72bb c1b6 803b 463b 95bb
00000330: bce6 263c 970b b03b 54c1 b2ba d8c8 1cbc
00000340: 615b 973b 760d 923c 9f70 9db9 7aad 393c
00000350: e0ed 013a e6d1 f4ba f615 da3a 8392 fc3b
00000360: 552d 2c3c a463 55bb 8c5d a9bb 2e50 1ebc
00000370: 530c 14bc 2cda 563b ae20 5d3b 4007 9bbb
00000380: 95c8 2b3c 91fc 2e3c 1b77 c23b 7fcf 9f3b
00000390: cca5 96ba aae9 6e3b b746 9b3a ec00 043c
000003a0: 7d77 04bb 9530 d43b 3f86 193c 377e 1abb
000003b0: 4a80 013c 8555 783b bd74 feba 5aa9 123c
000003c0: e5bf c53b cef3 84bb efe2 bc3a e485 563b
000003d0: 8dfd bd3b 6bac 70bb af48 1cbb 6325 0abb
000003e0: 51e2 813c 6ce6 123a 4c71 8d3b b5fa 59bb
000003f0: 0b69 0b3c 08b0 153c e2dc 43bb f39a c5bb
0.0047968826 0.014678132 -0.00037146138 -0.0038291148 -0.004347754 8.200864e-05 -0.010437579 0.006992821
0.004004103 -0.0071373675 0.003625679 0.008708594 0.011201993 0.0039395047 0.00861882 -0.010432772
-0.004889854 0.0047483197 -0.0028369653 -0.0014557625 0.0014682976 0.004843777 0.009146538 0.0043697837
-0.011345975 -0.0092781065 0.002576645 0.004148722 -0.005349331 0.004755508 0.0029526919 -0.0004921581
0.006338684 0.00082521286 -0.006821207 0.001720965 0.0026861085 0.0017912596 2.8844572e-05 -0.008950729
8.0897466e-05 0.011760705 0.0031265186 0.010247423 -0.0010411532 0.003838992 0.004829558 0.011823027
-0.0040711146 -0.002437811 -0.002635053 0.010542496 -0.006589248 0.0015165508 -0.0029183545 0.016212536
0.0068043214 0.009208838 -0.004816922 0.0005764148 0.0019423123 0.0054305093 0.0127977785 0.0011993463
0.01216017 0.0025706154 -0.007594619 -0.0027960308 -0.002060654 0.00056198 -9.9564786e-05 0.0035527574
0.0022096673 -0.0019498926 -0.01206654 0.008771151 0.00757953 0.0015821151 -0.002579133 0.0021091856
0.0036486338 -0.0074585797 0.008242247 0.0008459113 0.005764849 0.0039032297 -0.0031388535 0.00402008
0.014891006 -0.002593359 0.013589043 0.009779467 -0.004575105 -0.004212354 0.011024638 -0.0014743118
-0.0048015267 0.012371473 0.0034593623 0.0061546117 0.005294308 -0.00012314237 -0.00150797 -0.004185986
-0.005259939 0.006920121 -0.003072499 0.010457579 -0.0063053127 -0.0075905104 0.0073415637 0.010990746
0.00041207875 0.00016305385 0.002718425 -0.00348768 0.0008854737 0.0068381303 0.0024075373 0.009384848
0.0016084694 0.0015190466 0.011801361 -0.006607322 0.008293435 0.0067801285 -0.0033103933 0.008392624
0.010358436 0.007581396 -0.009200281 0.01651926 0.0056240046 0.0037778565 -0.0028900763 0.0031489753
-0.00034624842 -0.0051558204 -0.0035225423 0.0021691825 0.0014355418 0.0028904676 -0.01078744 -0.004377016
0.004784357 -0.0028569247 0.007344545 -0.0038457068 0.0029200416 0.0070012184 0.0041743317 0.002332099
0.0020964546 0.011565879 0.0004855929 -0.00094565115 -0.0095237335 -0.0018252978 0.006579961 0.0014702996
0.0007879357 0.0022003504 0.009392429 -0.004516133 -0.002429846 0.0018091993 0.008613943 0.0075949654
0.0019641118 0.0026234908 -0.0043580052 0.00557631 -0.00075139833 -0.0034377435 0.0055690603 -0.002291711
0.0029590453 0.02013017 0.005501475 0.006926619 -0.004037209 -0.0063146036 -0.0014147789 0.010293146
0.0023756705 -0.0033815734 0.00629606 -0.0014467859 -1.1964641e-05 -0.0052506006 -0.0048286463 0.0062993267
0.0024679147 0.0005489254 -0.0018905997 0.0006817564 -0.0020128486 -0.0054050703 0.009246815 0.014667007
6.0233637e-05 -0.0037000165 0.003928036 -0.004554185 0.010186847 0.0053724754 -0.0013637939 -0.009569369
0.0046190475 0.017828684 -0.00030029283 0.011332864 0.00049564056 -0.0018678277 0.0016638625 0.0077078952
0.010508855 -0.003256061 -0.0051686224 -0.009662671 -0.009036141 0.003278385 0.0033741402 -0.004731089
0.010484834 0.010680334 0.0059346086 0.0048770304 -0.0011493503 0.0036455193 0.0011846636 0.00805686
-0.0020212822 0.006475518 0.009370386 -0.0023573765 0.007904122 0.003789277 -0.0019413453 0.008951509
0.0060348385 -0.004057384 0.0014410893 0.0032733614 0.005798048 -0.0036723863 -0.0023847034 -0.0021079413
0.015854986 0.00056037935 0.0043164846 -0.0033261005 0.008508931 0.009136207 -0.0029886295 -0.0060304343

action_model._continuous_distribution.log_sigma f4 [1, 5]
00000000: 38fc 4d3c 014f cd3c ed47 29bc 03dc 16bd
00000010: 78a8 82bc
0.012572341 0.025062086 -0.01033209 -0.036830913 -0.015949473

action_model._continuous_distribution.mu.weight f4 [5, 256]
00000000: 9ae8 c3bc 6132 2fbb dd65 3abc e76a fe3c
00000010: ab2e 45bc 38f8 c93c 466c 6d3b db02 2a3c
00000020: 1fdc 60bc e467 603c 7a3a f83c edee 86bc
00000030: 2025 0ebd 91ad 2f3b 668b 0fbc 3bbd 743c
00000040: cf65 e13c 9a76 b5bc 3928 d63c 6d17 1e3c
00000050: 091d 453c 6097 9bbc 4ca7 95bc 59e5 fabb
00000060: 6803 fa3a 3204 23bc 21df f3bc 54bd 973b
00000070: cdba 8e3c c72b 0dbc 68da fbbc 2b49 adbc
00000080: e118 983c 61b8 6b3c 9ede bcbc 7498 4f3c
00000090: 7a91 b03c aa11 8abc 41d0 b73c c88b 813c
000000a0: 8f11 033c ab69 43bb 246e 343c 7805 0abd
000000b0: ab42 d5bb 2aa7 403d faba b0bc 47a0 fc3b
000000c0: fb61 833b 3d3b 703c fa28 9abc 5221 223c
000000d0: 1c7b 513c 23f9 c93b 1d8e 6ebc 63ee bbbc
000000e0: 2b7e 44bd 2dcb 8b3b 2eed 693d fb3d adbb
000000f0: 1b22 6abc 9eff 283c 0fc7 35bd ea2c 313d
00000100: a568 ccbc ae7c e73c 8d8d bf3c 78c1 f13c
00000110: 495d 203d adb1 7dbc 7d47 f5ba 55f8 fdbc
00000120: f386 b7bc 89d8 8abc 74a4 713c 1d18 85bc
00000130: f8e4 d7bc 77a2 14bd 4e7f 4d3d c15c 6c3c
00000140: 8797 0abc 0575 263b 0d22 32bc 7d6d 08bd
00000150: 9d03 0abd 88f4 99bc 7b81 bb3b e59c d2bc
00000160: f0ba d0bc d393 1bbc 7fee 58ba 3127 053b
00000170: 9911 27bc 858c aa3c 41a0 c23c a98f 4d3c
00000180: 3335 7fbc 12db 61bd fa8e 89bc b9dc da3b
00000190: e61b 483c 2162 373c 4a1c b9bc 7933 d13c
000001a0: 3910 0a3c 452b e53c ac65 873c 1537 d8bb
000001b0: f48f 3f3b 4ab9 ed3b a5c4 03bd 6a13 c43c
000001c0: 4979 25bc 134c b6bc de5d c33b bed8 333c
000001d0: 1a92 06bd 721c 80bb 8572 de3c d3a2 3fbc
000001e0: 999e 7ebc 112c 1a3d f0cd 27bc 03de a93c
000001f0: e1f0 41bc c3ac 9c3a 7b02 643c 022b 82bc
00000200: 446b 903b 3e57 bcbc 9d54 9e3b 068f 0ebd
00000210: adee a23c b5b0 09ba 4423 d83c 58a3 333d
00000220: 3d44 163d b8ed c93c e8fb c03c 1cc9 ccbb
00000230: 4ac7 68bc 4d5b f8bc 864f 393b 73f4 ea3b
00000240: 240a 933c d8a9 2e3c aecb e63c 7343 f8bb
00000250: d5d6 ed3c 97db cfbc ffa9 113c 8d8b e23c
00000260: cca1 a83c 928f 02bd 7faa 143c 2a6d afbc
00000270: 2311 403c 9253 f33c dda3 663c 2485 fc3c
00000280: 42f1 d73b 525f 04bc 61e5 a5bc 029f 8bbc
00000290: d670 ac3c df8a 7c3c 5740 0fbc 944b 903b
000002a0: 1f2f 20bd 4310 debb 6cf2 bbbc bdba 073c
000002b0: a39d fabb 6b5e 533a 1ecf 38bd cb62 cf3c
000002c0: 0d74 1abc 6374 16bd d400 90b9 f407 953b
000002d0: be5c 053c acaf 34bc 3730 3c3c 82ec ca3b
000002e0: 8089 253d 6954 9e3c 2e21 c73c 62f8 b3ba
000002f0: 72d9 bcbc eaa0 063a 497b 063b 0539 3b3d
00000300: 3707 23bb d4ca b1bc 0d1f 0fbc 153a d83c
00000310: d223 443c 2080 2e3b 897e 95bc 0993 5a3a
00000320: 8d12 a63c 49c4 443b 256a afbc 82cd a4ba
00000330: 6f77 5c3b 7165 f83c 133f 0a3c c865 8d3c
00000340: d18d 5d3a a448 48bb 43b4 143b 6333 05bc
00000350: 63a7 c63c 42af 98b9 e695 203d c7a2 ab3b
00000360: 2ce7 b5bc 94a0 193d 399e 203c 8e4e 013c
00000370: 0d53 853c 2eed 14bc 5b29 9abc b2aa 673c
00000380: 9e49 f73c 2ca3 d6bc 1219 33ba f8e8 0e3a
00000390: e8dc 86bc 3129 debb b531 8e3b 17e9 d63c
000003a0: 86ad b2bc 2297 013c 4bd9 71bc 33d3 863c
000003b0: 6c00 07bc 1062 7bbc 69e3 a2bb ba64 123b
000003c0: ca7a c4bc 8ef1 923c 4030 a0bc dd6c 09bd
000003d0: b5e6 b83c 832f 503c 153d 5f3c 4e49 65bc
000003e0: 9f81 bbba 73e9 6d3c 4e74 0cbc e575 27bb
000003f0: ca2d 883b 266e 773c 14e2 043d da84 8abb
-0.023914624 -0.002673291 -0.011376825 0.031056834 -0.012035052 0.024654493 0.0036227866 0.010376657
-0.013724356 0.013696644 0.030301321 -0.01647135 -0.034703374 0.0026806334 -0.0087612625 0.014937694
0.027514366 -0.02215128 0.026142227 0.00964914 0.012030848 -0.01899308 -0.01826825 -0.007656735
0.0019074501 -0.009949731 -0.029769482 0.004630724 0.017423058 -0.008616394 -0.030743793 -0.021153053
0.01856655 0.014387221 -0.02305537 0.012670625 0.021553744 -0.016854126 0.02243817 0.015813723
0.007999792 -0.0029817622 0.011012588 -0.03369662 -0.0065081916 0.04703442 -0.021573532 0.0077095362
0.004009483 0.014662561 -0.018818367 0.0098956395 0.012785699 0.0061637326 -0.01456025 -0.02294082
-0.047971886 0.004266164 0.057110958 -0.0052869297 -0.014290358 0.01031485 -0.04437929 0.043255724
-0.024952242 0.028257694 0.023382926 0.029511198 0.039151464 -0.015484256 -0.0018713322 -0.031002203
-0.022403216 -0.016948955 0.014748681 -0.01624685 -0.026354298 -0.03628775 0.050170235 0.014426411
-0.0084589785 0.002539934 -0.010872376 -0.03330754 -0.033694852 -0.01879336 0.0057222224 -0.025709579
-0.025479764 -0.009495693 -0.0008275285 0.002031755 -0.010197067 0.020818958 0.023758056 0.012546458
-0.0155766485 -0.055140562 -0.01679181 0.006679144 0.012213683 0.011192829 -0.022596497 0.02553724
0.008426719 0.027974734 0.016527973 -0.006598363 0.002923009 0.007254754 -0.032169957 0.023935039
-0.010099717 -0.022253072 0.0059621176 0.010976968 -0.032854177 -0.003909641 0.027154217 -0.011696535
-0.015540742 0.03763968 -0.01024197 0.020735746 -0.011837215 0.0011953342 0.013916607 -0.015889648
0.0044073183 -0.022990819 0.004831864 -0.034804367 0.0198892 -0.00052524667 0.026384003 0.04385695
0.03668617 0.024649486 0.023557618 -0.00624956 -0.01420767 -0.030316973 0.002827616 0.007170254
0.017949171 0.010660611 0.028173294 -0.0075764 0.029033104 -0.025373263 0.008890628 0.027654434
0.020584963 -0.0318752 0.009073853 -0.021414358 0.011722836 0.029702935 0.014077154 0.030825205
0.0065900395 -0.008079367 -0.020250978 -0.017043594 0.021049898 0.015413969 -0.008743367 0.004403541
-0.03910744 -0.006776841 -0.022942744 0.008284268 -0.0076481863 0.00080630806 -0.045119397 0.025315663
-0.009427083 -0.03673209 -0.00027466437 0.004548067 0.008139787 -0.011028212 0.011486105 0.0061927447
0.040414333 0.01932736 0.024307813 -0.001373064 -0.023052905 0.00051356724 0.002052026 0.045708675
-0.0024876127 -0.021703161 -0.00873543 0.026394883 0.011971431 0.0026626661 -0.018248813 0.000833795
0.020272518 0.0030024222 -0.021412918 -0.0012573453 0.0033640524 0.030321809 0.00843789 0.017260447
0.0008451613 -0.0030560875 0.0022690452 -0.008129927 0.024249738 -0.00029122276 0.039205454 0.0052379104
-0.022204958 0.037506655 0.009803348 0.007892264 0.016274953 -0.009089751 -0.018818548 0.014139818
0.03018647 -0.026200853 -0.0006832044 0.0005451585 -0.016462758 -0.0067798127 0.0043394216 0.026234193
-0.021811258 0.007909568 -0.014761279 0.01645813 -0.008239847 -0.015343204 -0.004970957 0.002233787
-0.023984332 0.017937448 -0.019554257 -0.033551086 0.022570947 0.01270664 0.013625403 -0.013994528
-0.0014305598 0.014520991 -0.008572651 -0.0025552448 0.004155849 0.015101945 0.032442167 -0.004227263

action_model._continuous_distribution.mu.bias f4 [5]
00000000: 4d38 92bb 339d 083c f26f 1f3a 94ae 92bb
00000010: 8b06 59bb
-0.004462278 0.00833826 0.000608205 -0.0044763777 -0.0033115472
