results/hb_01/Hummingbird/Hummingbird-757120.onnx (onnx, 318566 bytes, 7 tensors)

network_body._body_endoder.seq_layers.0.weight f4 [256, 46]
000000 4f 26 6e be b5 02 84 3e 8a 92 f3 bd 1b f7 7b bc
       -0.23256801 0.25783315 -0.118931845 -0.015378739
000010 dd 18 24 3e 51 07 80 3c f4 c4 5b be 29 ef 45 3e
       0.1602511 0.015628489 -0.2146185 0.19329514
000020 78 df f4 3c 82 b8 54 3e bf 7f 60 bc 24 e5 f2 3d
       0.029891714 0.20773509 -0.013702332 0.11860111
000030 18 8f 10 3d 61 eb 4e be c2 93 f5 bd 7e 51 9d 3d
       0.035292715 -0.20206977 -0.11991073 0.07681559
000040 16 ef 12 be 8f 25 0e 3e b1 06 a8 bd 6f 98 86 bd
       -0.14349017 0.13881515 -0.08204401 -0.06572043
000050 41 d0 57 be da 3d 41 3e b8 15 70 3d 00 61 90 bd
       -0.21075536 0.18871251 0.058614463 -0.07049751
000060 84 cb 81 bd bb 4d 9b bd ea cc da bd d6 2b 48 bd
       -0.06337646 -0.07583185 -0.106836155 -0.04886993
000070 aa 00 b2 bd 4d 09 dc bd bd cc ab 3c cf 8b e6 3d
       -0.08691533 -0.107439615 0.02097165 0.11257135
000080 d3 68 a8 3e 7f b2 94 bc 88 b4 1c 3e 88 64 89 3d
       0.32892475 -0.01815152 0.15303242 0.06708628
000090 98 d4 62 3d 6b 10 dd 3c 9b 9f 14 3e e4 4c 67 3d
       0.055378526 0.026985368 0.1451401 0.056469813
0000a0 b3 07 1a 3e b6 13 62 bd 8c 10 11 3d 61 b8 b7 be
       0.15042 -0.05519458 0.03541617 -0.35882857
0000b0 e4 07 2a be d7 da ce 3c 21 ff d5 3d d0 e8 69 3d
       -0.16604573 0.025250835 0.104490526 0.057106793
0000c0 45 e3 ee 3d 8e fd 0e 3d 27 90 e6 bd 7e 61 0f 3e
       0.11664442 0.034909777 -0.11257964 0.14002034
0000d0 f2 0f 85 3e 68 28 3c 3e 57 87 e6 bd 84 fc c1 3d
       0.25988728 0.18374789 -0.11256283 0.09471992
0000e0 6d 67 c3 3c 89 cc 02 be b7 ea c3 bd 5e b8 fc 3d
       0.023853028 -0.12773336 -0.09566253 0.12339853
0000f0 11 2c 20 be 88 a6 3d 3c fa b6 c7 bc ba 14 b1 3d
       -0.1564181 0.011575349 -0.024379242 0.086465314
000100 7f 11 0a 3e 08 68 3c 3c 4b 36 4c 3d af f3 e9 bd
       0.13483237 0.011499412 0.049856465 -0.11423432
000110 81 f1 37 3e 54 11 59 3e 18 e2 15 be 75 41 fc 3c
       0.1796322 0.21198016 -0.14637029 0.030792931
000120 60 44 15 3d 37 7c 01 bc d5 fa 16 3e a1 57 27 bc
       0.03644216 -0.00790315 0.14744122 -0.010213763
000130 5c 01 f9 3d be b7 f1 3d 17 fb b7 3b 07 1c c5 be
       0.121584624 0.11802624 0.005614649 -0.38497946
000140 c6 be 26 be 25 52 db bd b9 6a 63 3d 03 4c 93 bb
       -0.16283712 -0.10709027 0.0555217 -0.0044951453
000150 da 14 0c 3e b1 51 90 bd ea c7 43 3d ff ea e0 3c
       0.13679829 -0.070468314 0.047798075 0.027455805
000160 57 bc 6b 3e 5c 3f ae bd 05 e2 c6 be 86 36 6b 3d
       0.23021065 -0.085081786 -0.38844314 0.057425044
000170 81 18 58 be 13 75 d8 3d 16 45 63 3d 52 14 96 3d
       -0.21103097 0.10569205 0.055485807 0.073280945
000180 d4 4d 4e bc dc 2c 8e 3c 4b 83 74 be 7d 98 87 bd
       -0.012591798 0.017355375 -0.2387821 -0.06620882
000190 ed 81 84 3e bc ca 7e 3e a5 6b be 3d fc 90 2a 3e
       0.25880376 0.24882025 0.09297875 0.1665687
0001a0 21 7e cd 3d c9 48 f8 3d 62 fc 37 bc e2 09 24 be
       0.10033823 0.12123258 -0.011229606 -0.16019395
0001b0 5f 24 f8 3d e1 c2 89 3d 77 9b a0 bc 57 0b 9f 3d
       0.12116312 0.06726623 -0.019605381 0.07765835
0001c0 ca 81 29 be e4 8a 16 3e 63 70 05 be 75 9d 05 be
       -0.16553417 0.1470142 -0.13031153 -0.13048346
0001d0 51 5c b1 bd 88 15 6f bd 8f 8e 02 be a8 8f 8c 3e
       -0.08660186 -0.058370143 -0.12749694 0.2745335
0001e0 ff 73 24 bd ed 81 b2 bd af 07 4a be 04 d4 b5 bd
       -0.040149685 -0.087161876 -0.19729494 -0.088783294
0001f0 e4 42 d4 3e be c3 d5 3d 43 ec 4d be c2 7c 6d bd
       0.41457283 0.104377255 -0.20109658 -0.057980306
000200 c4 55 59 bd 82 a1 92 be 24 88 37 bd 8b ed 90 bd
       -0.053060308 -0.28638846 -0.04480757 -0.07076558
000210 85 ac 00 3d a9 d9 45 3e bf 9d eb bd 87 53 15 3e
       0.031414527 0.19321312 -0.11504697 0.14582644
000220 01 18 85 be 3b 0a 9a bd 4e af 9e 3d 9c 07 5b be
       -0.25994876 -0.075214826 0.077482805 -0.21389621
000230 17 45 35 bc b0 10 29 3e 16 7a 1e 3b 43 21 1f 3d
       -0.011063836 0.16510272 0.0024181656 0.03885008
000240 eb 4a a5 3e fe 48 17 be ec 6d c1 3d 5c 16 4e 3d
       0.3228372 -0.14773938 0.09444794 0.050314292
000250 d9 60 ff bd 70 0a 30 3e b8 08 07 3c 33 45 e5 bd
       -0.12469644 0.17191482 0.008241825 -0.11194839
000260 6a 26 10 3e 95 70 11 3e 61 e7 57 3e 19 f2 80 3d
       0.14077154 0.14203103 0.21084358 0.062961765
000270 9e f2 2d 3d 4d c5 78 3a e6 ac a7 bd 9a d7 47 be
       0.042467706 0.00094898493 -0.08187275 -0.19515839
000280 2a 2a 18 be 1f f6 fc 3d 0f 07 b2 3d 54 0c 10 3e
       -0.14859834 0.123516314 0.086927526 0.14067203
000290 fd 31 a2 bd 71 48 39 be 47 95 36 be 3e a1 14 be
       -0.07919691 -0.1809404 -0.17830382 -0.14514634
0002a0 34 72 1e bd 7e c9 4f bd 87 89 9d 3e b2 1d e4 3d
       -0.03868313 -0.050729267 0.30768988 0.111384764
0002b0 c4 90 f0 3d 12 21 89 bd e4 11 11 3c 98 b5 58 bd
       0.11746362 -0.06695761 0.008854363 -0.052907556
0002c0 ac 3b ca be e8 c7 00 3e 40 cf 16 be 14 e5 82 3e
       -0.3949865 0.12576258 -0.14727497 0.25565398
0002d0 6a bc d5 bd 64 b5 52 3e e0 66 65 3e d8 c7 c3 3e
       -0.10436328 0.20577008 0.22402525 0.38238406
0002e0 e5 6b 12 3e 49 d2 a0 3d 4a 5d 12 3e dc bd 01 3d
       0.14298971 0.07852609 0.142934 0.031675205
0002f0 9c 04 09 be 13 49 d0 bc ad dc 85 3c 73 b8 6a 3d
       -0.13380665 -0.02542547 0.016340578 0.05730481
000300 3b a2 a7 3d e7 bd 5c bd e9 e1 0a be d1 c2 a4 3d
       0.0818524 -0.053892042 -0.1356274 0.08044971
000310 7e f8 a2 bd 08 79 38 be 61 a3 07 3e 8d a7 55 3d
       -0.079575524 -0.1801492 0.13245918 0.052161742
000320 d4 74 24 bd cf 29 f8 3c 71 8b e9 3d 90 b7 1d 3e
       -0.04015048 0.030293373 0.114035495 0.15402055
000330 2b 7b 0e be f4 04 2e 3d 99 45 66 bd ba d3 03 bd
       -0.13914172 0.042485192 -0.056218717 -0.03218434
000340 69 50 2e 3e d9 44 c0 be 1a 1d d4 bc 15 78 97 bd
       0.17022862 -0.37552527 -0.025892783 -0.07395951
000350 81 73 ef bd cb ed 77 3b fa 4f fb bd 4e e3 7a bc
       -0.116919525 0.0037830945 -0.12271114 -0.015312983
000360 b5 06 34 be ca 8f a5 be 8f c0 a2 bd 6f 97 ff 3d
       -0.17580684 -0.32336265 -0.07946884 0.124800555
000370 27 a7 60 be 85 19 01 3e 13 de 3f be dd ca 05 bc
       -0.21938764 0.12607391 -0.18737058 -0.008166042
000380 2f 1a a9 3e 90 55 a3 be 4a 73 28 bd 67 a0 92 3d
       0.3302779 -0.31901217 -0.041125573 0.071595006
000390 90 66 ad bd dc 69 28 3e a4 72 60 bd 0b 3f f6 3c
       -0.08466828 0.16446632 -0.05479683 0.030059358
0003a0 67 57 50 be c4 5e 86 3e cf fe 53 3d eb 63 38 3d
       -0.20345841 0.26244175 0.051756676 0.045017164
0003b0 96 85 8b 3d 7c de 4b bd 0d c8 d2 3d 0d a1 ce 3c
       0.06812589 -0.049772725 0.10292063 0.02522328
0003c0 25 3f 19 3d a5 12 56 be 2e df 8e 3d 61 43 23 3e
       0.037413735 -0.2090555 0.06976162 0.15943672
0003d0 1d 24 82 bd 98 dc bc 3c be 07 82 3d 9f a4 7c 3e
       -0.06354544 0.023054406 0.06349133 0.24672173
0003e0 8a 28 18 3d fa d8 6d be f7 f6 ff bd b1 bd 4d be
       0.037148036 -0.23227301 -0.12498277 -0.20091893
0003f0 43 b4 c0 bd 27 04 2e 3e 51 a2 6c be 12 62 80 3e
       -0.09409382 0.16993771 -0.23108794 0.25074822

network_body._body_endoder.seq_layers.0.bias f4 [256]
000000 67 a6 c0 3a e3 36 d9 3b ee 0e ec 3b a8 27 c3 3c
       0.0014698029 0.0066288575 0.007203928 0.02382262
000010 05 9d 98 3c 0e 16 97 3b 8d 7d 12 3c d6 ad 0f bb
       0.01862956 0.0046107834 0.008941066 -0.0021923683
000020 ba 21 a3 3c 41 bc f4 3b de 7c ad 3b 8d 6a 07 3d
       0.019913543 0.0074687307 0.0052944263 0.0330606
000030 ca 64 1f 3d a3 44 7a 3c fe d7 6e 3c 1d 8b 01 bc
       0.03891448 0.015275153 0.014577864 -0.007906702
000040 fa d9 80 3b ca 53 93 bc 47 eb a3 bb c6 ae 7d 3c
       0.003932235 -0.01798429 -0.0050024125 0.015483564
000050 02 50 71 3b 45 b3 97 3c 27 59 da 3b 58 61 63 3c
       0.003682137 0.0185181 0.00666346 0.013878189
000060 2f 07 e5 3c 66 e4 10 3c b4 fb 28 3c c2 8c af 39
       0.027957527 0.008843517 0.010313917 0.00033483474
000070 10 0f 18 3c d8 16 f8 bb b9 bb b0 bb 89 0a 5d bc
       0.009280935 -0.0075710826 -0.005393472 -0.013491281
000080 6e 45 2e 3c d3 61 5e 3c f7 7d 0c 3c 71 83 32 3c
       0.0106366705 0.013573128 0.008574954 0.010895596
000090 e4 15 92 3c 01 3a 8f 3c ad 73 96 bc 58 af eb 3a
       0.017832704 0.017483713 -0.018365705 0.0017981334
0000a0 80 bd 3a 3c 9b ac 11 3c 76 a9 52 3a d5 40 85 3b
       0.011397719 0.00889125 0.0008036116 0.0040665665
0000b0 1e 17 c2 39 c3 4d bb 3c 7f f5 95 bb 97 0e 32 bc
       0.00037019787 0.022864228 -0.0045763846 -0.010867736
0000c0 a6 21 88 3a ff 63 7e bc 41 75 0b 3c 6e cd ac 3c
       0.0010386005 -0.015526771 0.008511842 0.02109405
0000d0 4d 77 a1 3c b5 c9 77 bb 2f d1 28 bc 6b 54 98 3c
       0.019710207 -0.0037809436 -0.0103037795 0.018594941
0000e0 10 f3 0b 3d ed 40 2d 3a cd f9 a0 b9 8f 3d 38 3c
       0.03416735 0.0006609101 -0.00030703694 0.011245145
0000f0 bf f1 bf ba d4 4c ce bb c8 90 3c 3c cc 52 be 3a
       -0.001464419 -0.0062957797 0.011509128 0.0014520525
000100 62 31 b0 3c 5d c9 94 bb a0 42 1b 3b 99 64 ff ba
       0.021507923 -0.004540606 0.0023690835 -0.0019484936
000110 72 ea 46 3c ee ec d8 ba 89 4a 15 3c e2 46 c1 3b
       0.012140857 -0.0016550103 0.009112009 0.0058983425
000120 f7 c5 a0 3b 73 50 86 3c aa 0e 94 b9 18 46 a5 3c
       0.0049064117 0.016395783 -0.00028239685 0.020175025
000130 f2 ff 8d ba 7a 16 40 bc 5d 0a 5a 3b bf a9 db bb
       -0.0010833724 -0.011724109 0.0033270337 -0.006703585
000140 d6 a3 42 bc fc 39 63 3c ab 92 bf 3a ca 3a 28 3b
       -0.011879882 0.013868805 0.0014615854 0.0025669807
000150 e0 af 35 3c 0e 7e ca ba 88 72 79 bc 4a 7b ce ba
       0.011089295 -0.0015448944 -0.01522506 -0.0015753296
000160 86 38 82 3b 5e be 7e bc 24 6c 79 bc 37 e3 7e bc
       0.0039740233 -0.015548317 -0.015223537 -0.015557102
000170 c9 7a d1 3c 18 f1 24 3c 72 0e fe 3a 3b 68 0b bb
       0.025571244 0.010067247 0.0019382967 -0.0021271843
000180 1a 33 13 3c 32 38 ac 3c 1d f8 de 3c 64 45 6c 3c
       0.0089843515 0.02102289 0.027217919 0.014420841
000190 5b b0 57 bb 4f e7 b4 ba af 92 a9 3c 4b af f9 3a
       -0.0032911513 -0.0013801845 0.020699827 0.0019049434
0001a0 d3 18 44 bc 40 2f 0a bc 03 f5 26 3c a3 e2 8f 3b
       -0.011968809 -0.008434117 0.010190251 0.004391031
0001b0 57 18 d1 3c 20 3c f1 3b 5b 4c 38 bc bc 70 85 3c
       0.025524301 0.007361904 -0.011248673 0.016289108
0001c0 5b a6 b7 3b bc 21 ca 3b 31 6d 87 bb 3a 83 33 3c
       0.005604548 0.006168572 -0.0041328897 0.01095658
0001d0 99 5d 9e 3c 39 93 8a bb a5 f8 13 bc 65 fb 04 bc
       0.01933174 -0.004228976 -0.009031449 -0.008116578
0001e0 35 d7 19 3c d6 84 29 bc 7d 16 9f 3a 6c d8 93 3b
       0.009389688 -0.010346612 0.0012137439 0.0045118835
0001f0 93 ff b6 3b ea c6 62 3b 20 be 72 3c c4 ee 9c 3a
       0.005584666 0.0034603425 0.014815837 0.0011973013
000200 90 2b 06 3d d2 ba 01 3b 14 c9 89 3c aa 90 98 39
       0.03275639 0.0019795191 0.016819514 0.00029099482
000210 f5 71 12 bc 6e 4a 20 3c 4f 1f 92 3c 89 de 5c 3b
       -0.008938302 0.00978337 0.017837195 0.0033701977
000220 26 70 d4 3b e2 f5 17 3b 9b 41 69 3c dc 89 0e 3b
       0.0064830957 0.002318733 0.014236833 0.002174965
000230 55 98 b9 b9 68 b7 e2 ba 66 c5 fb 39 dd 06 4e 3c
       -0.00035399446 -0.0017297091 0.00048021524 0.0125748785
000240 11 14 cc bb 3a 60 da 3c 01 8e a2 bb c5 25 7f 3b
       -0.006227978 0.026657213 -0.004960776 0.0038932425
000250 06 0a ef 3c ec fa ca 3b 12 b9 55 3c 69 85 17 3c
       0.029179584 0.006194463 0.0130446125 0.009248116
000260 8c e1 5c bc fd 3d eb 3c 35 51 27 bc 0e 02 91 3c
       -0.013481509 0.028716082 -0.010212232 0.017701175
000270 ae 46 13 3c a1 f3 d6 3c 2a 20 d2 bb 8c 2b f3 3c
       0.008989019 0.026239218 -0.0064125257 0.02968385
000280 bf 8c 04 3c 8e 67 2f 39 84 a3 1e 3a 05 9a ee bb
       0.008090197 0.00016727878 0.00060515874 -0.007281544
000290 e5 b3 c7 3b 59 1b 8a 3c f2 d8 cc bb 41 a5 f8 3c
       0.006094443 0.016858744 -0.006251448 0.030352237
0002a0 a0 51 80 bc 59 ff c7 3c a4 f3 05 bb c2 23 36 bc
       -0.015663922 0.024413751 -0.002043941 -0.011116924
0002b0 82 bc 04 3c 2a 8d c0 3c 98 9f 78 bb d9 4e 7b 3b
       0.008101584 0.023504812 -0.0037936922 0.0038346557
0002c0 86 07 14 3c bc 3a de ba 36 ee 86 3c fe d6 a8 3c
       0.009034997 -0.001695476 0.01647101 0.020610329
0002d0 5f e2 59 3c fe 33 f9 3b a5 ef 2d 3c e5 b2 a2 bb
       0.0132986 0.007605075 0.010616218 -0.0049651735
0002e0 e7 d6 60 bc e6 2c 8e 3b e9 ee 6a bc 40 b2 2a bc
       -0.013723112 0.0043388484 -0.014339187 -0.010418475
0002f0 ef 91 74 3c 8a a1 2c 3b 25 cb 0e 3d 41 04 c3 3a
       0.014927371 0.0026341402 0.034861702 0.0014878587
000300 e0 fd a4 ba 65 c7 26 b9 de 58 06 3c a4 b2 fa bb
       -0.0012587868 -0.00015905274 0.0081998985 -0.00765069
000310 dc 26 4f 3b 5c 25 dc 3b e4 36 f0 ba b1 3a 3e ba
       0.0031608855 0.006718321 -0.0018326906 -0.00072566705
000320 29 27 f3 3b e2 8f 39 3b 3f 4d 9d 3a 51 f6 d0 3a
       0.0074204397 0.002831452 0.001200117 0.0015942549
000330 50 8c 6a 3c f3 7f 7a 3b e6 55 fa bb 1b 5c 24 3c
       0.01431568 0.0038223236 -0.0076396344 0.010031725
000340 2e a9 82 ba 22 27 bc 3c 61 6c df 3a d7 6d dd 3a
       -0.0009968632 0.022967879 0.0017045849 0.0016893697
000350 a0 24 09 bc aa e9 98 3b 05 af 15 3c a2 06 5d bb
       -0.0083705485 0.004666527 0.009135966 -0.0033725877
000360 4c 10 3b bc 82 eb 0a bc c7 e0 5c 3c 4c 1d 99 3b
       -0.01141746 -0.008479001 0.0134813255 0.004672682
000370 f1 a6 f3 3b 70 91 32 3c eb df 88 3c 1a 73 3f 3b
       0.0074356725 0.010898933 0.016708335 0.0029212893
000380 d0 3f c5 3c 05 f8 52 3c 11 7d c4 38 68 ff 1c bc
       0.02407828 0.012876515 9.369304e-05 -0.009582378
000390 b5 9c 46 3c 43 43 c3 3b 48 fb 66 3c eb 6b 9c 3c
       0.012122323 0.005958946 0.014097996 0.019094428
0003a0 e9 fc f6 bb 58 31 1f bb d6 d0 ab bb b3 e8 f6 3b
       -0.0075374735 -0.0024290886 -0.005243401 0.007535064
0003b0 bb 0f 31 3b b2 52 d9 3c 0b 7e 06 bc 9c 99 cf 3a
       0.0027017433 0.02652869 -0.008208762 0.0015838626
0003c0 bf 8b b9 3c 51 2b 6e 3c 24 69 4c 3c 38 64 94 ba
       0.022649644 0.014536695 0.012476239 -0.0011321371
0003d0 c5 8f 72 bc 53 c1 76 3a 00 91 eb bb e2 9d 0e 3d
       -0.014804785 0.0009412963 -0.007188916 0.034818538
0003e0 b3 1a 32 bc f0 51 1b 3c d1 5b c0 bc 9a 08 e2 3b
       -0.010870623 0.009479985 -0.023481281 0.006897998
0003f0 c0 de 54 3b b2 25 5d bb 00 e5 92 3c c1 8c ce bb
       0.0032481402 -0.0033744392 0.017931461 -0.0063034003

network_body._body_endoder.seq_layers.2.weight f4 [256, 256]
000000 6b f1 82 bc c3 8a 8b 3d 6a e0 bd 3d 6a 1c a6 3d
       -0.015984258 0.06813576 0.09271319 0.08110888
000010 73 2b dc 3c 97 06 43 bd d0 71 80 3c 0a 35 0e bd
       0.026876187 -0.047613706 0.01567927 -0.03471855
000020 1a 4a 87 bb bc db 37 3c 77 53 d9 3d 2c a2 4e 3d
       -0.0041287066 0.011221822 0.10611623 0.050447628
000030 25 b8 05 bd 08 ca 28 3d f2 71 2e bd 89 97 dc bd
       -0.032646317 0.041208297 -0.042589135 -0.107710905
000040 2b bf 79 3c 8a f9 d8 3d b6 9e c2 bc 55 35 12 bb
       0.015243332 0.10594471 -0.02375732 -0.002230962
000050 95 40 10 3d 07 45 94 bd e9 ce 9a 3d 8e cd 87 bd
       0.03521784 -0.072397284 0.07558996 -0.06631003
000060 55 c9 ae bd 08 4c d6 3c 33 c9 af bc 95 83 b1 3c
       -0.08534495 0.026159301 -0.021458244 0.021669189
000070 aa c3 57 bd bc 86 d8 bc 81 1d da bc 71 2b 7a bb
       -0.052676834 -0.026431434 -0.026625397 -0.0038172866
000080 22 f6 a4 bc b3 5f cb bd 9c 0c 81 3c cb 20 4e 3c
       -0.020136897 -0.099303626 0.015753083 0.012581061
000090 f8 10 bb bc 56 16 d8 bd 45 fe 83 3b f2 c9 05 3d
       -0.02283524 -0.10551135 0.004028114 0.032663293
0000a0 f0 a5 f2 3b b2 44 69 bd b2 e9 9e 3c f1 3d f5 3c
       0.007405035 -0.05695028 0.019398544 0.029936763
0000b0 f1 9f d5 3c de 5e 61 bd b4 3d 30 bd 00 ef d8 3c
       0.026077243 -0.055022113 -0.043027595 0.026481152
0000c0 c8 c7 02 3e d9 be de 3d b1 09 ac bd e1 bf ee 3a
       0.12771523 0.10876245 -0.08400286 0.0018215143
0000d0 c8 b1 c8 bd f7 78 00 3e 1d d8 2a 3c 5e 42 a9 3d
       -0.09799534 0.12546144 0.010427502 0.08264612
0000e0 7c 67 49 3d 7e 3e 9b bb a0 4c 18 bd d9 37 bc bd
       0.049170956 -0.0047376743 -0.03718245 -0.091903396
0000f0 76 49 b5 bd 4a d0 c9 bd df 35 63 3c c6 18 cc 3c
       -0.08851902 -0.09854181 0.013867824 0.024914157
000100 3a 43 ef 3d f8 59 40 bd 3b a4 1d 3d 97 ba dc 3b
       0.11682744 -0.0469608 0.0384867 0.0067361104
000110 f2 d8 93 bd 48 4d 2e 3d ab 19 a6 bb 30 0c 00 3d
       -0.072191134 0.04255417 -0.005068978 0.031261623
000120 cd 0c 8a bb d6 3b 3f bd cc 1e d5 3c 20 33 93 bd
       -0.0042129518 -0.046687923 0.026015662 -0.07187486
000130 08 21 0a bc 65 6d 33 3d f5 2d 03 3e ce 4e a7 3c
       -0.008430727 0.0438055 0.128105 0.02042332
000140 5b 5b fa bd 42 3f a9 ba 00 a0 d2 3c 90 d8 aa bc
       -0.12224456 -0.0012912529 0.02571106 -0.020855218
000150 6e d4 80 bd 22 38 44 3d 03 d4 65 3c f9 0b 29 3d
       -0.06290518 0.047905095 0.014027598 0.041271184
000160 5d ff 2c bd 90 af 8a bc bf 56 4a be d9 1d 69 bc
       -0.04223572 -0.016929418 -0.19759654 -0.014228308
000170 85 f1 d9 3d c3 9f e2 bd 06 3e 78 3d 0b 8b 39 bc
       0.10641769 -0.110656284 0.060606025 -0.011324654
000180 d3 c2 d7 3c da 71 6d 3d 97 09 7e bd 40 aa fb 3c
       0.026338017 0.057969905 -0.062020864 0.03072083
000190 6e 9c c2 3d fd bf a9 bd d2 54 0d 3e 21 33 a1 bd
       0.09502493 -0.08288572 0.13801888 -0.0787108
0001a0 e5 4b 2d 3d 60 da e1 3d cc 0e 2c bc 8a 65 0a be
       0.042308707 0.1102798 -0.010501575 -0.13515297
0001b0 11 55 e9 3b eb 84 30 3c 60 8a 9e 3d 32 c1 0e 3c
       0.0071207364 0.010773878 0.07741237 0.008713054
0001c0 64 f5 45 bc a3 a1 78 3d c4 50 64 3c 7e bd 43 bd
       -0.012082431 0.060701024 0.013935272 -0.047788136
0001d0 8a 85 4b bc 42 34 7f bd 70 5c 71 3c bc 3a 25 bd
       -0.012421975 -0.062305696 0.0147315115 -0.040339217
0001e0 18 20 83 bc 2e aa 18 3e 39 5d c6 3d 2e 29 d5 bc
       -0.016006514 0.14908668 0.096857496 -0.026020613
0001f0 bd 05 10 3d 10 d5 13 3e bf f2 4e bd c1 60 2d 3e
       0.035161722 0.14436746 -0.05052447 0.1693144
000200 85 f5 11 3d 49 a1 2d 3e 94 5e 03 3e f8 f2 8f 3d
       0.035634536 0.16956057 0.12829047 0.070287645
000210 e1 9f 00 3d 81 e6 63 bd 3f ee 21 bd 14 fe c6 38
       0.031402472 -0.055639748 -0.03953385 9.4887015e-05
000220 60 6c 08 bb ed 87 0f 3e f7 f4 20 3d 8a ee 3c bd
       -0.002081655 0.14016695 0.039296117 -0.046125926
000230 77 7f 8f bc ac d1 9a bd bf df 76 3a 13 47 ae bd
       -0.017516835 -0.07559523 0.0009417496 -0.0850965
000240 d5 e8 a6 bd f1 f3 a1 bd 03 18 f9 bc 90 db 1b 3e
       -0.08149878 -0.07907856 -0.030406957 0.15220475
000250 c1 c3 0d bc 1c ed 60 3c 89 50 8b 3c 50 14 8b 3d
       -0.008652628 0.013728406 0.017006176 0.06790984
000260 53 ac f0 3c 62 29 c0 bc 2e 02 8a bd ea a2 cb 3d
       0.029379046 -0.023457233 -0.06738697 0.09943183
000270 7e 1f be bb bc 3c 87 3d 37 21 96 bd 33 23 ef 3c
       -0.005802094 0.06603381 -0.07330554 0.029191589
000280 69 19 32 bc 73 67 8c 3d 6a 54 a7 bd 70 73 2e bd
       -0.010870316 0.06855669 -0.081703976 -0.04259056
000290 79 d2 a8 bc b6 03 76 3c 28 5d b6 bd 62 25 66 3d
       -0.020608174 0.015015533 -0.08904487 0.056187995
0002a0 88 0d bc bc 02 89 c9 3b 9b b8 93 bd 5c 32 1b 3e
       -0.022955671 0.006150366 -0.07212945 0.1515593
0002b0 30 c3 22 3e 12 67 c2 bd f5 b9 ba bb eb 0c 40 bc
       0.1589477 -0.09492315 -0.0056984373 -0.01172183
0002c0 79 ba ae bd 8f d5 7e bd df 59 bf bd 95 76 90 3d
       -0.085316606 -0.062215384 -0.093433134 0.07053868
0002d0 af 7a eb bc 05 26 f2 bc c8 d6 c4 bd e4 20 9e bc
       -0.028745024 -0.029559145 -0.09611279 -0.019302793
0002e0 72 4d 96 bd 0f 28 6b 3d 25 9b 8d 3d 1d 6a 81 bd
       -0.0733899 0.05741125 0.06914357 -0.063190676
0002f0 47 8f 9c 3c 9e 03 02 bb d9 5d 73 bc f6 05 1f bd
       0.019111289 -0.0019838582 -0.014853918 -0.038824044
000300 e6 5d 8d 3d 4c 35 1d 3d 8d bc 74 bd d3 53 88 3d
       0.06902675 0.038380906 -0.05975013 0.06656613
000310 64 e3 35 bc e8 7e 55 3c 5e b2 26 3d c1 59 14 be
       -0.011101577 0.013030745 0.040697448 -0.14487363
000320 a2 bc 13 3e 12 21 84 3d fa f5 07 bc 7d b5 d0 3c
       0.14427426 0.0645162 -0.0082983915 0.025477165
000330 ba bb 9d 3d 67 2c 17 3e dd 55 84 3d 6d 38 10 3d
       0.077018216 0.14763032 0.064616896 0.03521006
000340 9a 38 37 bc c6 69 71 3c 85 68 09 bd 21 71 9b 3c
       -0.011182928 0.014734691 -0.033546943 0.018974843
000350 29 e6 4a 3d b9 dd 19 bd 0f a2 99 3d e3 77 34 bd
       0.049535904 -0.037564967 0.07501613 -0.044059645
000360 7f 4f 64 3d 18 cf 60 3d f3 17 a5 bb 6b 59 df bc
       0.055739876 0.054885 -0.0050382554 -0.027264317
000370 46 76 f3 bd 9b d9 89 bd 97 ee 8c 3c 67 84 3f bd
       -0.11887793 -0.06730958 0.017203612 -0.046757128
000380 e4 48 7f 3d 38 6b 2b 3d f1 32 a0 bd b5 07 99 bd
       0.062325373 0.0418503 -0.07822216 -0.07472173
000390 bf 59 88 bc 67 7e 22 3d 82 99 5f 3b 18 f9 bb 3d
       -0.016644357 0.039671328 0.0034118597 0.0917837
0003a0 b2 89 a9 bc 40 46 d0 bb 82 7a 3d 3d c3 34 27 3d
       -0.020695541 -0.0063560307 0.04625941 0.040821802
0003b0 47 e1 81 3b 5d ea 76 3c 82 ff 9d bc f6 fc 80 bc
       0.0039636227 0.015070525 -0.019286875 -0.015745621
0003c0 1c 35 98 3a c9 b5 ef 3c 28 da 6b 3d ae c9 cf 3d
       0.0011612508 0.029261487 0.057581097 0.10145889
0003d0 99 5d e6 3d 6e c7 41 bd ba d9 b8 3d f2 ec fc 3b
       0.11248321 -0.04730933 0.09025903 0.007718676
0003e0 86 58 fd ba 06 4f 2b 3e 44 62 c4 bc 23 3a 0e 3c
       -0.001932875 0.16729364 -0.023972638 0.008680853
0003f0 6f 17 ec bc 63 f3 16 be a6 01 99 3c 9c bb 2a 3d
       -0.028819768 -0.14741282 0.018677544 0.041682824

network_body._body_endoder.seq_layers.2.bias f4 [256]
000000 69 da ad 3b 6c 61 61 3c 44 55 1e 3b 9c 4c 67 bb
       0.0053055775 0.013756137 0.002415971 -0.0035293465
000010 94 ae 3a bb 42 f8 34 3b 7c 30 e2 bb 4d 19 19 3c
       -0.0028485404 0.0027613793 -0.0069027524 0.009344411
000020 f6 df ef 3b a8 45 dd bb a9 9b 19 3b 69 51 4f 3c
       0.0073203994 -0.0067526884 0.0023438728 0.012653687
000030 17 a9 3a 3c c7 1c 11 3c d6 53 3e 3c dd 64 5b bc
       0.011392853 0.008856959 0.011616668 -0.013390747
000040 8b fc 7a bb 0a 4a 04 3c 8c 9a 05 bb 39 74 70 bb
       -0.00382975 0.008074293 -0.0020386307 -0.0036690368
000050 a3 67 41 3a 26 64 f8 3b 77 37 59 3c ba 73 47 3a
       0.0007377809 0.007580298 0.013257853 0.0007608492
000060 a7 e7 f7 bb c4 64 0f bc ae bc a7 3b f5 73 ab 3b
       -0.007565457 -0.008752052 0.005118928 0.005232329
000070 17 8f 17 bb 59 a9 fd 3b a6 8c f2 3b fd d0 3e 3a
       -0.002312606 0.007741135 0.0074020205 0.00072790665
000080 53 a6 5c 3c 3e 83 d6 39 02 7a e9 bb 16 2c 35 3b
       0.013467389 0.00040915044 -0.00712514 0.0027644685
000090 a4 48 97 3a 4e 79 1f 3a 96 5b 74 3b 68 3d 0f bc
       0.0011542034 0.00060834445 0.0037286035 -0.008742668
0000a0 a4 dc 4a 38 22 d6 31 3c 89 1d 03 3c 69 f5 22 3c
       4.836604e-05 0.010854276 0.008002647 0.009946206
0000b0 6e 46 2d 3b ca 51 f8 3a a8 24 21 3c 7e 93 57 3c
       0.0026439684 0.0018945273 0.0098354 0.0131577235
0000c0 81 af c5 bb a2 e2 c2 38 cf 92 95 ba c6 c3 59 3c
       -0.0060328846 9.2928545e-05 -0.001141155 0.013291305
0000d0 0e fb de bb 69 1c c2 3b a6 e2 f4 3a 82 47 ab 3c
       -0.0068048304 0.005923797 0.0018683269 0.020908121
0000e0 7d 5e 16 3c ff 28 35 3c f7 d6 8a bb 98 d8 8f b9
       0.009177801 0.0110571375 -0.0042370516 -0.0002743646
0000f0 20 06 8e 3b a4 63 00 3b 27 ff 9c 3c d9 b6 d5 3a
       0.0043342263 0.001959064 0.019164635 0.0016305103
000100 c8 4a 28 3c 34 5f a1 3b 46 15 d1 bb f6 36 8e bb
       0.0102717355 0.004924679 -0.00638071 -0.004340048
000110 1b d3 ff ba 6a ec 74 3b 2c 5e 84 3b 68 df b8 3b
       -0.001951787 0.003737236 0.0040395465 0.0056418665
000120 7d 16 e5 3a 8b ed 3b bb 09 a0 ed bb f1 0b e0 3b
       0.0017478016 -0.0028675522 -0.0072517437 0.006837361
000130 8b 71 4f 3c e8 2b b6 3b e4 47 60 bb 3b b8 8f b9
       0.012661348 0.0055594333 -0.0034222538 -0.00027412348
000140 88 a9 c2 3b ec b1 ac bb 89 54 7d 3c ce be ec 3b
       0.00594062 -0.0052702334 0.015462049 0.007224894
000150 6b 88 3c 3c 21 0c df 3b 66 ca e5 3a ac fa 96 3b
       0.011507134 0.006806866 0.0017531633 0.004607519
000160 16 ee 90 3c 01 75 03 3b 17 b5 2f 3c d0 7f 26 3c
       0.017691653 0.0020058753 0.0107243275 0.010162309
000170 47 eb 58 ba f3 12 fd ba af b5 60 3c 8a aa 31 3b
       -0.0008274805 -0.0019308015 0.013715192 0.0027109706
000180 12 7b c5 bb 69 d3 31 3c 2e 0b f9 3b 32 2c 82 3b
       -0.006026634 0.010853627 0.0076002097 0.0039725536
000190 eb 0b 7c 3b 0f 8e 41 ba 55 e1 95 bb 8f 7f b4 bb
       0.0038459252 -0.0007383534 -0.004573981 -0.00550837
0001a0 4d 5a 50 bb 86 79 b1 3b 52 01 18 ba 23 96 65 3c
       -0.0031792105 0.005416098 -0.00057985366 0.014012846
0001b0 26 a1 3b bb 20 15 13 bc 8b c0 37 3c d7 1f 2e 3c
       -0.0028629988 -0.008977205 0.011215339 0.010627708
0001c0 aa 5a 6b 3b 89 4b cf 3a 1a 3f 58 38 1f 1d fa ba
       0.0035912194 0.0015815358 5.155718e-05 -0.0019082165
0001d0 9f d6 73 3a 92 2c 0d 3c 55 5a 5e 3b 0c 08 67 3c
       0.00093016954 0.008616583 0.0033928354 0.01410104
0001e0 31 4f 93 3b 4b dd 86 39 42 b9 7e 3c 46 ca c2 bb
       0.0044955243 0.00025723348 0.015547099 -0.005944523
0001f0 70 41 02 3c 94 45 5c 3b bf c3 06 ba f8 31 cb 3b
       0.007950172 0.0033610808 -0.0005140863 0.006201025
000200 c4 46 86 3c 69 51 25 3c 7f 44 f9 bb 39 61 ab 3c
       0.016391166 0.0100902105 -0.0076070423 0.020920383
000210 a4 2a 03 3c 63 6e 33 3a be d9 9e 3b 27 3d dd 3b
       0.008005772 0.0006844757 0.0048477342 0.0067516747
000220 ee ca 0d b9 74 0b 9a bb 8d 3a 32 bb 6e 29 9a 3b
       -0.00013522405 -0.0047010724 -0.0027195544 0.004704646
000230 b0 61 cb 3b 1c fe dc 3b 84 a1 21 bc f2 f7 8d 39
       0.0062067136 0.0067441594 -0.0098651685 0.0002707835
000240 2d 68 b8 3b ab f5 23 bb a8 9a 20 3c e8 07 26 bb
       0.005627653 -0.0025018256 0.009802498 -0.0025334302
000250 89 8c b0 3b 3a 74 29 3c ad 4a 11 3b 24 da 91 3b
       0.005387847 0.010342652 0.0022169754 0.004451053
000260 79 b4 a4 3b f5 6f 42 3c 80 ee 26 3b 90 d2 a9 ba
       0.005026397 0.011867513 0.0025471747 -0.0012956429
000270 f2 37 e0 bb 40 43 17 ba e6 0c bc 3b be 1f 5c 3b
       -0.0068426067 -0.0005770214 0.0057388423 0.0033588256
000280 1c e0 02 3a 97 d5 b8 39 2c c0 6e 3c 3c f1 cb bb
       0.00049925013 0.00035254352 0.0145721845 -0.0062238257
000290 64 45 7d 3b 39 4b 68 3b 43 cf 40 3c d5 92 e9 3b
       0.0038646096 0.0035445227 0.011768165 0.0071280994
0002a0 e7 1b b6 3b 0a 20 40 3b 7d a2 0c ba 41 a8 19 3c
       0.0055575254 0.0029315972 -0.0005364789 0.009378494
0002b0 d0 c2 92 3b 86 cc 1b ba 21 1e 0c 3c 0d f8 9b bb
       0.00447879 -0.0005943257 0.008552105 -0.0047597946
0002c0 07 cf 50 3b a6 e9 e5 3c 09 6e 0d 3c 23 05 ea 3b
       0.003186168 0.028065514 0.008632191 0.0071417256
0002d0 f7 c5 af 3a 7e e7 4d bb a0 83 1a 3a 20 5e 1c 3c
       0.0013410439 -0.0031418498 0.00058942474 0.0095439255
0002e0 38 57 f8 3b 8e 06 18 bc d6 f8 0c 3c 3d ea 03 3b
       0.0075787567 -0.0092789065 0.008604249 0.002012863
0002f0 82 b5 de 3a 9e 87 12 bc d2 38 09 bb 79 8a 41 3c
       0.0016991349 -0.0089434665 -0.0020938409 0.0118128
000300 26 27 38 3b 82 f9 12 bb 20 48 10 bb cd ea 5f bb
       0.0028099506 -0.002242655 -0.0022015646 -0.0034167052
000310 9e e2 a2 3b 5c fe 96 bb e3 3d fe 3b 26 87 68 3c
       0.0049708625 -0.0046079587 0.0077588423 0.014192378
000320 c7 c9 2c bb 6f 96 94 bb 0a 99 a9 3b 28 10 52 ba
       -0.0026365386 -0.0045345346 0.0051757144 -0.0008013272
000330 5d 4d 69 3c ff 99 ea 3a 26 2e cd 39 a2 52 09 bc
       0.014239636 0.0017898678 0.0003913503 -0.008381518
000340 f4 d4 88 3b 8e 25 a9 3c 68 51 f6 ba 01 32 87 3c
       0.0041757766 0.02064779 -0.0018792571 0.016503336
000350 73 6d 26 3b c2 98 d5 3a d8 99 00 3b f2 ba 58 3c
       0.0025394827 0.0016296136 0.0019622948 0.013228165
000360 3e f2 1c 3c ac 9f 4f 3a e3 7b f5 bb 38 2d 6f bb
       0.009579239 0.00079202163 -0.007491575 -0.0036495458
000370 ea d8 10 bc db 0a aa 3b bc b3 b0 3b d0 cd 31 bb
       -0.008840779 0.0051892824 0.0053925198 -0.002713073
000380 cf ee 45 3c 29 75 5a 3c 01 0e 04 3c c6 5f a5 3b
       0.012080862 0.013333597 0.008059979 0.0050468175
000390 c6 93 95 3b f1 cc 3b 3b 27 77 56 ba da 14 26 3c
       0.004564735 0.002865609 -0.0008181207 0.010136807
0003a0 b8 4c 32 3b c9 62 50 3c ff e9 76 3c 72 47 98 bb
       0.0027206372 0.012718865 0.015070437 -0.004647189
0003b0 c3 9c 31 3c fa 42 36 3b f1 30 46 3b 36 f9 ca 3b
       0.010840598 0.0027810917 0.0030241574 0.006194259
0003c0 3f b9 ad 3b 62 f7 67 3b 9a 51 9a 3a 72 54 7b 3b
       0.005301624 0.0035395254 0.0011773587 0.0038349894
0003d0 d5 3b 0c 3c c5 b9 15 bb c4 54 7c bb 8f a0 8e ba
       0.008559187 -0.0022846323 -0.0038502673 -0.001088159
0003e0 52 63 b8 3c 4a 2c 8e ba b1 4e 11 ba fc c8 a1 b8
       0.022508297 -0.0010846939 -0.0005543037 -7.7145145e-05
0003f0 cd 3c 3e 3c 98 22 48 3c 65 ba 79 3b e6 ea 59 bb
       0.011611176 0.012215279 0.0038105485 -0.0033251583

action_model._continuous_distribution.log_sigma f4 [1, 5]
000000 f4 6b a3 3b 4e 42 96 3c 32 ad 0a bc 33 4c 27 bd
       0.0049872342 0.018342163 -0.008464145 -0.040844154
000010 9a 62 91 bc
       -0.017747212

action_model._continuous_distribution.mu.weight f4 [5, 256]
000000 31 83 13 bd d9 8d 6c bb 2c 59 57 bc f1 91 1a 3d
       -0.036013786 -0.003609529 -0.013143819 0.037736837
000010 98 40 8b bc bb 67 de 3c 2f 96 aa bb bc 98 65 3c
       -0.016998574 0.027149072 -0.0052058916 0.0140134655
000020 8a 69 93 bc 6e d1 5d 3c ab b9 e9 3c 61 65 af bc
       -0.01799466 0.013538701 0.028530916 -0.021410646
000030 59 d0 16 bd 62 fd 39 3c 84 87 b3 bb ee 8a ae 3c
       -0.03681979 0.011351915 -0.005478801 0.021306481
000040 cb 10 f2 3c a9 1b d6 bc 31 77 04 3d f0 80 43 3c
       0.029549023 -0.026136236 0.032340232 0.011932597
000050 08 6c 97 3c d6 22 d6 bc 56 6a c7 bc ff c3 6c bc
       0.01848413 -0.026139658 -0.024342697 -0.014451026
000060 1e dd 88 bb 6a fe 4f bc ec 4a fe bc 94 8f 24 3c
       -0.00417675 -0.012694934 -0.031041585 0.010043997
000070 2b de ce 3c 41 16 75 bc 27 5a 1e bd 6e 83 eb bc
       0.025252422 -0.014958919 -0.038660195 -0.028749194
000080 3e 0a ab 3c cc ea 56 3c d4 76 cd bc 4b 8c 57 3c
       0.020878907 0.013117503 -0.025081076 0.013156007
000090 3d 83 e2 3c 0f 63 a0 bc 04 e6 e0 3c 7f 4e ac 3c
       0.02765047 -0.019578485 0.02745343 0.021033524
0000a0 a8 ab 2a 3c 3d b3 98 bb 66 ee b5 3c 77 73 18 bd
       0.010416903 -0.0046600387 0.022208404 -0.03721949
0000b0 0a 83 95 bc 18 4d 70 3d af d3 ff bc b9 81 b0 3b
       -0.01825096 0.058667272 -0.031228868 0.005386558
0000c0 44 2d 43 3a 8a e8 8c 3b 49 70 b1 bc 84 84 78 3b
       0.0007445405 0.0043001818 -0.021659987 0.0037920782
0000d0 d6 d7 63 3c c3 56 59 3b 9b 92 c1 bc d6 65 cf bc
       0.01390644 0.0033163286 -0.023629477 -0.025317114
0000e0 ac f7 6e bd c9 2a 86 3b 6b 8d 80 3d 9b a8 bf bc
       -0.058341667 0.004094456 0.06276973 -0.023395827
0000f0 a7 b5 a7 bc ea 7e 2b 3c 30 7a 6c bd 24 5f 58 3d
       -0.02047236 0.01046727 -0.057733715 0.05282511
000100 51 c5 05 bd c9 22 0e 3d cb b5 04 3d 97 f0 10 3d
       -0.03265888 0.034701142 0.032399934 0.035385694
000110 03 a0 4f 3d 34 d1 0b bd 19 7d fd ba b0 b6 2d bd
       0.05068971 -0.03413506 -0.001933965 -0.042410553
000120 88 a0 f5 bc 12 b5 c8 bc 8a 86 88 3c ab 28 ca bc
       -0.029983774 -0.024500404 0.016665716 -0.024677595
000130 1b 51 ed bc 16 76 37 bd e4 47 68 3d 37 a9 6a 3c
       -0.028969338 -0.04479035 0.056709185 0.0143225705
000140 e9 32 30 bc 41 98 86 bb e2 bf 92 bc fa 6a 44 bd
       -0.010754325 -0.0041075055 -0.017913762 -0.047953583
000150 1f 30 26 bd db 39 c0 bc 09 a1 72 3b 64 54 f0 bc
       -0.040573236 -0.023465088 0.0037022254 -0.029337116
000160 fb 62 22 bd f4 cd 33 bc ef c8 4b 3b 91 d7 55 3a
       -0.039645176 -0.010974396 0.0031095108 0.0008157427
000170 97 83 75 bc 20 17 c9 3c 63 28 07 3d 0a 9f 8a 3c
       -0.014984987 0.02454716 0.0329975 0.016921539
000180 76 ae c6 bc e9 1b 85 bd 7d 17 7a bc e5 4f e4 3b
       -0.024253111 -0.06499464 -0.015264389 0.006967532
000190 c6 bb 43 3c 74 a8 88 3c 68 fa ff bc cf 31 a9 3c
       0.011946624 0.016681887 -0.031247333 0.020653633
0001a0 04 a3 98 bb 24 9e 18 3d ee d7 ba 3c 4d e1 76 bc
       -0.004658105 0.03726019 0.022808041 -0.015068364
0001b0 af 65 33 3b 39 47 f0 3b fd b6 31 bd 05 a7 d5 3c
       0.002737384 0.007332709 -0.0433874 0.026080618
0001c0 bf 0a a2 bb 62 4b 19 bd 02 68 0c 3c 3e 8e 4b 3b
       -0.0049451287 -0.037425406 0.008569719 0.0031060125
0001d0 2f 14 1e bd b6 c7 39 3a d4 b2 cf 3c 82 e0 92 bc
       -0.038593467 0.0007086949 0.025353827 -0.01792932
0001e0 06 ea a4 bc d5 ce 3a 3d af 24 44 bc 6d a8 a7 3c
       -0.020131122 0.045607407 -0.011971637 0.020466054
0001f0 3c e3 e4 bc 4e 4f 89 bb 80 23 9b 3c 49 d1 9e bc
       -0.027940385 -0.004190362 0.018937826 -0.019386904
000200 bd c8 b8 39 0e 1b d0 bc 9f e0 04 3c e8 54 4d bd
       0.00035244777 -0.025403526 0.0081101945 -0.0501298
000210 bb cf 0d 3d 98 ec 11 ba f8 b1 e9 3c 10 a3 7b 3d
       0.034621935 -0.0005566566 0.028527245 0.061434805
000220 64 f5 2f 3d c9 e3 a7 3c 25 ba e7 3c 96 4a a4 bb
       0.042958632 0.020494359 0.028287003 -0.005013774
000230 b6 1e ac bc f6 27 09 bd a4 b6 26 3b 87 30 0a 3c
       -0.021010738 -0.033485375 0.0025438452 0.008434421
000240 05 d5 e5 3c e8 31 80 3c 2c b5 db 3c 43 1f 9d bb
       0.028055677 0.015648797 0.026819788 -0.0047949865
000250 c5 c0 29 3d f8 db 08 bd d2 1e ba 3b 71 ba 22 3d
       0.041443605 -0.033412904 0.0056799436 0.039728586
000260 e9 cf ca 3c 92 2a 20 bd 2e 2b 5c 3c f2 17 f8 bc
       0.024757342 -0.0391031 0.013438029 -0.030284856
000270 d9 f5 32 3c 44 03 fd 3c 50 b9 80 3c 0a 76 0a 3d
       0.010922872 0.030885346 0.015713364 0.033803977
000280 21 a5 2e bc e3 8a 4a bc 1f 72 0e bd a5 8f ce bc
       -0.010659487 -0.012362215 -0.034776803 -0.02521498
000290 8c 1d fc 3c 5c 7d a0 3c d2 f1 6a bc 0c 37 2a 3c
       0.030775808 0.019591026 -0.014339881 0.010389101
0002a0 27 82 54 bd 55 42 19 bc 2b df 06 bd 0f 26 af 3c
       -0.051881935 -0.009354194 -0.032927673 0.021380452
0002b0 58 be 1c bb aa 90 41 3b e3 f0 6a bd 72 96 03 3d
       -0.0023917165 0.002953569 -0.057358634 0.032125898
0002c0 9b e0 0c bc 75 6f 2c bd 92 3e 0b bb 0c d1 11 bc
       -0.008598472 -0.04209848 -0.0021247012 -0.008899938
0002d0 28 1a 92 3c 7a c0 36 bc 48 ec 6d 3c 1d fe 1c 3c
       0.017834738 -0.011154288 0.014521666 0.00958207
0002e0 e9 0a 49 3d cf b0 69 3c 59 e0 05 3d c4 21 85 3b
       0.04908267 0.014263346 0.032684658 0.004062863
0002f0 0d 1f d2 bc 11 91 30 bc 9a ea 4d 3b 73 02 8b 3d
       -0.025649572 -0.010776774 0.003142035 0.067875765
000300 5e 8d 8d bc f0 db f2 bc 0f a6 44 bc 37 bd 02 3d
       -0.017279323 -0.02964589 -0.012002482 0.03191873
000310 21 c5 32 3c 49 08 95 bb 84 a7 a0 bc 71 cc c6 ba
       0.010911257 -0.004548107 -0.019611128 -0.001516713
000320 07 51 c2 3c fc 96 cc 3b 80 9d e2 bc 96 33 5d bb
       0.023720277 0.0062435847 -0.027662992 -0.0033752671
000330 ab 27 7d 3a be f9 dd 3c dd 9e 96 3b a0 33 96 3c
       0.0009657095 0.027096625 0.0045965747 0.018335164
000340 f6 a5 a0 ba 73 8b 90 bb da 3d 13 3c f7 12 44 bc
       -0.0012256491 -0.004411155 0.0089869145 -0.011967412
000350 9c ce 08 3d de ca 32 3a 83 52 55 3d 0b ce 4a 3c
       0.033400163 0.00068203907 0.052080642 0.012378226
000360 14 97 e8 bc b7 21 47 3d c6 fa 41 3c 37 d1 28 3c
       -0.028392352 0.048616137 0.011839574 0.010303787
000370 59 3f 94 3c 14 12 ca bb 70 27 02 bd fa a9 6b 3c
       0.018096613 -0.006166706 -0.03177589 0.014383787
000380 2c 62 1a 3d 94 15 14 bd 11 84 84 bb ab 15 df bb
       0.03769128 -0.03615339 -0.004044064 -0.006808003
000390 e2 be a4 bc 9c 5e 20 3b fb 2d aa 3b 49 e4 11 3d
       -0.020110551 0.0024470454 0.0051934696 0.0356181
0003a0 c9 41 d4 bc 46 be af 3b ad 55 e0 bb 1d af 3b 3c
       -0.025910275 0.0053632585 -0.006846151 0.0114553245
0003b0 88 75 5e bc 81 d6 be bc 03 a1 41 bb fb f7 2f bc
       -0.013577826 -0.023295643 -0.0029545433 -0.0107402755
0003c0 ed 41 09 bd a6 25 00 3d 54 c7 b8 bc 8b eb 25 bd
       -0.033510137 0.031285904 -0.022555985 -0.040507834
0003d0 6f c0 e3 3c ae ff 90 3c d0 a2 0f 3c ef c1 9c bc
       0.02780172 0.017700043 0.008766845 -0.019135443
0003e0 44 fb 10 3b dd 9f 2b 3c 8d 06 27 bc b6 aa da bb
       0.0022122422 0.010475126 -0.010194433 -0.0066731824
0003f0 5e 14 81 3b 34 c6 96 3c 87 6a 55 3d 3c 09 89 bc
       0.0039391955 0.018405057 0.052103546 -0.016728036

action_model._continuous_distribution.mu.bias f4 [5]
000000 fd 85 c3 bb 14 a1 dd 3b c6 0c d7 b9 4d be 8c bb
       -0.0059669004 0.006763587 -0.00041017513 -0.0042951466
000010 89 33 d8 bb
       -0.0065979403
